models/Reach/rl/4/20-57-15_Reach_Panda_JOINT_VELOCITY_TD3/models/step_0860000/act_enc.pt (torch, 556173 bytes, 8 tensors)

0.weight f4 [256, 21]
000000 61 35 5e bc 88 33 8c be 38 49 dd 3e fb 30 e5 3c
       -0.013562531 -0.27383065 0.43219924 0.027977457
000010 5d e4 d8 bd cd df 24 be e7 90 6a be 80 7a 19 3e
       -0.10590432 -0.16100998 -0.22906838 0.14988136
000020 5d c3 ba be 7f 11 36 3d 70 6d 85 3e e7 26 60 3e
       -0.36477175 0.04445028 0.26060057 0.2188984
000030 07 fa 2f 3e 7e 03 7b be ad 53 6c bc 45 93 4c bc
       0.17185222 -0.24513051 -0.014424247 -0.012486284
000040 6b f8 e0 3d b5 bd b0 3d 95 9c 2c be 5f 3b a6 3e
       0.10984882 0.08629934 -0.16856606 0.32467172
000050 43 7c c2 3e 4f d8 b7 bd d7 4c 41 3e 82 3e af 3d
       0.3798543 -0.089768045 0.18876968 0.08556844
000060 0e 28 fa bd 8c 20 c7 bb 92 7d c2 3c 01 78 24 be
       -0.12214671 -0.006076878 0.023741517 -0.16061403
000070 38 9c 51 be 92 d2 7a 3e 52 06 2e 3e 3a 5a 70 bd
       -0.20469749 0.24494389 0.16994599 -0.058679797
000080 07 94 e6 be 52 7b 4f 3e fc b8 39 be 88 69 87 3e
       -0.4503481 0.20261887 -0.18136972 0.264477
000090 8a 88 40 be 62 e0 a6 3e b2 15 b1 3d ea 05 9e bc
       -0.18802086 0.32593066 0.08646716 -0.01928993
0000a0 cf d5 00 3e 5f 47 1b be 31 44 1b 3e fc 3a 63 3e
       0.12581562 -0.15163945 0.15162732 0.2219047
0000b0 6f 56 bf 3c 13 e9 bc 3c 6e b6 0a be 5d 07 cf 3e
       0.023356644 0.023060357 -0.13546154 0.40435305
0000c0 db 44 96 3d 27 06 89 3e f8 51 be 3d c2 e6 87 be
       0.07337352 0.26762506 0.09292978 -0.26543242
0000d0 bb aa f3 bc 30 b4 0e bf a6 67 31 be e5 0c bc bd
       -0.029744497 -0.55743694 -0.17324695 -0.09182147
0000e0 c6 67 9b 3d 3c 75 bc 3c e9 d7 d8 bd a6 94 07 3e
       0.075881526 0.02300512 -0.105880566 0.13240299
0000f0 7f db 70 3b bc 81 8d bd 08 b4 88 3d 84 51 fd b9
       0.0036751924 -0.069095105 0.06674963 -0.00048316654
000100 1e 91 3f 3e 93 7a 08 bd 23 da 7b 3e 20 94 a2 3e
       0.18707702 -0.03332002 0.24594931 0.31753635
000110 3f a6 02 3f 23 41 96 3e ad ad d8 3d 10 74 e6 be
       0.5103492 0.2934657 0.10580001 -0.45010424
000120 41 82 a3 3d ba 82 28 be 7e 1a e0 3e b8 d4 39 bd
       0.07983828 -0.16456118 0.43770212 -0.04536888
000130 b4 22 11 3d 36 fd 82 bb 47 47 05 3d c2 ac f1 bb
       0.035433486 -0.0039974703 0.03253868 -0.0073753307
000140 fe bf 26 3d b2 98 dd bc ae de e0 bc e1 c6 10 3e
       0.04071044 -0.02705035 -0.027449932 0.14138366
000150 30 5b c3 bd 8b 14 2d 3e 52 11 ed bd 9e e2 81 3e
       -0.09538877 0.16902368 -0.11575569 0.25368208
000160 7d 87 b0 bb d5 17 34 be b8 ac 52 3e 20 ec 1c bd
       -0.005387245 -0.17587216 0.205737 -0.038311124
000170 82 b1 01 3e f1 5f 79 bd 2e fb 1e 3f 80 77 83 be
       0.1266537 -0.060882512 0.6210202 -0.2567711
000180 87 3d c4 bd 6d 30 14 3d 33 ae e6 3c 24 34 22 3c
       -0.09582048 0.036178995 0.028159237 0.009900127
000190 a0 f1 97 3d 5f 38 0a bf d5 0a 1f 3d e1 d0 04 3d
       0.07419133 -0.53992265 0.03882869 0.032425765
0001a0 1d e5 0a 3e 05 44 e3 3c df a1 e1 3d 38 de 38 be
       0.13563962 0.027742395 0.110172026 -0.1805352
0001b0 c0 ec 11 3e a9 a2 6a be 97 ba b2 bc 35 45 bc 3d
       0.14250469 -0.22913612 -0.021817489 0.09192888
0001c0 e2 25 8b be e9 d0 16 be 2b ae a3 3e e0 82 a2 be
       -0.2717734 -0.1472813 0.31968817 -0.31740475
0001d0 96 35 a8 be aa 17 9e 3d f2 3d 76 bb c9 fc d1 bd
       -0.32853383 0.07719357 -0.0037573543 -0.10253293
0001e0 f9 d7 f6 3c b3 8d 36 be ae 60 92 3d f5 5f 94 be
       0.03013228 -0.17827491 0.071473464 -0.2897946
0001f0 47 65 f3 bd 7f 5f 65 3c 2d 9b 39 be 95 09 8e 3e
       -0.118845515 0.013999819 -0.18125601 0.27741686
000200 75 9b 60 bd 1b c9 ad 3e ec 1b 63 be d2 2b 95 bd
       -0.054835755 0.33942494 -0.2217862 -0.07283749
000210 a6 14 d2 3e 48 b1 d8 3c 2c 76 36 be 25 a3 0d be
       0.41031379 0.026451722 -0.17818516 -0.13831766
000220 05 b5 bb 3e 75 af b9 3c bc c8 96 bb 84 22 75 bd
       0.36661544 0.022666672 -0.004601566 -0.05984737
000230 79 7a 34 3f 51 a4 ab 3e 19 37 8c be 31 60 4e 39
       0.7049938 0.335238 -0.27385786 0.00019681525
000240 64 4c 94 3e e1 aa 93 bd 66 16 66 3e 3c 18 73 bb
       0.2896453 -0.07210327 0.22469482 -0.0037093302
000250 93 f9 81 bd 1e 85 40 3e 1a b3 ef bb ca f2 cf bd
       -0.06346431 0.1880078 -0.0073150517 -0.1015373
000260 6d 65 10 be 44 f0 ea 3d 8d f5 ac 3d fe cd ad 3d
       -0.14101191 0.11471608 0.084452726 0.084865555
000270 32 af e1 bd 3e 78 21 3e 3b 60 20 be ba 72 2f 3e
       -0.11019744 0.15768525 -0.15661709 0.17133608
000280 e3 27 f6 bb 37 54 75 be 5a 5e 61 3e cf 8f 75 bd
       -0.007512079 -0.23957907 0.22008649 -0.0599516
000290 4a 85 42 bd 81 5d 95 3e a1 4b d6 3d 26 15 9d be
       -0.047490396 0.291729 0.10463644 -0.30680197
0002a0 2e 31 73 3d 03 20 21 3e 52 b0 f8 bc 61 9f af 3d
       0.059373073 0.15734868 -0.030357514 0.08575321
0002b0 92 d5 f2 3c 43 93 60 3e ea d2 a7 3c 1f 88 1a bd
       0.029642854 0.21931176 0.020486314 -0.03772747
0002c0 c3 99 25 3d e4 ec 4d bd ce e0 20 bc 99 e6 d0 bc
       0.04042984 -0.050274745 -0.009819223 -0.025500583
0002d0 b2 27 c8 bd e1 3e 0e bd 9a 95 da 3d 06 05 8c 3e
       -0.09773196 -0.034727935 0.106730655 0.27347583
0002e0 e1 b0 9e bd 8b 94 4b be 52 c3 6e 3b 75 fd 85 be
       -0.07748581 -0.19880883 0.0036432338 -0.26169935
0002f0 d5 84 14 be 5f 4c c2 be d0 eb 0d 3f f1 5c 69 be
       -0.14503796 -0.37948892 0.55437946 -0.2278936
000300 0b d4 bc 3d dc 8a 53 be b3 84 3b 3e 36 68 dc be
       0.092201315 -0.2065844 0.1831234 -0.43048257
000310 16 fe 7c bd 14 24 35 be e8 f4 57 3e 31 8b 46 3e
       -0.061765753 -0.17689544 0.21089518 0.19389035
000320 75 b8 e6 3e c8 cd 0e 3e 9a 07 17 bf bc 88 88 3e
       0.45062605 0.13945687 -0.58995974 0.2666682
000330 85 bb 8f 3c 76 9e 02 bc 72 6e 03 3d 80 ef f6 bd
       0.017545471 -0.00797235 0.03208775 -0.120574
000340 5a 3e 6b bc 58 48 9f be 62 0c ef bd 67 db 78 bf
       -0.0143581275 -0.3110988 -0.11672284 -0.9720978
000350 d8 4b 38 bf f4 ba 92 3d fe ff 62 3e a9 30 3e bc
       -0.7199073 0.07164565 0.22167966 -0.011608281
000360 cc e0 b8 3d d0 4f 9e be d4 2a 28 be 9a 6c 8d be
       0.090272516 -0.30920267 -0.16422588 -0.2762192
000370 c5 9f 88 3e 2b 72 a5 bd 57 19 06 3f e3 31 a0 3e
       0.26684394 -0.080784164 0.52382416 0.3128806
000380 11 98 d9 be 9b fa 51 be ee bc 93 be 08 48 9c be
       -0.4249883 -0.20505755 -0.2885508 -0.30523705
000390 ed 1c ee bc 12 b6 8d bd 6b 30 b0 bd d6 57 3a 3e
       -0.029066527 -0.06919493 -0.08602985 0.18197569
0003a0 79 1a 57 3e fe be 6b be a7 a8 38 3e da ed 0e bd
       0.21006192 -0.23022076 0.18033086 -0.0348948
0003b0 4b 80 9c 3b 10 ee c5 3b 09 58 ec bc a3 d3 c0 ba
       0.004776036 0.006040342 -0.028850572 -0.001471151
0003c0 1f e5 f3 3c 8e 67 d8 bd 4f 6b ec 3c c7 e8 00 be
       0.02977234 -0.105666265 0.028859762 -0.12588798
0003d0 c4 4e e7 3c 47 59 df 3c e1 bb 82 be 2b 59 d8 bd
       0.0282358 0.02726425 -0.25533965 -0.105638824
0003e0 0c 89 8b 3d e7 39 c7 bd 31 67 0e be 21 0d 91 3e
       0.06813249 -0.09727841 -0.13906552 0.2833033
0003f0 3f e6 0b 3e 15 1b 45 bd 5d 6a 9b bc 5e 5b 08 be
       0.1366205 -0.04812153 -0.018971616 -0.13316104

0.bias f4 [256]
000000 9c 4c 78 be 15 65 cd be 86 da 60 be be 75 98 bd
       -0.24247974 -0.40116182 -0.2195836 -0.074443325
000010 ce c5 67 bd ef 37 65 be 58 89 34 be ed 62 48 be
       -0.056585126 -0.22384618 -0.17630517 -0.19568987
000020 48 f0 56 3e 0e 38 98 3e eb 2c 43 be 13 41 1f 3d
       0.20990098 0.29730266 -0.19060104 0.03888042
000030 68 bc bc be d4 f3 4c be 4e 88 d0 be 74 e1 69 be
       -0.36862493 -0.20014888 -0.40728992 -0.2283991
000040 61 25 4e be c2 dc 25 be 58 13 af be 4b d6 61 be
       -0.20131446 -0.16197494 -0.34194446 -0.22054403
000050 1b 9e 0c bf 00 0a 89 be 66 32 97 be a9 35 6e 3d
       -0.5492875 -0.26765442 -0.29530638 0.058156643
000060 34 e7 1e be 49 02 77 bd 1b 63 92 3b 26 3c ba be
       -0.15517884 -0.060304914 0.0044673807 -0.36374015
000070 3b 8b ba be 1a 9d 56 3e f7 7b 60 be a9 ce ad be
       -0.3643435 0.20958367 -0.21922289 -0.33946732
000080 a7 5f bc be cf 72 94 be 8a 11 bb bd 1b 7b b0 3c
       -0.36791727 -0.28993842 -0.09134205 0.021543076
000090 a6 41 85 3e e5 cd 31 bc 9c 57 68 be 76 61 ab be
       0.26026648 -0.010852312 -0.2268967 -0.33472794
0000a0 e3 e1 24 bd a6 4e c6 3b a4 d0 84 bd 29 af 64 be
       -0.040254485 0.006051856 -0.064851075 -0.22332443
0000b0 d7 19 36 be e2 65 bc bd f1 df 16 3e 50 e5 73 be
       -0.17783295 -0.0919912 0.14733864 -0.23817945
0000c0 76 ae 96 be 99 38 91 be a9 19 90 be 9a a4 aa be
       -0.29429978 -0.28363493 -0.28144577 -0.33328706
0000d0 cc 73 c7 bd 92 74 a9 3d 7e 59 64 3c 73 01 99 bd
       -0.097388834 0.08274187 0.013937352 -0.074709795
0000e0 0d 8d 19 be a3 06 1c bd 7a 60 df bd a2 17 f6 bd
       -0.14995213 -0.038092267 -0.10907073 -0.12016226
0000f0 05 93 b4 be 87 cb 31 bd c9 bc 65 3c 84 58 49 be
       -0.35268417 -0.04340699 0.014022061 -0.19662672
000100 6e 6b f4 bc 2e ad 4f be e4 54 59 ba fa 87 70 be
       -0.029836383 -0.20280907 -0.0008290543 -0.23489371
000110 48 eb 75 3b 37 ef 34 be 30 6e 15 bf cc ca 4d be
       0.0037524272 -0.17669378 -0.5837126 -0.20096892
000120 c7 e4 39 be 3a 36 00 3e f1 19 61 be 3c 90 fd 3d
       -0.18153678 0.12520686 -0.21982552 0.12381026
000130 59 bd 34 3e 98 b9 74 be 4e ad 61 be 3e 46 3a bd
       0.17650355 -0.23898923 -0.22038767 -0.045477144
000140 6d 07 c8 be 28 b8 25 be 3f 92 49 be 09 79 13 be
       -0.39068165 -0.16183531 -0.19684695 -0.1440164
000150 24 69 a0 3e b9 01 82 be f4 c2 14 be db 6c 32 3d
       0.31330216 -0.2539194 -0.14527494 0.043560844
000160 e2 b8 b7 be 21 9a aa be d2 f0 8c be 22 1b 0a 3d
       -0.35883242 -0.33320716 -0.2752748 0.033717282
000170 6e 8b 52 be b4 e5 5c be 63 ff 98 be 7a fb 0b 3d
       -0.20561 -0.21572 -0.29882345 0.034175374
000180 a9 a1 6b be d5 be b8 3d 76 69 5d be 9f 2d cd bd
       -0.23010887 0.09020773 -0.21622261 -0.10018467
000190 25 da aa bd 7b 06 3c be df 64 d9 bd ac 13 4a be
       -0.08342389 -0.18361847 -0.10614943 -0.19734067
0001a0 18 e8 a0 bc de 1a a6 be 5c 4a 4b be cd 21 a0 be
       -0.01964192 -0.32442373 -0.19852585 -0.31275788
0001b0 6c 10 da be ba 9c ed 3c b7 85 06 bf 67 d2 3a be
       -0.42590654 0.029005397 -0.5254778 -0.18244325
0001c0 ea a9 3b be 17 1d d0 be c1 a5 06 bd 45 f3 29 be
       -0.18326536 -0.40647194 -0.03287292 -0.16596706
0001d0 23 29 26 be 25 37 04 bc 37 19 d3 bd ed a1 08 be
       -0.1622663 -0.008069788 -0.10307544 -0.1334302
0001e0 18 f8 24 bd 8e f6 cb be 78 47 e2 be 84 d6 6d be
       -0.040275663 -0.39836544 -0.4419515 -0.23226362
0001f0 03 b8 93 be 87 bb 7d be fe d1 25 3e ee c6 6f be
       -0.28851327 -0.24778567 0.16193387 -0.2341573
000200 f5 05 bd be 6a 7a 49 3e be 0b 0a be 0f ba 05 3c
       -0.36918607 0.19675604 -0.13481042 0.008162036
000210 b7 5f e4 be 69 e6 98 be 49 6c 0c be 88 2c 19 bf
       -0.44604275 -0.2986329 -0.13713183 -0.59833574
000220 56 d1 99 be 26 1a bf bb bb 80 03 bd 78 ae 9b be
       -0.30042523 -0.0058319746 -0.03210519 -0.30406547
000230 26 50 4e be 7c 7d 71 be f7 38 91 be 39 39 df be
       -0.20147762 -0.23583025 -0.28363773 -0.43598345
000240 57 ec b5 bd 0c 7e 84 be da e2 25 be e8 f5 09 bf
       -0.08882969 -0.25877416 -0.16199818 -0.5389085
000250 aa ed b8 be c4 7a be bd f4 d6 4b bd 00 8f ad be
       -0.36118823 -0.093007594 -0.049765542 -0.33898163
000260 82 97 4b be 4c 1f bd be 08 2a c0 be 55 14 29 be
       -0.19882014 -0.3693794 -0.37532067 -0.16511662
000270 6c 70 38 be 0e 30 bf bc b7 de ba be d9 a6 d6 be
       -0.18011636 -0.023338344 -0.36498043 -0.4192417
000280 0a 1b be be af 94 1f be 9b 97 9a bd ac 18 56 be
       -0.37130004 -0.15584062 -0.07548448 -0.20907849
000290 8d de b2 3d 0e 7e 8f bc 2a 44 21 be bd 52 d4 be
       0.087338544 -0.017516162 -0.15748659 -0.41469374
0002a0 77 b7 07 bf 0f 54 09 be 52 b9 8f be 43 57 0e be
       -0.5301432 -0.13410972 -0.28071076 -0.13900475
0002b0 03 d9 48 be 74 c8 91 be 35 19 3b be b2 25 e6 be
       -0.19614033 -0.28473246 -0.18271334 -0.44950634
0002c0 60 57 ab be 99 55 82 be ec 92 66 be 6d 95 a9 bd
       -0.334651 -0.2545593 -0.22516984 -0.08280454
0002d0 00 7d b6 be 90 11 b0 bd 02 7d 69 be 8e 34 dd bc
       -0.35642242 -0.085971 -0.22801593 -0.0270026
0002e0 66 a1 ef bd 8c 51 44 be 7f 22 6f be 8a ae c3 bc
       -0.11700706 -0.19171733 -0.23353003 -0.023886938
0002f0 f0 e8 04 be 5d 16 9c be 82 72 51 be 03 47 a1 be
       -0.12979484 -0.30485812 -0.20453838 -0.3149949
000300 01 b4 2c be 7e 61 3b be 7a 9b 36 3d ef a1 c2 bd
       -0.16865541 -0.18298909 0.044581868 -0.09503543
000310 47 e1 13 bc 5b cd 44 be ed fd 4e be bb 7c 80 be
       -0.009025878 -0.19218962 -0.20214052 -0.25095162
000320 2f 04 9a 3d fc 1d 98 be d1 a2 00 bf b8 cf 0e 3e
       0.07520329 -0.29710376 -0.5024844 0.13946426
000330 f1 b4 6e be fd a4 16 bd cd 0e b3 be c4 9b 14 bd
       -0.23311211 -0.03677844 -0.3497223 -0.036281362
000340 80 3b 87 bd cd 1b 25 be 18 1b 5d be 7d 29 a6 be
       -0.066031456 -0.16123886 -0.21592367 -0.32453528
000350 5a 6b ac bd 8e e0 93 be fb 06 b6 bd bb 3d 77 be
       -0.08418913 -0.2888226 -0.0888805 -0.24144642
000360 68 77 a7 be 07 97 bb 3e eb f7 92 be bb 7a 67 be
       -0.32708287 0.36638662 -0.2870477 -0.22605412
000370 40 d4 95 be 12 ef cb bd b9 b8 f7 be 61 a7 80 bd
       -0.29263496 -0.099577084 -0.4838312 -0.06281925
000380 eb 44 9b bd ea 6b d2 be 90 a9 05 bf 76 36 f9 bd
       -0.075815044 -0.41097957 -0.52211857 -0.12168591
000390 e2 7d 8f be d4 bc 3e be aa 6e 82 be 7c 00 4b bd
       -0.28025728 -0.1862672 -0.25475055 -0.04956101
0003a0 be 44 c0 be 67 2f 90 3d 76 63 ec be d3 d2 00 be
       -0.37552446 0.07040291 -0.46169633 -0.12580423
0003b0 11 0b bd bd 53 4a 00 be b8 c4 11 be 79 69 82 bd
       -0.092306264 -0.12528352 -0.14235198 -0.063677736
0003c0 df c2 94 be ef 53 2e be 72 ea 8d 3e 9b 23 3b be
       -0.29054925 -0.17024206 0.2771793 -0.18275301
0003d0 7d 9b b0 3d 30 80 02 be 39 13 4c 3e 0f ce 6b bb
       0.08623407 -0.12744212 0.19929208 -0.0035980975
0003e0 b7 3e c5 bd aa b3 b5 3d 85 63 b6 be 8a 21 8c 3d
       -0.096311025 0.08872159 -0.35622802 0.068423346
0003f0 cf e3 50 3c 06 fe ed be d1 aa a5 be 7a c0 37 be
       0.012749626 -0.46482867 -0.32356885 -0.17944518

2.weight f4 [256, 256]
000000 e9 46 05 bf 29 12 4a be b4 09 a2 bc dd f7 9d bd
       -0.52061325 -0.1973349 -0.019780017 -0.07713292
000010 3c 3d fd be 56 cb a6 3c 7f 80 05 bf 35 77 05 be
       -0.4946078 0.02036063 -0.52149194 -0.13033755
000020 f9 76 8a 3d 22 03 8a be 0f fd fa 3e 78 5c 70 3e
       0.067609735 -0.26955515 0.49021193 0.23472774
000030 f6 6c 20 be c8 06 7b 3e 5e e7 82 be 46 d4 ee be
       -0.15666565 0.24514306 -0.25567144 -0.46646327
000040 83 cd 6a bd be 53 72 3e 82 ac 1e 3e 9c e9 8e bb
       -0.057324897 0.23664758 0.15495494 -0.0043613445
000050 95 68 c5 3e c7 63 32 3c 73 85 d5 bd 62 52 d9 be
       0.38556352 0.010888047 -0.10425844 -0.42445666
000060 80 e9 d0 3d 03 9f a7 3d ec db 4a bd bc e3 6b be
       0.102007866 0.08184626 -0.04952614 -0.23036093
000070 90 66 43 bf 0c 62 ed bd 75 14 73 bf 51 4b cb 3d
       -0.7632837 -0.115909666 -0.9495309 0.09926475
000080 ec 9c 66 3d 65 4a a4 3e 3d 6a 0e be 1e c7 43 be
       0.056301996 0.3208801 -0.13907714 -0.19118926
000090 92 e5 95 bf 43 3f b8 3e cb 3b 9e 3e d1 29 62 bd
       -1.1710684 0.35985765 0.30904993 -0.05521566
0000a0 99 1d 6d be 46 8e 14 3e 7b 9b 8e bf ba 9e 03 3e
       -0.23155822 0.14507398 -1.1141199 0.12853518
0000b0 f6 d1 77 be e6 ba 67 3e dd 15 10 be 02 2b e4 be
       -0.24201187 0.2262989 -0.1407084 -0.44564062
0000c0 bf f1 47 be e7 17 bf 3d 69 34 d3 bd 78 9f 2d bd
       -0.19525813 0.09330731 -0.10312731 -0.04238841
0000d0 d8 a6 01 bd 8e 5b 99 bd 57 59 d7 3e f6 65 a7 bc
       -0.031653255 -0.07488166 0.42060348 -0.020434361
0000e0 71 87 3c 3d c5 01 5b be 8e 65 f4 bd 05 e6 26 3e
       0.046027604 -0.21387394 -0.119334325 0.16298683
0000f0 bf 8e 37 be a5 46 0c 3e e6 ac db 3d 73 6c 25 be
       -0.17925547 0.13698824 0.10726337 -0.16154651
000100 4e c5 6c be 7a 40 ec be e5 fe 65 3e 47 7b 90 3d
       -0.23122141 -0.46142942 0.22460516 0.07054763
000110 7e 71 54 be 10 47 57 bc a3 ab 31 be a4 fd 06 3e
       -0.20746419 -0.013139501 -0.1735063 0.13182694
000120 b7 28 c4 be 5b bf d3 3d 92 4a 1d 3e d7 f4 d2 bd
       -0.38312313 0.103392325 0.15360478 -0.10300606
000130 20 3a b7 3d a7 a3 41 be 01 96 26 bd 04 bc 21 3e
       0.08946633 -0.18910085 -0.0406704 0.15794379
000140 59 90 c4 bd 15 f4 95 3d ea 2b 21 3e 04 9f 6e be
       -0.09597845 0.073219456 0.15739408 -0.23302847
000150 38 1b 20 3f 98 41 62 3e 40 39 92 be e5 b0 96 3d
       0.6254153 0.22095335 -0.28559303 0.07357959
000160 02 4d 69 bd f2 e3 84 bd d5 cf 8f 3d 2d e7 91 3d
       -0.056958206 -0.064887896 0.07022063 0.071241714
000170 7f cc 5c 3e d4 a0 31 3d 53 ab 8a 3e 23 12 bc be
       0.21562384 0.04336627 0.27083835 -0.36732587
000180 51 58 29 be 94 c5 79 be 3e ad 8b be 53 79 e8 bc
       -0.16537596 -0.24391776 -0.2728061 -0.028378164
000190 24 c6 98 bc eb 27 1f 3f 6e 1b 06 be a8 4a 0c 3e
       -0.018649168 0.62170285 -0.13096401 0.13700354
0001a0 fe aa 86 3c e0 63 10 bf 95 26 e8 be 84 8f b7 be
       0.016438957 -0.564024 -0.45341936 -0.3585168
0001b0 69 7c 4a 3e bb a3 0c 3e ef 8a d4 be ce 04 17 be
       0.19774021 0.13734333 -0.41512248 -0.14747927
0001c0 31 c7 9c be 6e b6 4a be 19 89 22 bd f7 df d9 3d
       -0.3062072 -0.19796154 -0.039681528 0.10638421
0001d0 1e 84 4d be a0 80 f3 be 20 8c 68 bd 7d 60 9d be
       -0.2006993 -0.4755907 -0.05677426 -0.30737677
0001e0 fb 14 0d bf 7d c0 aa 3d c9 d2 d8 3b 7f 60 c7 3d
       -0.5511014 0.083374955 0.0066169244 0.09735202
0001f0 23 95 9f be 34 a1 c2 be 80 cd ca 3e 16 e4 41 be
       -0.3116847 -0.38013613 0.3960991 -0.18934664
000200 cd 11 e6 be 5b 94 38 bf cd 63 4e 3d 15 7f 1d 3e
       -0.44935456 -0.7210137 0.050388146 0.15380509
000210 a7 98 c3 3c 2a 14 dd 3d 98 7f cd be 1e a4 be bd
       0.023876501 0.107948616 -0.4013641 -0.093086466
000220 87 2b ba bb b3 20 09 bd c5 af 36 3e 99 e1 e4 bd
       -0.0056814584 -0.03347845 0.17840488 -0.11175842
000230 bf 21 ad be b4 ca 00 bf fd f7 06 3d bd f7 05 3e
       -0.3381481 -0.503093 0.032951344 0.13082786
000240 f1 3b 08 bf d0 79 6b bb 9e 01 41 3e 7b 85 88 3e
       -0.53216463 -0.003593076 0.18848273 0.26664338
000250 22 66 76 be 6f 4c 8e be 10 7a cf bd ce 4c 30 3d
       -0.24062398 -0.2779269 -0.101307034 0.043041997
000260 ef c4 9e be f8 69 03 bf 07 5e 31 be ed 71 c0 be
       -0.31009623 -0.5133357 -0.17321025 -0.37586918
000270 d8 a7 b0 3e b6 63 9a 3e 09 b2 11 3e 38 ed e8 be
       0.34503055 0.30154198 0.14228071 -0.45493484
000280 e1 01 ee 3c 99 d1 02 bf bf 0f a5 3c 9c eb 94 3d
       0.02905363 -0.5110107 0.02014911 0.072715014
000290 c5 84 36 be 6d 6d 2c 3c ed 53 48 bd 6e 96 bf be
       -0.17824085 0.010524136 -0.048908163 -0.37419456
0002a0 5a b2 92 3d 7a bf fb 3c 28 ce aa 3e 8c 65 48 bf
       0.07162924 0.030730952 0.3336041 -0.7827995
0002b0 80 76 bf be 4e 63 cf 3d a3 f8 70 3e 79 1f 86 3e
       -0.37395096 0.10126363 0.23532347 0.26195887
0002c0 95 5c f2 3d fb f8 fc bd e2 9b 04 bd ae 67 81 be
       0.11834065 -0.12352177 -0.032375224 -0.25274414
0002d0 51 38 7b 3c f8 65 77 3c c2 b1 75 be 09 8f 97 3d
       0.015333251 0.015099995 -0.2399359 0.07400329
0002e0 63 5f df 3d 96 db 90 3e 57 5c 92 be b6 94 d6 bd
       0.109068654 0.2829253 -0.28586075 -0.10477583
0002f0 0e 34 26 3e 5b f5 2d 3e 28 de a1 3e b7 cc 00 bf
       0.16230795 0.16988127 0.31614804 -0.5031237
000300 c2 66 78 3d 91 9c 80 bc c9 24 ee 3d 3e bd 7b 3e
       0.060644872 -0.015699657 0.1162811 0.24583909
000310 95 54 bc 3d 87 24 32 3e de 42 b9 bd 0c 3b f6 be
       0.0919582 0.17396747 -0.09045957 -0.48091924
000320 80 62 de 3d 65 81 33 3e b8 cd 07 be 79 2f 0a 3d
       0.10858631 0.17529829 -0.13262069 0.03373668
000330 7e 68 8e 3e 63 d7 8d 3e df c5 94 be f4 07 66 be
       0.27814096 0.2770339 -0.29057214 -0.22463971
000340 e6 75 90 3d b9 5e 8e 3e 99 79 b3 bd dc 3a 64 be
       0.07053737 0.27806643 -0.08763427 -0.22288078
000350 38 55 24 3f 08 53 d9 bd 8a ee ba bc ba 41 2c be
       0.64192533 -0.1061154 -0.022818822 -0.16821948
000360 f3 8f 45 3e 06 78 eb 3e 8d 68 da bd 34 5b 79 be
       0.19293194 0.45990008 -0.10664473 -0.24351197
000370 56 38 17 3d 69 01 46 3d a4 93 5e bd 57 1e 6e 3e
       0.03691896 0.04834119 -0.05434002 0.23253761
000380 8d 8d 61 bd 88 97 e7 be 51 bb 44 3e eb 1f 9a 3e
       -0.055066634 -0.45232797 0.1921208 0.30102476
000390 4f 76 5a 3c 59 8b 22 be e7 a3 b4 bc 68 d4 44 3e
       0.013333871 -0.1587347 -0.022050811 0.19221652
0003a0 8a a2 43 3e 88 4c 71 be bb 48 b1 3e 36 0d ec 3d
       0.19104972 -0.2356435 0.346258 0.11525957
0003b0 3d 95 56 3e 8a b4 99 be 96 0e 7b 3e 5a 7c 1e 3d
       0.20955367 -0.30020553 0.24517283 0.03869281
0003c0 88 31 8c be a9 8e a1 bf 25 e9 cd bd 2e d6 0d be
       -0.2738154 -1.2621661 -0.100542344 -0.13851234
0003d0 9a 38 1d bd 14 0d 00 3e 92 ca b9 be 06 9d 86 bd
       -0.038384058 0.12504989 -0.3628736 -0.065729186
0003e0 4d b3 8d be 19 b6 72 be 55 e0 9c bd 63 ac 6c be
       -0.27675858 -0.23702277 -0.076599754 -0.23112635
0003f0 63 43 a5 be ae 45 0d 3e 45 19 7b 3b 7a fb cc 3d
       -0.32277974 0.13796112 0.0038314622 0.10008903

2.bias f4 [256]
000000 f0 40 25 3e a2 1e 0d 3d cd 5a ea 3d 3a 04 45 3e
       0.16138053 0.03445304 0.114431 0.19239894
000010 c7 31 71 be 4d 13 a1 be a0 ca 12 3e f4 ae 4a be
       -0.23554145 -0.31460038 0.14335108 -0.19793302
000020 2b c2 30 3e 20 13 93 3d 9c fc 93 be dd 31 3e be
       0.17261569 0.07181382 -0.28903663 -0.18573709
000030 ae f8 88 be f6 2e 44 bd fc 59 45 be b9 a6 1e be
       -0.26752228 -0.047896348 -0.19272608 -0.15493287
000040 fd b8 a4 be d8 76 06 be 7c 9d 2b bd 74 4d 02 be
       -0.32172385 -0.13131273 -0.041898236 -0.12724859
000050 c9 bd 73 be c5 cc e4 bd 74 be 46 be 78 08 37 bd
       -0.23802866 -0.11171869 -0.1940859 -0.04468581
000060 39 94 93 3d 08 62 5d 3d 0c 42 54 be c3 8d 9c bd
       0.072060056 0.054048568 -0.2072832 -0.076442264
000070 2a c9 0d 3c 40 87 b3 3d b5 d5 6d bd 27 1c 29 bb
       0.008653918 0.08766031 -0.058065135 -0.0025804134
000080 76 77 22 be 35 71 74 3d b8 f0 bc be 28 f1 99 bd
       -0.15865883 0.059678275 -0.36902404 -0.075167
000090 15 9d 0a bd d3 b3 83 bd 06 40 0d be 74 3f 2b 3c
       -0.03384121 -0.06430783 -0.13793954 0.01045214
0000a0 5b bf 32 bd 0d b6 b8 bb 1d 7e aa be fc 91 f2 bd
       -0.043639522 -0.0056369365 -0.33299342 -0.118442506
0000b0 06 5f d9 bb af 1e bd bd ed c8 9a 3b 30 70 ca be
       -0.006633642 -0.09234368 0.0047236593 -0.39538717
0000c0 c5 8b 02 be 97 00 15 bd 4b e4 38 be 22 06 bf be
       -0.1274863 -0.036377516 -0.18055837 -0.37309366
0000d0 2c 4d 4d be fb b9 ce 3d 4c 21 6e be ff e4 53 3d
       -0.2004897 0.10094067 -0.23254889 0.05173206
0000e0 0e 00 d2 be 39 27 90 bd 7b d0 61 3d 3c 85 b0 bd
       -0.41015667 -0.07038731 0.055130463 -0.086191624
0000f0 5d b3 6c be 52 81 56 be 11 df 33 be dc 6c 83 be
       -0.23115297 -0.2094777 -0.17565562 -0.2566899
000100 83 93 5d bd 36 41 91 be b5 30 82 bd 7d 86 87 be
       -0.054095756 -0.28370064 -0.063569464 -0.26469794
000110 37 c8 b8 bd 4d 0d 13 3e b1 74 e3 bd 96 9c 36 3c
       -0.09022563 0.14360543 -0.111062415 0.011145731
000120 91 ba 87 be a8 67 a8 3d 3f 93 45 be 55 8f ea 3d
       -0.26509526 0.08222896 -0.19294451 0.1145312
000130 8f 6b f4 bc 79 15 2e be dc 10 78 bd c1 8b a0 bc
       -0.029836444 -0.17000379 -0.060562953 -0.01959789
000140 ec 69 a4 bd 1e 4e 18 be de 18 5d be 16 f4 3f bd
       -0.080280155 -0.1487355 -0.21591517 -0.046863638
000150 fe 4e df bc 57 bd 05 bc 03 18 39 be 9d 84 95 be
       -0.027259346 -0.008162818 -0.18075566 -0.29202738
000160 3a 9e 2f be 36 e7 89 bc ae 74 87 be ed 1f 8a bd
       -0.17150202 -0.016833883 -0.26456207 -0.067443706
000170 1c 49 b4 bc 86 df c2 bd 8d 36 d8 3d be 96 31 bd
       -0.022007518 -0.0951529 0.1055728 -0.04335665
000180 7d 8a b6 be e2 e0 53 3e 3c b7 72 be ac 86 71 bc
       -0.35652533 0.20691255 -0.23702711 -0.014741581
000190 87 8d a6 bd 47 dc e0 bc bb ef 4f be 62 4b 94 bd
       -0.08132463 -0.027448786 -0.20306294 -0.07240941
0001a0 c1 16 3f 3d c2 e1 d0 bd 09 ed 61 3e 18 60 bc bd
       0.04665256 -0.1019931 0.22063078 -0.09198016
0001b0 d4 5e 0f 3e 60 f4 1c bd 5f 09 06 be 59 9e 13 bd
       0.14001018 -0.03831899 -0.13089512 -0.036039684
0001c0 7c 42 16 bc 76 3e 00 3e 47 9b 65 bd 04 07 c8 bd
       -0.009171125 0.12523827 -0.056056287 -0.09766963
0001d0 50 21 a6 be 45 2a bd 3d 6c 96 36 be 64 4a c4 bd
       -0.3244729 0.09236578 -0.17830819 -0.095845014
0001e0 95 1a 16 be c0 ab 98 bb 38 56 3e 3c d9 f1 25 3c
       -0.14658578 -0.004659146 0.011617236 0.010128462
0001f0 16 b8 75 3d ee 1a 16 be 3a 62 18 3d 54 cc 00 be
       0.05999001 -0.1465871 0.03720305 -0.12577945
000200 4d f7 3c be 3c 4b d5 bd 92 84 2f be 12 01 78 be
       -0.18453713 -0.104147404 -0.17140415 -0.24219158
000210 93 6f f3 bd 42 f1 b3 bd 5e 13 cc bd 15 96 b4 bd
       -0.118865155 -0.08786251 -0.099646315 -0.088176884
000220 3f 48 9a be 83 39 5f be 63 57 e9 bd 57 af 2d be
       -0.30133244 -0.21799283 -0.11393621 -0.16961418
000230 f1 f1 5f be 8e b5 6b be 74 39 a5 bc 1a 21 78 bd
       -0.21869637 -0.23018476 -0.020168997 -0.060578443
000240 71 27 ad bb 9d 73 15 be 2b 36 3f be 35 55 a5 be
       -0.005284243 -0.14594884 -0.18673007 -0.3229157
000250 ee 7e 57 be 62 42 86 bb 16 31 05 be 4a ec 90 be
       -0.21044514 -0.004097269 -0.13007006 -0.28305274
000260 be 1b 56 be d2 b4 f4 bd 22 8e 55 be 8e c8 89 3c
       -0.2090902 -0.11948551 -0.20855 0.016819265
000270 d2 71 33 be 4a 3b d5 3d 77 1b 08 3d f6 4c 01 bd
       -0.17523888 0.10411699 0.033229318 -0.031567536
000280 27 f8 57 be f4 79 be 3b 55 62 ce 3c fd bd 5a bd
       -0.21090756 0.005812878 0.025193373 -0.053403843
000290 2c 73 4d 3e 7c 4b b8 bd c8 00 ac bd 50 c5 6a be
       0.20063466 -0.089987725 -0.083985865 -0.22926831
0002a0 f8 7b 9e bd ff 10 3d bd ea c2 f2 3d 16 ab 90 3d
       -0.07738489 -0.046158787 0.11853583 0.07063882
0002b0 a8 e7 5c be f7 e5 e4 bd 5a 82 c6 bc d5 d9 32 bd
       -0.21572745 -0.11176675 -0.024232078 -0.043664772
0002c0 09 e5 11 be bc 18 f9 bc 58 5c d5 3b 79 8e 02 be
       -0.14247526 -0.030407302 0.0065112524 -0.12749662
0002d0 7d 08 85 bd e3 92 08 be 32 7a 65 be 10 ef b4 bc
       -0.0649576 -0.13337283 -0.22409895 -0.02208665
0002e0 19 47 e1 bd 29 9b 36 be 70 63 a1 bd 33 43 0e 3d
       -0.10999889 -0.17832626 -0.07880294 0.034732055
0002f0 af 56 eb bd 24 dc 12 be 7c 3e 98 be c3 e8 06 3b
       -0.11491143 -0.1434179 -0.29735172 0.0020585514
000300 e6 3c 00 be 23 23 8f bd 93 89 4c be 99 21 22 be
       -0.12523231 -0.06989124 -0.19974355 -0.15833129
000310 a4 c6 ef bd 91 27 33 be c0 92 3a bd 10 52 5f be
       -0.117078096 -0.17495562 -0.045550108 -0.21808648
000320 fe c9 a0 be a6 6e b5 bd f0 f8 c8 3d 90 47 70 be
       -0.31404108 -0.08858995 0.09813106 -0.23464799
000330 7e 06 32 be 33 24 2c bf 65 a4 21 bd 34 ee 08 be
       -0.17385289 -0.67242736 -0.03946342 -0.13372117
000340 80 de b9 3d e9 6c ac 3d 80 77 55 3d 0b e8 3e be
       0.09075642 0.084192105 0.052115917 -0.18643205
000350 60 d3 cc bd 15 a5 81 3e 3d 54 99 be c0 fd d2 bd
       -0.10001254 0.2532126 -0.2994708 -0.10302305
000360 22 9b 17 bd 8d f8 3b be a8 4a 28 be a1 1d 04 be
       -0.03701318 -0.18356533 -0.16434729 -0.12901928
000370 66 06 28 be ae 8d 8d be 01 03 a0 bd a0 19 64 be
       -0.16408691 -0.27647156 -0.07813073 -0.222754
000380 68 20 90 be bb 72 a8 bd e5 03 a4 bc eb c3 7f bd
       -0.28149724 -0.08225008 -0.020021388 -0.0624427
000390 19 cb 05 bd ae 79 f1 3d f0 9c ec bd d0 0e 20 be
       -0.032664392 0.11790787 -0.11553371 -0.1563065
0003a0 9d 19 22 be 1a db 4e bd d5 a3 0c bd 23 09 a1 3c
       -0.15830083 -0.05050192 -0.03433593 0.019657677
0003b0 81 cf 80 bd b0 70 c2 bc 39 30 0e 3e 1a 00 ee bd
       -0.06289578 -0.023735374 0.13885583 -0.11621113
0003c0 f5 f2 a1 bd 73 33 5f 3d 11 f0 50 be 57 57 08 be
       -0.079076685 0.054492425 -0.20404078 -0.13314568
0003d0 2a 58 7f be df bf d1 3d bb 85 3c 3d 9c 42 e2 3d
       -0.24935976 0.10241675 0.046025973 0.11047861
0003e0 a8 37 49 be b1 01 7b be 2c 04 11 be 9e c1 48 be
       -0.19650137 -0.24512364 -0.14161748 -0.19605109
0003f0 b3 a2 21 3e 7e 31 65 be b1 d4 a1 bd d1 bd fd bd
       0.15784721 -0.22382161 -0.07901896 -0.1238972

4.weight f4 [256, 256]
000000 25 fe d2 bd 95 16 a7 be cf 4f cf 3b a4 7e d3 3d
       -0.103023805 -0.32634416 0.0063266526 0.10326889
000010 a7 6b 53 be 45 9e 0f 3f 2b 43 74 3d 5e 42 93 3e
       -0.20646535 0.56100875 0.05963437 0.28761572
000020 98 4e d0 3c 1d 9c 77 be b8 40 45 3e 8c dd 7d 3c
       0.025428101 -0.24180646 0.1926297 0.015494715
000030 86 28 c7 3a ae 67 64 bd f8 e0 05 3f 5e f2 5b 3e
       0.0015194572 -0.05576294 0.522964 0.21479174
000040 87 dd 1c 3f 52 82 04 3e 9e cb 27 3d 22 fa d6 bc
       0.61275524 0.12940338 0.04096567 -0.02624232
000050 cf 1c 87 bd ef 02 5c be 43 a7 2b bd 8f 04 76 3d
       -0.06597292 -0.21485494 -0.04190756 0.06006294
000060 c0 b3 16 bd 4f 64 47 3e 99 ed 66 3d cf a5 1e be
       -0.036792517 0.19471858 0.056378935 -0.15492938
000070 3f 93 18 3e c1 06 bb be b7 80 97 3b 11 64 35 3d
       0.1489992 -0.3652859 0.0046234983 0.044284884
000080 d1 ef ad bd 35 21 6d bd 00 1a 8c be fe d8 27 bf
       -0.08493007 -0.057892997 -0.27363586 -0.6556548
000090 97 24 14 bf 02 25 53 3e 80 78 cb 3e 36 97 09 3d
       -0.5786833 0.20619586 0.39740372 0.03359147
0000a0 37 2b 35 3e de bb 2a 3e 81 61 f5 bb e7 45 20 bf
       0.17692266 0.16673228 -0.00748843 -0.6260666
0000b0 be 5a 7d 3e 51 4e 7d 3d c5 74 0b bd 14 72 de 3c
       0.24741647 0.061842266 -0.034046907 0.027154006
0000c0 38 7c 78 be c1 08 04 be d7 c3 9e 3d 07 c2 f5 be
       -0.24266136 -0.12893964 0.07752197 -0.47999594
0000d0 0f 9d de bc 74 f2 05 3d 80 e6 70 3e 32 c6 98 be
       -0.0271745 0.032701924 0.23525429 -0.2983871
0000e0 cb 79 30 bf 4f 68 b3 3d f9 c2 9e be d7 14 96 3d
       -0.6893584 0.0876013 -0.31008127 0.07328194
0000f0 6e 7a 2b be cf 9d 20 be 6b 8f d3 bb 5c 13 2c bd
       -0.16745922 -0.15685199 -0.0064563057 -0.04201065
000100 1f cd 42 3e 3e b5 0b bf f2 1a 67 3b a8 d1 5f bf
       0.1902356 -0.5457343 0.0035263863 -0.87429285
000110 05 c5 a4 3e 1b 3f f4 bb af 21 26 be 3f 0c 16 3d
       0.32181564 -0.007453812 -0.16223787 0.036632773
000120 e7 94 22 3e b6 da 57 be 02 7c 1b bf c6 9b f0 bb
       0.15877114 -0.21079525 -0.60736096 -0.0073427884
000130 d6 73 11 3d 12 a9 21 3d af 2b b0 3b e5 04 6d be
       0.03551086 0.03946788 0.0053763012 -0.23146398
000140 6d 62 e1 bc 15 c5 f0 3c 07 cd 7b bd 8b 14 20 be
       -0.027512753 0.029390851 -0.061474826 -0.15632837
000150 d1 20 b0 3d 3c 1e b8 be 54 09 ef be 85 b9 f3 3d
       0.08600009 -0.35960567 -0.46686804 0.119006194
000160 31 ed 8e 3e 01 ac d2 3d 0c 3e db bd 90 ad 08 3d
       0.27915338 0.102867134 -0.10705194 0.033368647
000170 ff 2a 30 3b 32 74 fb bc 5c 86 b1 3d d2 e5 9a bd
       0.0026881096 -0.030695055 0.08668205 -0.07563366
000180 23 6b 8e 3e d9 8b f6 bc f7 56 db be 8f 55 0e 3e
       0.27816114 -0.030095981 -0.42839786 0.13899826
000190 ac 53 7b 3d 5b d6 be be 71 59 62 be 5f f9 41 3c
       0.061359093 -0.37272915 -0.22104432 0.01183924
0001a0 56 36 c0 3d 3a 42 32 3c ea ff d1 3c cb 22 ae be
       0.09385364 0.010880047 0.025634725 -0.3401092
0001b0 e5 bd 00 3e 14 b8 e2 3d 6a 8f 04 bf d6 80 a9 3d
       0.12572439 0.11070266 -0.5178133 0.08276527
0001c0 57 8f 2e be f3 55 e9 be 78 77 ce be e2 41 53 be
       -0.17046867 -0.45573387 -0.40325522 -0.20630601
0001d0 79 77 11 be 83 47 9c 3c d7 e8 0c 3e 00 45 79 3d
       -0.14205731 0.019077068 0.13760696 0.06085682
0001e0 09 ce cf bc ac 04 fa bd 9a 97 67 bd f9 d2 16 3c
       -0.0253668 -0.12207922 -0.056541063 0.009205573
0001f0 71 c1 9a be c6 26 88 3e 10 cc 89 bd de 54 83 3d
       -0.3022571 0.26592082 -0.06728375 0.064126715
000200 d7 d1 a5 3e b9 03 da 3d 26 e5 bb bc 72 b7 e7 3d
       0.32386658 0.10645241 -0.022936415 0.11314286
000210 5b 22 48 3e f6 72 a5 be 45 b9 8c 3e 77 74 c0 3d
       0.19544356 -0.3231427 0.274851 0.09397214
000220 6c b4 13 be 37 a5 5d 3d 73 51 49 bf 38 a8 3d be
       -0.14424294 0.05411264 -0.78639907 -0.18521202
000230 db 31 8d 3d f6 bb ef 3d aa fc d2 3d 1e 69 80 3e
       0.06894275 0.117057726 0.10302098 0.25080198
000240 84 31 64 be 96 11 ae 3e 3f 66 de bd 10 1a 8d bc
       -0.22284514 0.33997792 -0.10859346 -0.017224342
000250 ce fb 8e 3e 23 d5 c4 bc 45 a0 6d be 65 72 ea 3e
       0.27926487 -0.024027413 -0.23205669 0.457904
000260 10 3b 28 3e 1f 9f 1c 3d 40 83 22 be 18 c5 d4 bc
       0.1642878 0.038237687 -0.1587038 -0.025972888
000270 5c 79 9d bd 42 81 69 bd 71 76 24 bd 95 ed 5f bd
       -0.07689163 -0.057008035 -0.040152017 -0.054669935
000280 a7 cd 02 bd 4d 05 51 be 95 63 ab 3c d1 87 ed 3e
       -0.031934407 -0.20412178 0.020921508 0.46392682
000290 60 ea a1 bd 6b 58 b0 3a dc 05 1b 3e 58 6c 81 3e
       -0.079060316 0.0013454085 0.15138954 0.25277972
0002a0 ea 64 08 be 8c 66 22 be c3 08 c4 bd 08 2b 45 3c
       -0.13319746 -0.15859431 -0.09571984 0.012034185
0002b0 34 12 6a bd 9e 79 84 3d 54 c0 eb 3d 89 3b d0 3d
       -0.057146266 0.06468509 0.11511293 0.101676054
0002c0 88 d3 13 be ed 63 f3 bd 00 ce d6 3c 14 89 96 3e
       -0.14436162 -0.11884294 0.026221275 0.29401457
0002d0 57 0d 9e bd cb b9 5d 3e a1 67 11 bf 15 ff 18 3e
       -0.07717388 0.21652906 -0.5679875 0.14941056
0002e0 9c 20 7c 3d c8 07 3d 3d ef cf 50 bd fc 50 c5 3d
       0.061554536 0.04615 -0.05097955 0.09634587
0002f0 38 21 25 3d a9 1a 98 bd 73 42 0c 3d 35 c5 95 be
       0.040314883 -0.0742696 0.03424306 -0.2925202
000300 dd d0 b1 be f2 48 16 3d 95 47 cb bd 77 c0 9c 3d
       -0.34729663 0.03669066 -0.099257626 0.07653897
000310 5b 3c 78 be 8c 15 6f 3e fe 43 c9 be 3c e6 14 3e
       -0.24241774 0.23348063 -0.39309686 0.14540952
000320 89 f3 fb bd 76 f1 9e 3d 3a a0 ce 3c c1 5c fa 3e
       -0.1230231 0.07760899 0.025222886 0.4889889
000330 e3 c5 09 bf 79 f5 20 3f 7f ed d9 bd 6a 0a 89 be
       -0.53817576 0.6287456 -0.10641002 -0.26765758
000340 b4 bc 5a be 61 60 13 3e 0a ac 10 3d 4c 5d 6a be
       -0.21361047 0.14392234 0.03532032 -0.22887152
000350 eb b2 c2 3c 91 8c 35 be c3 76 16 bf b7 75 1e be
       0.023766955 -0.17729403 -0.58774966 -0.15474592
000360 a5 c4 7d be e4 aa 86 be 2a 75 24 bf 75 e0 5e 3e
       -0.24782045 -0.26302254 -0.6424128 0.21765311
000370 1e a0 27 3c 66 86 af be b6 b8 3b bd 28 02 9d 3d
       0.010231046 -0.34282225 -0.04583045 0.07666427
000380 98 60 ed 3e cd 6c 5e 3d b9 5b 4c bc 4c d4 6d 3e
       0.46362758 0.05430298 -0.01247304 0.23225516
000390 21 3a a8 3e 8a aa 55 bd ad ca 04 bf f7 18 50 bd
       0.3285685 -0.05216459 -0.5187176 -0.05080506
0003a0 38 2e 0a be 2b ad ce 3d 1d 68 95 3e e2 2a 53 be
       -0.13494194 0.10091623 0.29180995 -0.20621827
0003b0 df 01 46 be 66 b1 d2 3d f7 dc c9 3c 17 ea e2 3c
       -0.19336651 0.10287742 0.024641497 0.027699513
0003c0 12 66 5a 3d ab 0d 2a 3d 36 86 83 be 6f 2e 0e 3c
       0.053319998 0.04151694 -0.25688332 0.008678063
0003d0 15 a0 90 3e 97 c6 59 3e ca 31 dc be 54 75 00 be
       0.28247133 0.21267162 -0.43006736 -0.12544757
0003e0 28 0d 2c 3e fe fe fe bc 3c ee 63 bd db ad 0c be
       0.16801894 -0.03112745 -0.05564712 -0.13738196
0003f0 a5 79 7f 3d 44 9e b2 3e 4b 23 b2 3c 3f c2 98 bc
       0.06237187 0.34886372 0.021745345 -0.018647311

4.bias f4 [256]
000000 18 38 11 bd 4a 13 8f bc 2c 68 94 be 1b b7 6f be
       -0.035453886 -0.017465252 -0.28985727 -0.23409693
000010 7f dc 86 bc 54 4c b0 be f8 00 0b be 53 41 06 be
       -0.016462563 -0.34433234 -0.13574588 -0.13110857
000020 76 50 54 be d5 1c a2 3c 4a 33 27 bd 02 0d 2e be
       -0.20733818 0.019789139 -0.040820397 -0.1699715
000030 97 d5 25 bd 48 e7 61 3e ec 7c 83 be 51 42 bd bd
       -0.0404869 0.22060883 -0.25681245 -0.092411645
000040 87 cf 38 3d 5f 5e 5d 3c db 64 6e bd 34 7e 9f bc
       0.04511979 0.013511269 -0.058201652 -0.019469358
000050 75 17 52 be 03 13 83 3d 12 4a 2b bd 6a b3 27 be
       -0.2051676 0.064001106 -0.041818686 -0.16377035
000060 c0 11 c2 3d 95 f9 87 be fa 64 4c be 8f 19 91 be
       0.09476042 -0.26557603 -0.19960395 -0.28339812
000070 aa 12 53 be a6 07 81 3e 6e ed 6f bd dd b5 7a be
       -0.20612589 0.25201148 -0.05857604 -0.24483438
000080 1f eb d0 bd 81 b0 90 be c8 f3 12 3e fe 76 26 be
       -0.10201096 -0.28259662 0.14350808 -0.1625633
000090 d6 a2 da be 26 51 9d bc 1b 65 87 3d 27 c0 bb bd
       -0.4270236 -0.019203734 0.06611081 -0.091675095
0000a0 a9 1a 15 be 85 a1 92 be d7 3f 6b be 2b a9 18 be
       -0.14560951 -0.28638855 -0.22973572 -0.14908282
0000b0 7b 17 29 b9 0e ed d0 be 59 0f f9 3a 46 fb 3c 3e
       -0.00016125843 -0.40805858 0.0019001766 0.18455228
0000c0 42 e4 2d be 50 18 26 bd 95 6b b3 3d 5d 26 03 3c
       -0.16981605 -0.04055053 0.08760754 0.008004752
0000d0 e5 b3 5d be b5 84 07 bf 11 c9 4f be d3 81 93 3d
       -0.21650656 -0.5293687 -0.20291544 0.072024964
0000e0 f1 b7 45 be 77 63 b3 bd ca 3e 10 be 24 56 0f be
       -0.1930845 -0.08759206 -0.14086452 -0.13997704
0000f0 f6 99 d6 3d 4b a1 d4 bd 34 07 99 be e2 c6 fb bd
       0.104785845 -0.10382327 -0.29888308 -0.12293793
000100 e2 ed b0 be 9b 5e 2d be 4d bf a2 3d 8d 9f e0 bd
       -0.3455649 -0.1693062 0.07946644 -0.10967932
000110 31 d6 3c be 49 ee b2 3d 64 ef 89 bd 8f 50 8f 3e
       -0.18441083 0.087368555 -0.06735113 0.2799115
000120 41 05 76 3d 62 c9 95 be 46 6b 8c be 68 5c eb 3c
       0.060063604 -0.29255205 -0.27425593 0.028730586
000130 02 d0 29 bf 43 16 81 3e fa 4d fe 3d 9c 7c 22 bd
       -0.6633302 0.25212297 0.124172166 -0.039669618
000140 6e e0 38 be f4 a5 66 be dc a8 55 bc db 23 b8 be
       -0.18054363 -0.22524244 -0.0130407475 -0.35964856
000150 12 42 8e be 90 65 73 be 2c f2 f7 3d ed df 9e be
       -0.27784783 -0.23769212 0.121067375 -0.31030217
000160 a4 85 af be bf c7 c1 3d 92 e0 c6 be 4a 1d cf bd
       -0.34281647 0.09461927 -0.3884321 -0.10113008
000170 9d 4c b9 3d f7 4f 6a 3e 92 7a eb 3d 43 b7 65 3d
       0.09047816 0.22882067 0.11497988 0.056082975
000180 d4 32 6a 3c 5f 8c a7 bc 57 11 1d bd cd 8a 07 bc
       0.014294345 -0.020452676 -0.038346615 -0.008272839
000190 e5 a1 98 be a3 ee 5b be 5d ea 18 3e a7 cf 3b be
       -0.29811016 -0.21477751 0.14933152 -0.18340932
0001a0 8c f8 80 be c9 59 c5 bd 3c 3c b7 3e 49 5f fe be
       -0.25189626 -0.09636266 0.35788143 -0.49682072
0001b0 9e bb 01 be ea 48 dd bb 60 30 28 be e8 7f b1 bd
       -0.12669227 -0.006753077 -0.16424704 -0.08666974
0001c0 93 5b 0c 3e 6f 02 95 3d 30 d0 58 bd 89 35 43 bc
       0.13706808 0.07275855 -0.052932918 -0.011914619
0001d0 4f f6 f5 3d 7e de e8 bd 37 03 0c be 0a c3 43 3d
       0.1200987 -0.11370562 -0.13673101 0.047793426
0001e0 62 fa b3 be e1 13 85 be cc ec f3 3d 48 54 2b be
       -0.35151964 -0.2599173 0.119104 -0.1673137
0001f0 03 42 ae be 60 86 97 bd f7 08 50 be 04 cf e1 3d
       -0.34034738 -0.07398677 -0.2031592 0.11025813
000200 aa 08 9d 3e 29 91 13 be 7e 77 c1 3d 1e 81 a0 be
       0.30670673 -0.14410843 0.094466195 -0.3134851
000210 26 7b 88 bd 11 44 a4 3e fb 20 37 ba ce e7 c0 be
       -0.06664114 0.3208318 -0.00069858105 -0.37676853
000220 68 f2 4e 3e dd b2 54 3d 18 eb 25 bf 95 fc 10 bf
       0.20209658 0.05192839 -0.6481185 -0.5663541
000230 7f a3 11 3d 88 e2 10 3e fa 9a 2a be 3b 50 95 3d
       0.035556313 0.14148915 -0.16660681 0.07290693
000240 ed 26 8b be 86 6d 20 3d 93 67 b1 be 2e 15 e1 bd
       -0.27178136 0.03916695 -0.34649333 -0.10990368
000250 dd 8f b0 bd b4 4c 33 be 2a 4e 6f be 64 27 8c be
       -0.0862119 -0.17509729 -0.23369661 -0.27373803
000260 7e 53 40 be 67 68 42 3e 7c e0 4c bf e3 47 67 bd
       -0.1878185 0.18985139 -0.80030036 -0.05646504
000270 4b c3 86 3d 00 fd a9 3d 06 87 ac be 0d ab da 3d
       0.06580218 0.08300209 -0.33696765 0.106771566
000280 8b 9b ba bd b1 42 a1 3d 57 cc dc be 4c d1 ad 3e
       -0.09111699 0.078740485 -0.4312465 0.33948743
000290 eb 0e c0 3d b9 b2 a5 3e 4a df f1 bc 75 ff c5 bd
       0.093778454 0.32362917 -0.029525418 -0.09667865
0002a0 31 a4 0e be f4 cd d2 bd 02 b5 a6 bb 3b 91 ed bd
       -0.13929822 -0.10293189 -0.005087496 -0.11599966
0002b0 bf 08 88 be f1 30 73 3e 05 b6 5c 3e 64 d2 c7 3d
       -0.26569173 0.23749138 0.2155381 0.09756926
0002c0 8d 4e 31 3e e4 1f e5 3d af d7 39 be 68 1d 4c bc
       0.17315121 0.11187723 -0.18148683 -0.012458183
0002d0 0d 9a 07 be 4c 89 60 be 33 b8 30 be bf 3c e7 be
       -0.1324236 -0.21927375 -0.17257766 -0.45163533
0002e0 0b 4c 80 bd c4 9d 83 bd ee 61 dd bd c7 b4 ad 3d
       -0.06264504 -0.06426576 -0.10809694 0.08481746
0002f0 32 e9 85 3d 66 b7 83 bd e4 83 19 3d c4 e1 99 bd
       0.06538619 -0.06431465 0.037479296 -0.075137645
000300 5a 2f e9 bc f6 a7 fa 3d 8d fe 32 bd 18 d7 08 be
       -0.028464962 0.12239067 -0.04369979 -0.13363302
000310 7f f6 80 bd 2f fe 92 bd 24 7a 86 be d6 34 fd 3d
       -0.062970154 -0.07177388 -0.2626506 0.12363593
000320 d2 13 14 be 82 b4 b9 bd b7 b1 aa bd 8d 72 e0 be
       -0.14460686 -0.09067632 -0.08334678 -0.43837395
000330 99 73 5e 3d 04 17 62 be c1 72 d5 bd 15 4a 55 be
       0.05430946 -0.22079092 -0.10422278 -0.20829041
000340 4a 4f e4 3d fd b2 a9 be d2 f4 33 bc a3 f5 5d 3e
       0.11147936 -0.3314437 -0.010983663 0.21675734
000350 52 47 a1 3b 92 b8 f0 bd d6 60 c5 be 75 68 85 bc
       0.004921832 -0.11753954 -0.38550442 -0.01628516
000360 8d 42 03 be d6 51 b4 bd cf a0 4c bd 80 2f 25 be
       -0.12818356 -0.088046715 -0.049958047 -0.16131401
000370 c1 0a df bb f5 29 cc bc 56 29 4a 3e 46 fe 45 bc
       -0.006806702 -0.02492235 0.19742331 -0.012084549
000380 73 c8 e4 3d 3d df b7 3b 6f cc 88 be d0 21 c7 bd
       0.11171045 0.005611329 -0.2671847 -0.09723246
000390 00 76 87 be 84 4e 1a bd 9f 68 9b bd f8 c0 02 3e
       -0.26457214 -0.037672535 -0.07588314 0.12768924
0003a0 4d 2b a3 bd dc 63 38 be 59 cd 42 bd 39 a6 70 3e
       -0.07967243 -0.18006843 -0.047559116 0.23500909
0003b0 6b 23 75 be 8b ee 77 bd 89 85 ea bd 13 bb 21 be
       -0.23939292 -0.060530227 -0.11451251 -0.1579402
0003c0 74 24 aa be 9e 72 90 be 00 4e 92 be 84 57 25 3d
       -0.33230937 -0.28212446 -0.28575134 0.040366665
0003d0 91 ef 3a 3e 47 8a d7 be 47 3a 7d 3e 1b 55 46 be
       0.1825545 -0.42097685 0.24729262 -0.19368403
0003e0 03 44 91 3e a6 74 89 be 03 b4 52 be c7 7a 91 be
       0.283722 -0.26846808 -0.20576482 -0.28413984
0003f0 42 9d 0c bf 87 0e 8a be 74 54 e7 3c 90 2c 01 bf
       -0.54927456 -0.26964208 0.028238513 -0.5045862

6.weight f4 [4, 256]
000000 68 ff 37 bb a7 23 b5 bd d5 9e 1b 3d b7 8c 2f 3d
       -0.0028075818 -0.08844691 0.03799327 0.042858806
000010 02 36 a8 3e 6c 4d 07 3c 0d 93 b2 bc a7 a3 8b bb
       0.32853705 0.008258205 -0.021798635 -0.0042614522
000020 6d 3e b1 3c 75 af 7e bd c4 15 6f bb c4 b3 d5 3a
       0.021636212 -0.062179048 -0.003648148 0.0016304185
000030 b0 4c 57 bc 1d 9f 6e 3c 5a 71 9e bb 7d 90 95 3d
       -0.013140842 0.014564303 -0.00483529 0.073029496
000040 1d d4 bf 3c 14 a9 88 bb b3 5b 37 3d 93 21 e2 3b
       0.023416573 -0.0041705463 0.044765186 0.006900975
000050 3c ab 95 3d 0e 8f 90 3d 94 19 b5 3d e9 f7 28 bd
       0.07308051 0.070585355 0.08842769 -0.04125205
000060 79 a7 6d bc b9 1e d3 3a 6b 59 53 bc e3 4d 98 bb
       -0.014505261 0.0016107179 -0.012899737 -0.0046479567
000070 00 a5 59 39 2b f1 1b bd ce 09 bb b9 8d dd 1d bd
       0.000207562 -0.038071793 -0.00035674724 -0.038541365
000080 7e a0 1c 3c 0e 44 b6 3c 17 b3 15 3d 6b f3 2d bd
       0.009559749 0.022249248 0.036547747 -0.04246847
000090 18 d4 ab bb 49 22 26 bd b1 83 ad ba f5 5e 37 3d
       -0.0052437894 -0.04056004 -0.00132381 0.044768292
0000a0 8e f1 9f bd d2 54 34 3c 77 a2 16 3c ed 0f 30 bd
       -0.07809745 0.011006551 0.009194008 -0.042983938
0000b0 82 24 0d bd 18 87 62 3c 62 15 d5 3c 3b 93 7c bc
       -0.034458645 0.013826154 0.026011173 -0.015415962
0000c0 b0 cb b9 3b fb 16 6d 3c a7 7b 93 3c 7d 98 16 3c
       0.0056700334 0.014470811 0.018003298 0.0091916295
0000d0 72 e9 7a 3b e2 e1 fa 3a 94 51 a7 bc 25 dd a5 3c
       0.0038286117 0.0019140805 -0.020424642 0.020247051
0000e0 e1 2c ff bc d1 97 0e bd 0e 19 41 3d 7e 15 ad bc
       -0.03114933 -0.034812752 0.047143035 -0.021128412
0000f0 b2 ed a0 3c 9c 34 bd bc 01 f3 c3 3b 55 f6 83 3c
       0.019644592 -0.023096375 0.005979896 0.016108671
000100 d8 4a ea bc 11 1b 5a bb d8 fd 46 bc 3c cc 02 bd
       -0.028600141 -0.0033280293 -0.012145482 -0.031933054
000110 61 7f b8 3b 8f e0 a7 3c 5c 35 97 3c 98 f8 ff bc
       0.005630419 0.02049282 0.01845806 -0.031246468
000120 6e 76 94 3c 62 97 ad 3c c5 ea 33 3c a2 32 1d 3c
       0.018122878 0.021190349 0.010981266 0.009594591
000130 9b 3c 24 bc cb 22 2c be 83 33 69 bc 56 c0 a3 bb
       -0.010024215 -0.16810147 -0.014233473 -0.0049972935
000140 b3 08 73 3d b9 83 c8 bd a5 4e 86 bd d9 8e fd 3c
       0.059334468 -0.09790749 -0.06557969 0.030951904
000150 6d f0 89 3d 05 32 ee bc 14 6d 75 bc 76 8c 85 bd
       0.06735311 -0.029076586 -0.0149796195 -0.065209314
000160 5a a8 2b 3d d0 a9 b6 bb 1b 36 d8 bc bd 6b 3e bb
       0.0419086 -0.0055744424 -0.026392987 -0.0029055916
000170 5c f0 5d 3c 20 da 5e 3b 2c f3 00 3d 66 4b 6b bd
       0.013546076 0.0034004524 0.031481907 -0.057444952
000180 03 fe 17 3d 6b a7 0b 3d 6b 41 1d 3d ab a7 a2 3c
       0.03710748 0.03409521 0.038392466 0.019855341
000190 48 f0 37 3c 78 7c a5 bd 0c 28 1e be 98 9c 98 bb
       0.011226721 -0.08080381 -0.15444964 -0.0046573393
0001a0 5b 07 6a 3d d9 80 1c bd 07 cf 0f bc ba 04 0e 3c
       0.05713592 -0.038208816 -0.0087773865 0.008668119
0001b0 de c1 ca bd 8c 44 7a bd df a6 be 3c 65 93 21 3c
       -0.099002585 -0.061100528 0.02327293 0.009861802
0001c0 74 dc 7c bc 47 51 c4 bd 76 00 18 bd 0e e7 eb bc
       -0.0154334195 -0.09585815 -0.037109815 -0.028796699
0001d0 87 af 7c bc b8 88 02 ba 89 ef 90 bc a8 44 8e bc
       -0.015422708 -0.0004979479 -0.017692344 -0.017366722
0001e0 11 aa 15 bb 4d c0 fe bc bd 7b 95 b9 40 99 71 3c
       -0.0022836963 -0.031097556 -0.00028511687 0.01474601
0001f0 6d c9 68 3e f6 32 e7 3a de 5f e4 3c 5a ec 1b bd
       0.22733088 0.0017639089 0.027877744 -0.0380672
000200 2d e6 a6 bd f8 f6 70 3d 88 16 0d bc 38 43 9e bb
       -0.08149371 0.058829278 -0.008611329 -0.0048297904
000210 0a 73 59 3c 4a 25 34 3d f4 46 92 bc cd a9 0e 3d
       0.013272056 0.043980874 -0.017856099 0.034829903
000220 d3 44 1d 3b c0 43 63 bd 8b 17 31 3c a7 b5 40 bd
       0.0023997321 -0.055484533 0.010808836 -0.047048237
000230 5a d1 da 3b 21 60 cd b9 1d 79 29 bd b0 af 91 ba
       0.0066777887 -0.0003917227 -0.04137527 -0.0011114981
000240 a9 42 1a bd d1 2d bc bc 67 e6 82 bd 04 83 d8 bb
       -0.03766123 -0.022971066 -0.06391602 -0.006607415
000250 9d 59 3b bc 04 7f 4b 3d b1 d1 38 bd 88 a6 1e bd
       -0.01143494 0.04968168 -0.045121852 -0.038733035
000260 b0 7c 0e 3d eb a4 2b 3c 1d 93 9f 3c 28 95 86 bc
       0.03478688 0.010476331 0.019479329 -0.016428545
000270 ff a2 ea 3c 68 e9 ff bc 78 d6 93 be 70 b9 b8 3c
       0.028642176 -0.031239226 -0.28874564 0.022549361
000280 1f cd 3b 3c b4 54 48 bd bc 2e 41 3d d5 0c 62 3d
       0.011462479 -0.048908904 0.04716371 0.05518802
000290 2b 9d a3 3b a6 53 b5 3c ca fc 4f bc 78 75 c8 ba
       0.004993101 0.022134613 -0.012694547 -0.0015293797
0002a0 3d 26 a4 bc 61 cb 41 bd bf 12 19 3d d2 90 50 bd
       -0.020037765 -0.047313098 0.037371393 -0.05091936
0002b0 85 c6 e7 bb 33 75 35 3d 64 7a 08 bd dc e8 05 bd
       -0.007073226 0.044301223 -0.033319846 -0.032692775
0002c0 08 e0 c0 bb 07 08 0b 3d 54 dd 68 3d 61 2c 0b 3d
       -0.0058860816 0.033943202 0.0568517 0.03397787
0002d0 f3 e4 1c bd 72 d7 a1 3b f8 d8 8c 3c 2d f0 7a b6
       -0.03830428 0.004939013 0.017193303 -3.7392704e-06
0002e0 f3 72 81 3d d1 b7 b5 3b 08 14 d6 ba 68 f5 1c 3d
       0.06320753 0.0055455943 -0.0016332874 0.038319975
0002f0 80 e0 e2 3c c0 4d ee bc 34 62 1a 3d 65 e3 1a 3d
       0.02769494 -0.029089808 0.03769131 0.037814517
000300 8b 50 84 3c 29 c8 b5 bc 27 be b0 bb b5 fc 0e 3d
       0.016151687 -0.02219017 -0.0053937617 0.03490897
000310 22 54 bc bb f4 b0 24 3d 27 5c 67 bc 21 6d 80 3c
       -0.005747334 0.04020782 -0.014121092 0.015677037
000320 e7 fc 6c bc 2b f0 d9 bc eb 2f 9a bd ae 74 86 3c
       -0.0144645935 -0.026603779 -0.07528671 0.01641306
000330 61 89 3b 3b 36 5a 35 3d c7 51 ad 3a e8 d3 b9 bc
       0.002861582 0.044275485 0.0013223224 -0.022684053
000340 3c 1e 39 bc 59 4a a0 bc 5a 17 91 bc ae 22 e4 bc
       -0.011298712 -0.019566702 -0.01771133 -0.027848568
000350 3b 58 3f bb 61 99 3a bd 39 43 b7 3b ca 8b e9 bc
       -0.0029196877 -0.04555643 0.0055927304 -0.02850904
000360 11 c7 b3 bc cb 76 28 bd 95 58 e6 3c 4f 4f 9d bc
       -0.021945508 -0.041128915 0.028118411 -0.019202856
000370 d0 4b 72 3d 0c bc 5c bb 2c 07 8e bc 31 17 15 bb
       0.05915433 -0.003368142 -0.017337404 -0.002274942
000380 5b 8a cc 3c 80 61 c4 bc c8 c5 94 3c 8f 48 18 bc
       0.024968317 -0.023972273 0.018160716 -0.009294643
000390 02 76 3d bd 99 bc 1f 3e 97 39 1c 3d 17 14 f4 3c
       -0.04625512 0.15599288 0.03814086 0.029794736
0003a0 98 85 cb bb e1 cb ae bc 2a cc 9b bc 24 70 a0 3c
       -0.006210994 -0.021337451 -0.019018251 0.019584723
0003b0 26 29 13 3d 3d c3 86 bc f1 7b 2b 3d 38 67 57 bc
       0.035927914 -0.016450519 0.041866247 -0.013147168
0003c0 cd f3 54 3e 57 9f 8d bc 82 47 2d 3c 35 14 05 bd
       0.20796128 -0.017287893 0.010576131 -0.032489974
0003d0 b8 d5 06 bd c3 de 85 3b 75 9d 8c 3d f5 59 ba 3e
       -0.03291866 0.004085393 0.0686597 0.36396757
0003e0 b6 eb 1d 3c 92 37 d1 bc cf 88 8d bb 36 74 6b bd
       0.009638717 -0.025539193 -0.0043192874 -0.057483874
0003f0 3a 6b c7 be 31 c9 ae bd e7 68 91 bd 5e 79 15 3c
       -0.38948995 -0.08534468 -0.07100087 0.0091231745

6.bias f4 [4]
000000 da c0 66 3e 31 16 e9 3e 2d 34 d8 be 7e 88 88 3e
       0.22534505 0.45524743 -0.42227307 0.26666635
