models/Reach/rl/4/20-57-15_Reach_Panda_JOINT_VELOCITY_TD3/models/step_0860000/act_dec.pt (torch, 556173 bytes, 8 tensors)

0.weight f4 [256, 18]
0.057915248 0.16403666 -0.062221773 0.2901789 -0.32420188 -0.1445042 0.07720887 0.13890007
-0.0553297 0.8348154 0.030950723 -0.6798659 0.030560233 -0.15818924 0.87868893 -1.3170544
1.361045 -0.5782608 0.13012218 -0.68967307 -0.3586059 0.25160858 0.18809578 0.02658012
0.27657858 0.6041177 0.31093088 2.368073 0.1442922 -0.23363662 -0.5339637 0.025714388
-0.2034563 0.0541194 0.1997562 -0.14388965 -0.00023682395 -0.26201916 -0.19351737 0.55809224
0.21779789 0.3357459 -0.043054298 -0.38928998 0.31102026 0.47512057 0.7485986 0.70351845
0.23396112 0.22668357 -0.4094572 0.113674864 -0.3059379 0.7391921 0.10517533 0.21756119
0.02556735 -0.05445034 -0.21535464 -0.43554696 0.17990401 -0.31166387 -0.044319052 0.24159466
0.2812162 -0.2618043 -0.39989066 0.32752913 -0.02196155 -0.47516128 0.49045363 -0.24595602
-0.24320753 -0.09777535 -0.13966855 0.023864439 -0.031875074 0.024221707 -0.009603278 0.0026035677
-0.103773735 -0.0271055 0.06661713 -0.007588167 -0.07541298 -0.00046293964 1.5040065 1.553405
-0.600843 -1.1850303 -0.17988314 0.13572179 -0.17508735 -0.20833391 0.015346496 0.019864116
0.112316 0.32301873 0.16955605 -0.32668224 -0.16900599 -0.025682243 0.15808962 -0.020993717
0.10511072 0.7373476 1.5191066 0.31825808 -0.014091102 -0.23645978 -0.0155229885 0.10947543
-0.030833308 0.025203677 -0.10211737 0.7883041 0.39107403 0.31968978 -0.14264978 -0.09544597
0.08257444 -0.19693312 0.668956 0.42393428 -0.10080075 0.772968 -0.18584232 -0.37303072
0.05405334 -0.12694754 0.16652113 0.23652935 -0.14309727 0.45233563 0.3000257 1.2932354
-0.034401916 1.1915238 0.36590937 0.0023325973 -0.605538 0.22258842 -0.34088808 -0.29755858
-0.18501966 0.434464 -0.0027022331 0.15946619 0.06758552 -0.16040798 -0.20203297 -0.42359057
-0.043063123 -0.61216706 -0.08501003 -0.07727538 -0.44824 0.16542622 -1.0291367 -0.53296673
-0.0439819 -0.789326 0.17901123 0.08441346 0.23650737 0.32112676 -0.29363653 -0.22709818
0.13952133 -0.68148696 0.1877295 -0.59938 0.30055618 -0.21425393 0.23666964 -0.80037767
0.064853214 -0.47804683 0.4615994 -0.10893177 -0.44569862 0.3705748 0.13666812 0.6670179
-0.049206913 -0.23020607 -0.56655777 1.6996077 -0.5448668 1.1257781 0.061697442 0.16033064
0.039570455 -0.35214493 0.35014158 0.08238954 0.22427213 0.42224383 -0.11641335 -0.13481078
0.08102909 0.5090336 0.12740113 0.13038561 -0.21997553 -0.4593622 -0.2127781 0.4323908
-0.18055664 0.16107737 -0.02575604 -4.0718227e-05 -0.031585954 0.46151078 -0.5745923 0.20772508
-0.34463897 0.004385147 0.05328037 0.7457742 0.24848135 -0.27548304 0.2304949 -0.000296757
-0.47933948 0.06795286 0.13865136 1.407031 -0.37112173 -0.41529518 0.5001658 -0.39655903
-0.047572948 0.3560146 -0.046030786 -0.07234772 -0.7586208 0.16529538 -0.4148752 0.27610984
-0.59217745 -0.28355825 -0.28620762 0.07519729 -0.3666897 -0.47972316 -0.47074285 -0.07466021
-1.2745422 -1.0382763 1.0919383 0.57855695 0.07443335 -1.1093959 0.3482859 0.63660663
00000000: 8a38 6d3d 3af9 273e 42dc 7ebd 5492 943e
00000010: cafd a5be e9f8 13be af1f 9e3d d23b 0e3e
00000020: 65a1 62bd 76b6 553f 5f8c fd3c b10b 2ebf
00000030: 7459 fa3c 5cfc 21be c2f1 603f 3d95 a8bf
00000040: b936 ae3f e608 14bf c03e 053e 6a8e 30bf
00000050: 319b b7be d7d2 803e 2e9c 403e 8dbe d93c
00000060: b59b 8d3e 75a7 1a3f 5532 9f3e 828e 1740
00000070: 56c1 133e 703e 6fbe d8b1 08bf fba6 d23c
00000080: d956 50be 4eac 5d3d e48c 4c3e cf57 13be
00000090: f253 78b9 6027 86be 6b29 46be 22df 0e3f
000000a0: 6906 5f3e e3e6 ab3e b459 30bd 0451 c7be
000000b0: 0c3e 9f3e 0143 f33e 28a4 3f3f c919 343f
000000c0: 8193 6f3e bd1f 683e 60a4 d1be 5ece e83d
000000d0: e4a3 9cbe b23b 3d3f 2a66 d73d 5cc8 5e3e
000000e0: 9f72 d13c 5207 5fbd ed85 5cbe 0300 dfbe
000000f0: c238 383e 6892 9fbe e587 35bd 9764 773e
00000100: 92fb 8f3e 370b 86be 78be ccbe e6b1 a73e
00000110: b5e8 b3bc 5748 f3be bd1c fb3e e5db 7bbe
00000120: 650b 79be 713e c8bd 4605 0fbe 5b7f c33c
00000130: 708f 02bd 9a6c c63c 1157 1dbc 9ea0 2a3b
00000140: 5387 d4bd 5b0c debc 906e 883d 29a6 f8bb
00000150: 1f72 9abd b5b6 f2b9 4983 c03f fad5 c63f
00000160: d9d0 19bf 13af 97bf 4933 38be a7fa 0a3e
00000170: 194a 33be 7c55 55be df6f 7b3c 12ba a23c
00000180: ee05 e63d b662 a53e 1aa0 2d3e e542 a7be
00000190: e80f 2dbe 9163 d2bc 3fe2 213e 04fb abbc
000001a0: 4a44 d73d d0c2 3c3f 1672 c23f b9f2 a23e
000001b0: 5ede 66bc 8322 72be 2254 7ebc a734 e03d
000001c0: 2296 fcbc f177 ce3c e922 d1bd 4cce 493f
000001d0: db3a c83e 61ae a33e c912 12be 2d79 c3bd
000001e0: ca1c a93d d6a8 49be b340 2b3f ea0d d93e
000001f0: a070 cebd 3be1 453f 734d 3ebe e2fd bebe
00000200: 0967 5d3d 89fe 01be 8484 2a3e c034 723e
00000210: 1788 12be 8998 e73e f89c 993e bd88 a53f
00000220: 06e9 0cbd da83 983f 7958 bb3e 7dde 183b
00000230: 8a04 1bbf 38ee 633e e288 aebe 9959 98be
00000240: cb75 3dbe 1172 de3e f317 31bb 1b4b 233e
00000250: 476a 8a3d fd41 24be bbe1 4ebe dde0 d8be
00000260: f562 30bd fbb6 1cbf bd19 aebd 8e42 9ebd
00000270: b77f e5be 7e65 293e c0ba 83bf 8270 08bf
00000280: 5d26 34bd 4511 4abf b84e 373e f7e0 ac3d
00000290: fd2e 723e ba6a a43e 8757 96be 6d8c 68be
000002a0: aede 0e3e ee75 2ebf 293c 403e f870 19bf
000002b0: 80e2 993e 6265 5bbe 8759 723e 8de5 4cbf
000002c0: c3d1 843d 8ec2 f4be c256 ec3e 9f17 dfbd
000002d0: 9c32 e4be fbbb bd3e baf2 0b3e afc1 2a3f
000002e0: 308d 49bd 24bb 6bbe ee09 11bf bf8c d93f
000002f0: 647c 0bbf 7f19 903f 75b6 7c3d b72d 243e
00000300: a114 223d 574c b4be c245 b33e d9bb a83d
00000310: 98a7 653e 5830 d83e 1f6a eebd d60b 0abe
00000320: 94f2 a53d 0750 023f 7175 023e ce83 053e
00000330: 4441 61be 8631 ebbe 81e2 59be 5462 dd3e
00000340: d7e3 38be 77f1 243e 55fe d2bc ddc8 2ab8
00000350: 4660 01bd 244b ec3e 7b18 13bf e2b5 543e
00000360: 8574 b0be 47b1 8f3b 843c 5a3d 0feb 3e3f
00000370: e571 7e3e 1d0c 8dbe db06 6c3e 0d96 9bb9
00000380: fc6b f5be de2a 8b3d 9ffa 0d3e 9819 b43f
00000390: ab03 bebe 92a1 d4be de0a 003f c909 cbbe
000003a0: dadb 42bd 8c47 b63e c78a 3cbd 0b2b 94bd
000003b0: f934 42bf 3143 293e 866a d4be 455e 8d3e
000003c0: f198 17bf 8c2e 91be ce89 92be 0901 9a3d
000003d0: c1be bbbe 469e f5be 3505 f1be 74e7 98bd
000003e0: 3324 a3bf 3de6 84bf a2c4 8b3f 4f1c 143f
000003f0: 8370 983d af00 8ebf 8852 b23e a7f8 223f

0.bias f4 [256]
0.03269097 -0.33761206 -0.4740721 0.09117013 -0.4096732 0.0979673 -0.3797328 0.07488055
0.24175884 -0.25792637 0.041713517 -0.09332171 -0.18740511 -0.37136403 0.16791995 -0.27640826
0.04301433 -0.27691853 -0.11574393 -0.10740466 0.055508096 -0.07813751 -0.28331283 0.16824885
0.022884415 -0.24043989 -0.21925876 -0.036116965 -0.0106948195 0.1552538 0.13850492 0.07044149
-0.375305 -0.3325769 0.1663551 -0.08832321 -0.07046585 -0.026210554 -0.42607185 -0.16640158
-0.40010616 0.09251536 -0.036505222 -0.17994435 0.17630185 0.026613351 0.015621565 -0.1916934
0.066163644 -0.046754375 -0.25554284 -0.067757174 0.17722058 -0.08636847 -0.4532957 0.049620695
0.07262281 -0.043627646 0.35806066 -0.13225292 0.05532129 -0.24282475 0.0036540963 0.10706602
-0.2743798 -0.07283371 0.113729656 -0.05509102 -0.12096011 -0.36030143 -0.14093353 0.06934797
0.12791643 -0.30848393 -0.22248474 -0.58474195 -0.38929367 0.17112339 0.028944446 -0.5766663
0.15339342 -0.0443999 0.039818726 0.08422335 0.1991888 -0.26722878 0.17227897 -0.059083186
0.1130725 0.024225583 -0.14116743 -0.017582735 -0.3832189 -0.11959084 -0.11429472 0.08417091
-0.33875078 -0.11858911 0.028871547 -0.18649282 -0.08564353 0.092665665 -0.061292995 -0.48013875
-0.19930004 0.1335897 -0.29312873 -0.09248349 -0.018907528 0.0021208187 -0.13109589 -0.29177958
0.10439672 -0.2573948 0.100825205 -0.18019809 0.4443923 0.05965005 -0.11221227 -0.045926496
-0.002274655 -0.1348684 0.1230827 0.04335378 -0.2548343 -0.35596725 -0.2529272 -0.051583443
-0.42731124 0.010486818 0.40906307 0.027285406 -0.37833044 -0.26948902 -0.088158205 0.2917524
-0.23106098 -0.11989394 0.04536179 -0.027535027 0.09930339 -0.06355563 0.03231379 -0.0059858337
-0.2672657 -0.06175891 -0.40265954 -0.16266133 0.06619563 -0.40653154 0.045743696 -0.37440154
0.039689038 0.105857655 -0.09759393 -0.30844247 -0.44994748 -0.14415699 -0.05159701 -0.19403131
0.09790706 -0.0007264661 0.1285658 0.12099673 0.121414095 0.14964317 0.22746404 -0.07729987
-0.11395141 0.73272246 0.082203925 -0.082706735 0.14671823 0.12005596 -0.19156341 -0.2608218
0.29684195 -0.23206945 0.5379275 -0.7184872 -0.27574667 -0.18058412 -0.16552874 -0.076050125
0.04391046 0.07080667 0.16027428 -0.15384029 0.12132629 0.071523346 -0.017852234 0.097301215
-0.30644155 0.6106061 0.057779882 0.052732907 0.17754804 -0.22467177 -0.059000816 -0.19145462
0.039118953 -0.18563539 -0.03586072 -0.06381477 -0.05561881 -0.2507133 0.14633375 0.13701382
0.19224861 -0.34644982 -0.03230814 -0.013446101 -0.31260183 -0.19400989 -0.04511702 -0.14994441
-0.3341692 0.020258084 -0.12206984 -0.16854294 0.08339091 -0.22971861 -0.14249589 -0.09438417
0.36129898 -0.017890923 0.10127089 0.059680108 0.1193428 0.23970559 -0.010826481 -0.17648715
-0.29981032 -0.10416031 -0.15055577 -0.16133635 -0.21326569 -0.23060068 0.011579332 0.044875555
-0.025872156 -0.06516171 -0.16367437 -0.07755586 -0.117296234 -0.18209812 0.26130286 -0.10190514
-0.0197431 0.12013744 -0.3671192 -0.19069909 0.29276642 -0.009585801 -0.3412195 0.060121104
00000000: f7e6 053d 7ddb acbe 94b9 f2be 68b7 ba3d
00000010: b0c0 d1be 14a3 c83d 566c c2be f95a 993d
00000020: a18f 773e ed0e 84be cbdb 2a3d 741f bfbd
00000030: 20e7 3fbe 6d23 bebe 35f3 2b3e 6285 8dbe
00000040: cb2f 303d 44c8 8dbe 270b edbd f9f6 dbbd
00000050: 755c 633d 8f06 a0bd 610e 91be 6d49 2c3e
00000060: 1978 bb3c e035 76be 5e85 60be 62ef 13bd
00000070: 5339 2fbc dafa 1e3e 3cd4 0d3e a143 903d
00000080: fa27 c0be 8547 aabe fe58 2a3e cde2 b4bd
00000090: 6650 90bd 84b7 d6bc 1726 dabe 2d65 2abe
000000a0: b7da ccbe b178 bd3d 8086 15bd 5543 38be
000000b0: 7988 343e 3e04 da3c 98f1 7f3c 464b 44be
000000c0: ce80 873d 8481 3fbd 83d6 82be 46c4 8abd
000000d0: 5079 353e f4e1 b0bd 6016 e8be 123f 4b3d
000000e0: 45bb 943d e7b2 32bd ba53 b73e 4f6d 07be
000000f0: 9498 623d 0da7 78be 9079 6f3b 6e45 db3d
00000100: 827b 8cbe d729 95bd 18eb e83d 1fa7 61bd
00000110: efb9 f7bd 6e79 b8be e150 10be 4f06 8e3d
00000120: 86fc 023e 9bf1 9dbe 0ad3 63be a6b1 15bf
00000130: 8051 c7be f83a 2f3e e71c ed3c 67a0 13bf
00000140: 2a13 1d3e abdc 35bd f618 233d 4b7d ac3d
00000150: 26f8 4b3e 36d2 88be e669 303e 3601 72bd
00000160: 8e92 e73d bb74 c63c 328e 10be ab09 90bc
00000170: 4535 c4be 0bec f4bd 5a13 eabd cc61 ac3d
00000180: be70 adbe d9de f2bd 0684 ec3c f9f7 3ebe
00000190: e065 afbd 7fc7 bd3d 5d0e 7bbd bfd4 f5be
000001a0: 4f15 4cbe bdcb 083e f814 96be fc67 bdbd
000001b0: f6e3 9abc 6ffd 0a3b 003e 06be 2264 95be
000001c0: f3cd d53d 40c9 83be 727d ce3d d985 38be
000001d0: 6387 e33e 9c53 743d 8ccf e5bd 6c1d 3cbd
000001e0: 6112 15bb f11a 0abe c812 fc3d bc93 313d
000001f0: a479 82be 5741 b6be ad7f 81be 2949 53bd
00000200: 8ac8 dabe e7d0 2b3c b770 d13e a585 df3c
00000210: 87b4 c1be 77fa 89be 4a8c b4bd 9260 953e
00000220: 409b 6cbe f48a f5bd 49cd 393d 2391 e1bc
00000230: 935f cb3d 7429 82bd 775b 043d d024 c4bb
00000240: 0dd7 88be e9f6 7cbd 6429 cebe b190 26be
00000250: 9391 873d e724 d0be be5d 3b3d 8fb1 bfbe
00000260: f990 223d e6cb d83d 54df c7bd 2cec 9dbe
00000270: 845f e6be e49d 13be 6357 53bd 25b0 46be
00000280: 7f83 c83d 5170 3eba c1a6 033e 22cd f73d
00000290: f4a7 f83d 0f3c 193e 55ec 683e 654f 9ebd
000002a0: 5b5f e9bd b393 3b3f 885a a83d 2662 a9bd
000002b0: 4e3d 163e e6df f53d 3329 44be 6f8a 85be
000002c0: abfb 973e 9da3 6dbe 9eb5 093f c7ee 37bf
000002d0: ab2e 8dbe 0beb 38be 5e80 29be 2bc0 9bbd
000002e0: 74db 333d 1603 913d f11e 243e 4f88 1dbe
000002f0: eb79 f83d d57a 923d d93e 92bc dc45 c73d
00000300: e8e5 9cbe ae50 1c3f 99aa 6c3d 76fe 573d
00000310: 27cf 353e 5b10 66be d7aa 71bd ae0c 44be
00000320: 323b 203d 3417 3ebe b1e2 12bd 51b1 82bd
00000330: 8dd0 63bd 7e5d 80be 84d8 153e 5a4d 0c3e
00000340: d2dc 443e df61 b1be 8a55 04bd 094d 5cbc
00000350: 590d a0be 87aa 46be a0cc 38bd 078b 19be
00000360: 3a18 abbe 48f4 a53c c1ff f9bd 8596 2cbe
00000370: dac8 aa3d 5b3b 6bbe 71ea 11be 7d4c c1bd
00000380: 2efc b83e fc8f 92bc 1d67 cf3d 2173 743d
00000390: ff69 f43d 6275 753e 8d61 31bc 0cb9 34be
000003a0: bd80 99be 0052 d5bd 4b2b 1abe 5b35 25be
000003b0: 5262 5abe 9622 6cbe 3db7 3d3c 6ecf 373d
000003c0: d8f1 d3bc 8173 85bd 419a 27be 9bd5 9ebd
000003d0: 0239 f0bd ee77 3abe 7dc9 853e a4b3 d0bd
000003e0: 48bc a1bc 9e0a f63d 0cf7 bbbe 9f46 43be
000003f0: 7be5 953e c30d 1dbc 53b4 aebe 8c41 763d

2.weight f4 [256, 256]
0.3490057 -0.72358006 -0.6704087 0.032865744 -0.5876215 -0.28179878 -0.06598044 -0.099263765
-0.13972846 0.09059518 -0.9292782 -0.07758361 -0.21826677 0.058197193 1.5008402 -0.46037114
-0.869066 -0.49110472 -0.11617219 -2.0552838 -0.51816976 0.077776656 0.9959063 -0.32732308
0.05648328 -0.2610678 1.0273117 0.38083553 0.015330658 0.2751995 0.22955301 -0.027976014
-0.43576398 -2.4053845 0.06477538 0.98294085 0.03271159 -1.1024835 0.52650744 0.36330375
-0.74820894 -0.036697417 -0.23368864 0.3995488 -0.093715645 0.39992082 0.066764824 0.09302151
0.012657515 -0.06526946 -0.43374595 0.17573544 0.027687235 -0.9777466 -0.29717833 -1.1967596
-0.10664669 -0.02970142 0.19167128 0.62518674 0.6935566 -0.21245176 -0.058303796 0.24852547
0.047403216 -0.14951071 -0.22309718 0.5175431 0.1855495 -0.58331317 -0.017567983 -0.55709183
-0.34175178 0.0022540588 0.28878027 -0.1297325 0.19916633 -0.10558627 -0.9989919 -1.2744472
-0.3499775 0.64102256 0.33960515 -0.6509998 -0.35745478 -0.18395543 0.69534385 -0.1855887
-0.027517172 -0.04888263 0.46499 -2.4636188 -0.3761969 -0.25652808 -0.19831243 0.52514005
-0.03360457 -0.014271882 0.08256399 -0.3261584 0.2968222 -0.69888794 0.124578334 0.06998319
-0.03152662 0.26665914 -0.24115202 -0.30429646 -0.14115909 -0.059966143 0.016933843 0.63956386
-0.08198079 -0.23923557 -0.31174818 0.23053493 -0.3788666 -0.2330232 0.06543724 0.0653308
-0.7259136 0.57281184 0.08910732 0.005532333 0.0021929822 -0.088603474 0.56592846 -0.12826762
-0.24367113 0.48146182 0.22118212 -0.15168035 0.49701467 -0.026199386 -0.1099862 -0.68771166
-0.47019634 -0.252925 0.11906937 -0.80301535 -0.02616162 -0.047341514 -0.19366036 -0.03681374
0.83041537 0.48938188 -0.7914147 -0.15294369 0.65052766 0.74480706 0.07542038 -0.035321675
-0.1795014 1.123296 -0.027384313 0.13303004 -0.117982686 0.28008482 -0.080883466 0.020289144
-0.23460267 0.031493265 -0.012222842 -0.2374707 -0.0020582867 0.7428693 0.31376824 0.07933836
-0.102840446 -1.0933322 -1.2249796 0.091414325 0.4059475 0.48146483 0.1664744 -0.20703751
0.3137405 -1.147433 0.23577446 0.64437884 -0.060418725 0.176357 -0.01810295 0.08312747
0.06169631 -0.4736234 -0.78911805 -0.5223748 0.1928083 -0.11978919 -0.093025975 -0.10313294
0.27794388 0.67854005 0.22233272 -0.1585202 -0.51324505 -0.030134412 -0.21768683 0.07279365
-0.071414635 -0.35229343 -0.4485919 0.07754404 -0.30337477 -0.13301983 -0.193774 0.36796057
0.62522805 -0.23437867 0.30382192 -2.8520627 -0.5524772 -0.95186067 0.1313724 0.11775568
-0.1285193 -0.33467954 -0.102518484 0.45528397 -0.7667673 0.13808042 -0.024017945 -0.14559942
-2.1975825 -0.18049303 0.32902786 -0.08483238 -0.61513287 -0.01867921 -0.3368484 0.09824806
0.17944442 -0.25873935 0.15160285 -0.05142611 0.28624097 0.05969794 0.5229397 -0.21875872
-0.17507868 0.041364413 -0.52032125 0.21335253 0.24089593 -0.75223505 0.5922779 0.20804484
0.45519802 0.15467998 -0.076093346 -0.3958616 0.119878754 0.0003698024 0.4839201 0.11887864
00000000: e0b0 b23e 8b3c 39bf e89f 2bbf 3b9e 063d
00000010: 5d6e 16bf ee47 90be c120 87bd cd4a cbbd
00000020: fa14 0fbe f789 b93d 2de5 6dbf 28e4 9ebd
00000030: 5381 5fbe 2e60 6e3d 881b c03f c4b5 ebbe
00000040: 1c7b 5ebf 1472 fbbe afeb edbd c589 03c0
00000050: c6a6 04bf 5e49 9f3d b7f3 7e3f e496 a7be
00000060: 035b 673d aeaa 85be f37e 833f e0fc c23e
00000070: 712d 7b3c f3e6 8c3e f20f 6b3e f42d e5bc
00000080: 751c dfbe d2f1 19c0 f4a8 843d 03a2 7b3f
00000090: 97fc 053d 2e1e 8dbf 31c9 063f f302 ba3e
000000a0: 9f8a 3fbf 0850 16bd 134c 6fbe a991 cc3e
000000b0: fded bfbd 6cc2 cc3e ffbb 883d 1082 be3d
000000c0: 7761 4f3c ffab 85bd f313 debe fef3 333e
000000d0: 57d0 e23c 9a4d 7abf c227 98be 6b2f 99bf
000000e0: 9469 dabd 6450 f3bc 7a45 443e 3d0c 203f
000000f0: ed8c 313f f48c 59be f6cf 6ebd 767d 7e3e
00000100: e029 423d 5619 19be 9673 64be b47d 043f
00000110: b000 3e3e 0354 15bf bbea 8fbc 929d 0ebf
00000120: 17fa aebe d5b8 133b 02db 933e 99d8 04be
00000130: 42f2 4b3e 9d3d d8bd efbd 7fbf 1621 a3bf
00000140: 4030 b3be 0e1a 243f bae0 ad3e eca7 26bf
00000150: 5004 b7be d05e 3cbe 0e02 323f f70a 3ebe
00000160: b16b e1bc 2739 48bd 2b13 ee3e eeab 1dc0
00000170: e19c c0be a657 83be 6a12 4bbe 946f 063f
00000180: f2a4 09bd 9dd4 69bc 4f17 a93d 3cfe a6be
00000190: 14f9 973e 52ea 32bf ed22 ff3d 5953 8f3d
000001a0: 0f22 01bd 8c87 883e 8ef0 76be bfcc 9bbe
000001b0: 028c 10be 0f9f 75bd d8b8 8a3c 75ba 233f
000001c0: 8be5 a7bd 2bfa 74be 759d 9fbe 5911 6c3e
000001d0: cefa c1be a29d 6ebe f603 863d 28cc 853d
000001e0: 79d5 39bf cca3 123f e67d b63d 9348 b53b
000001f0: 23b8 0f3b bd75 b5bd b0e0 103f 9658 03be
00000200: ed84 79be 2a82 f63e 917d 623e 1852 1bbe
00000210: b578 fe3e 18a0 d6bc 7240 e1bd df0d 30bf
00000220: 93bd f0be 637f 81be a4da f33d 6a92 4dbf
00000230: e550 d6bc 2de9 41bd e74e 46be 01ca 16bd
00000240: 1a96 543f 4390 fa3e 279a 4abf 459d 1cbe
00000250: fb88 263f adab 3e3f 0076 9a3d 76ad 10bd
00000260: 37cf 37be 2ac8 8f3f 1155 e0bc 0739 083e
00000270: e8a0 f1bd 4767 8f3e 3ba6 a5bd 6b35 a63c
00000280: af3b 70be 15ff 003d 5142 48bc 852b 73be
00000290: 52e4 06bb af2c 3e3f 3ba6 a03e 267c a23d
000002a0: 039e d2bd 4ff2 8bbf 22cc 9cbf 6f37 bb3d
000002b0: 5ad8 cf3e 8f82 f63e 4478 2a3e a401 54be
000002c0: 98a2 a03e 16df 92bf dc6e 713e 03f6 243f
000002d0: a079 77bd ee96 343e a34c 94bc bc3e aa3d
000002e0: 45b5 7c3d c47e f2be a403 4abf 5bba 05bf
000002f0: 8a6f 453e 0954 f5bd 6784 bebd 5d37 d3bd
00000300: a94e 8e3e cdb4 2d3f 30ab 633e 1f53 22be
00000310: 0764 03bf 71dc f6bc 4ce9 5ebe d614 953d
00000320: d641 92bd ce5f b4be d6ad e5be 69cf 9e3d
00000330: f053 9bbe 5a36 08be b16c 46be 5465 bc3e
00000340: f20e 203f f600 70be 8c8e 9b3e 3288 36c0
00000350: 256f 0dbf 24ad 73bf 7d86 063e e429 f13d
00000360: 909a 03be 1e5b abbe 36f5 d1bd fb1a e93e
00000370: dd4a 44bf f464 0d3e 48c1 c4bc 0418 15be
00000380: 31a5 0cc0 2ad3 38be 5776 a83e 99bc adbd
00000390: 5979 1dbf 2505 99bc 6577 acbe 4736 c93d
000003a0: 47c0 373e 7c79 84be c73d 1b3e 2fa4 52bd
000003b0: 2d8e 923e d485 743d 60df 053f 4902 60be
000003c0: d347 33be bb6d 293d c633 05bf 1679 5a3e
000003d0: 6cad 763e 7a92 40bf 869f 173f b509 553e
000003e0: b70f e93e 6e64 1e3e d4d6 9bbd 5fae cabe
000003f0: fe82 f53d 0ae2 c139 60c4 f73e a576 f33d

2.bias f4 [256]
-0.0029434736 0.13208897 -0.38280904 0.058603488 -0.050436046 0.19500738 -1.3066406 -0.057532847
-0.26047045 0.38275293 -0.5666825 -0.033840474 -0.0043990714 0.119244814 -0.06368381 -0.07361089
-0.5868188 -0.3855086 0.22087198 0.25863275 -0.582952 0.16543755 -0.8054861 -0.035996933
0.08677447 0.08618209 -0.769917 0.010284309 -0.7455675 0.02758446 0.030329622 -0.39385214
0.40518677 0.16945533 -0.414303 0.70320404 -0.7437004 -0.089293934 0.1453533 -0.14441144
0.12209466 0.82145697 0.18043128 0.12723777 -0.17304191 -0.460388 -0.067154944 -0.05545474
0.028901212 -0.30566758 -0.1387188 -0.74492073 -0.08814964 0.025675034 -0.15037306 0.2345426
-0.79115283 -0.09629409 0.045198273 -0.28191614 -1.0216509 0.14074394 0.17865705 -0.8572055
-0.086763665 -0.014572114 -0.1936625 -0.39118758 0.09603706 -0.0468532 -0.087283775 0.25222096
-0.008831081 -0.011510918 -0.09319305 0.06749483 -0.052370097 0.0651921 -0.20585427 -0.3052474
0.22291014 -0.08288836 -0.09977741 0.12393597 -0.19462688 -0.06050032 -0.06072238 -0.05261038
0.096659385 -0.6825313 -0.15223871 -0.5203098 0.20520073 0.20382814 -0.10835386 -0.8229291
-0.08327933 -0.05538651 -0.13658303 0.055812955 -0.0060836044 0.6397865 0.017887255 0.1903294
-0.49638745 -0.51784825 0.07428447 0.3792404 -0.07804943 0.43452594 -0.939186 -0.6005449
0.030237852 -0.08492562 0.53045744 -0.049377024 0.11229964 -0.073067054 0.11069722 -0.85844934
-0.41677707 -0.3985415 0.1684734 0.4827426 -0.50069815 -0.24458355 -0.011690808 -0.09821587
-0.092599824 -0.13743399 1.1376656 -0.066892564 -0.32899535 -0.0755511 0.032690715 -0.006891201
-0.01325067 -0.4265181 -0.56817704 -0.7901804 -0.003194999 0.008377614 -0.16733448 -0.9769456
-0.3627355 -0.052169006 -1.1316031 -0.3774504 -0.15755823 -0.23304644 -0.03543672 -0.0014983359
-0.93519765 0.15957363 -0.4134899 -1.250818 0.23045814 -0.03287756 -0.2826165 -0.24057172
-0.64389354 -0.19034344 0.20294008 -0.6437038 -0.26456907 0.10493464 -0.29479682 0.0272364
0.5829883 0.32830968 0.19403547 -0.038891166 -0.118541114 -0.38954207 -0.03225196 0.0930207
-0.5504615 -0.15277264 -0.5026812 0.17336284 0.13416229 -0.04257397 0.015895672 -0.5999197
-0.09341614 0.13885458 -0.4585921 -0.054666635 -0.18620186 -0.0014434067 0.119798064 -0.14020185
-0.028746057 -0.03291283 -0.26322004 0.24036811 -0.3618516 -0.22756292 -0.07091406 -0.6171474
0.038767513 -0.5581049 -0.04821905 -0.0704364 0.34599578 -0.2621644 -0.8110864 -0.06672396
-0.3361829 0.043958064 -0.052322067 -0.07484271 -0.034004357 -0.057195004 -0.12087789 0.17887361
0.10306101 -0.28889498 -0.2435302 -0.4288711 -0.058845453 -0.9076099 -0.09469497 -0.19224428
0.16454789 0.29746753 -0.07939396 -0.11915297 -0.3010559 -0.0064578173 -0.30451676 0.00729347
0.12357124 -0.18231872 -0.027386071 0.01746582 -0.21528283 -0.2768618 0.09632936 -0.14914459
-0.47372997 0.16954952 0.020419534 -0.16876823 -0.09959664 -0.24555083 -0.8069041 -0.26057306
-0.011592186 -0.06329196 -0.6053911 -0.65477866 0.102543704 -0.3589461 0.10703577 0.17775764
00000000: 4be7 40bb 5542 073e 8cff c3be 360a 703d
00000010: 0796 4ebd 04b0 473e 0040 a7bf 90a7 6bbd
00000020: 625c 85be 31f8 c33e 1b12 11bf 4f9c 0abd
00000030: 1626 90bb a036 f43d a86c 82bd 4ec1 96bd
00000040: c239 16bf 6261 c5be 442c 623e 836b 843e
00000050: 583c 15bf 7668 293e 5634 4ebf 8571 13bd
00000060: d0b6 b13d 3c80 b03d 4819 45bf 857f 283c
00000070: 83dd 3ebf cef8 e13c d475 f83c fda6 c9be
00000080: a474 cf3e b385 2d3e 861f d4be 2e05 343f
00000090: 2663 3ebf bddf b6bd 7fd7 143e 98e0 13be
000000a0: c40c fa3d 014b 523f fac2 383e 9e4a 023e
000000b0: e631 31be fab7 ebbe 8888 89bd 8224 63bd
000000c0: 3cc2 ec3c 7680 9cbe 4d0c 0ebe 20b3 3ebf
000000d0: cc87 b4bd 7354 d23c 65fb 19be ef2b 703e
000000e0: fe88 4abf d635 c5bd d321 393d 5057 90be
000000f0: 75c5 82bf 2e1f 103e e0f1 363e d271 5bbf
00000100: 26b1 b1bd e0bf 6ebc 764f 46be bd49 c8be
00000110: 14af c43d 24e9 3fbd d6c1 b2bd 1b23 813e
00000120: 3db0 10bc 4a98 3cbc ffdb bebd bb3a 8a3d
00000130: 0782 56bd 7083 853d 76cb 52be 6349 9cbe
00000140: 8e42 643e 5fc1 a9bd 1958 ccbd 24d2 fd3d
00000150: 454c 47be 2fcf 77bd 08b8 78bd fb7d 57bd
00000160: 5bf5 c53d 5fba 2ebf 77e4 1bbe 0633 05bf
00000170: 2420 523e 53b8 503e a1e8 ddbd 7bab 52bf
00000180: 5a8e aabd f7dc 62bd 6cdc 0bbe 209c 643d
00000190: f958 c7bb 0cc9 233f 4b88 923c b6e5 423e
000001a0: 7f26 febe b491 04bf 7522 983d cc2b c23e
000001b0: 61d8 9fbd 2f7a de3e 7e6e 70bf 50bd 19bf
000001c0: 5fb5 f73c 7ced adbd 0fcc 073f 903f 4abd
000001d0: 5bfd e53d 2ea4 95bd 39b5 e23d 56c3 5bbf
000001e0: ce63 d5be a20d ccbe 4a84 2c3e 0a2a f73e
000001f0: c12d 00bf 1c74 7abe ce8a 3fbc 6725 c9bd
00000200: faa4 bdbd 7fbb 0cbe 079f 913f f8fe 88bd
00000210: 1472 a8be 89ba 9abd b3e6 053d 95cf e1bb
00000220: 5719 59bc 9560 dabe 0d74 11bf 4349 4abf
00000230: 3063 51bb 4342 093c bb59 2bbe 1b19 7abf
00000240: 78b8 b9be 2baf 55bd 5fd8 90bf 2e41 c1be
00000250: f256 21be baa3 6ebe 1826 11bd cf63 c4ba
00000260: 1d69 6fbf 4567 233e f3b4 d3be ce1a a0bf
00000270: 38fd 6b3e 9faa 06bd 1cb3 90be 6f58 76be
00000280: 35d6 24bf 64e9 42be 86cf 4f3e c6c9 24bf
00000290: 9975 87be f9e7 d63d 9cef 96be df1e df3c
000002a0: b93e 153f 3518 a83e 3cb1 463e 584c 1fbd
000002b0: afc5 f2bd 0f72 c7be a21a 04bd a381 be3d
000002c0: 0beb 0cbf 6e70 1cbe b7af 00bf 0786 313e
000002d0: d761 093e 0b62 2ebd a437 823c 5694 19bf
000002e0: f650 bfbd e52f 0e3e 95cc eabe 1fea 5fbd
000002f0: b3ab 3ebe b130 bdba b058 f53d 1391 0fbe
00000300: da7c ebbc 9bcf 06bd c7c4 86be 0f23 763e
00000310: 9d44 b9be 4106 69be 643b 91bd 5ffd 1dbf
00000320: afca 1e3d f6df 0ebf 5781 45bd f640 90bd
00000330: 5c26 b13e 6a3a 86be 5ca3 4fbf 92a6 88bd
00000340: 2a20 acbe 5f0d 343d aa4f 56bd 2247 99bd
00000350: 2748 0bbd 4f45 6abd d48e f7bd a52a 373e
00000360: a711 d33d 0bea 93be fb5f 79be fe94 dbbe
00000370: ee07 71bd 1f59 68bf 70ef c1bd afdb 44be
00000380: 3e7f 283e aa4d 983e 4d99 a2bd 7906 f4bd
00000390: 0024 9abe 199c d3bb 9fe9 9bbe 10fe ee3b
000003a0: eb12 fd3d c2b1 3abe c158 e0bc 7b14 8f3c
000003b0: 1a73 5cbe d4c0 8dbe 5448 c53d 5cb9 18be
000003c0: bc8c f2be 649e 2d3e de46 a73c 94d1 2cbe
000003d0: 53f9 cbbd ad71 7bbe 4491 4ebf d569 85be
000003e0: 27ed 3dbc 379f 81bd e9fa 1abf 939f 27bf
000003f0: 6f02 d23d c9c7 b7be 9235 db3d 1906 363e

4.weight f4 [256, 256]
-0.92205215 -0.015194894 -0.4129315 0.33035174 0.25438973 -0.96567976 0.13781403 0.29388383
-0.19668183 -0.008969321 0.12110206 -0.3005953 -0.0178138 -0.04804065 -0.20674314 -0.63835514
0.7926166 0.27806294 -0.4573207 0.17894436 0.16868974 0.18099903 -0.108286135 -0.054334555
0.14284524 -0.19285506 0.21643345 -0.11136458 0.23211922 0.04337083 -0.10260102 0.33224922
0.114500284 -0.12111011 -0.0245838 -0.22087628 -0.20008986 -0.40490738 0.49406675 -0.066934116
0.17965497 -0.330559 0.08873495 0.34370774 0.6819255 -0.4779347 0.63468057 0.05809248
-0.21361554 -0.41904035 -0.09480587 0.17720097 0.16568135 -0.605677 -0.18550698 -0.73777413
0.7942282 0.18819475 0.29034486 0.1652859 0.52707803 -0.8001002 0.38189587 0.15203357
0.016481698 0.4661675 0.24399117 0.049501065 0.29623377 -0.051221136 -0.03443564 -0.6744485
0.6705424 -0.057647467 -0.5475135 0.47772127 -0.0264079 0.17049381 0.5796666 -0.2579505
0.21872057 0.06310143 -0.18372063 0.4007146 -0.108282045 -0.26967835 -0.0024384707 0.36337006
-0.10502471 0.28311792 -0.4645742 -1.2204809 -0.05434834 -0.44584334 0.30805242 -0.6176108
0.43275598 0.420878 0.5089678 0.009433041 -0.31965277 -0.055732284 0.0968892 0.3667071
0.11091895 0.26856452 0.2907933 -0.12970321 0.010583073 0.54886484 0.22219531 -0.08581536
-0.062984645 0.018993016 0.046841715 0.37528402 -0.3192169 0.5882633 -0.07775521 -0.12917778
-0.1877244 -0.38436952 -0.06405212 -0.82515156 -0.4546318 0.17197672 0.04250207 0.06413081
0.20993222 0.4757151 -0.1726622 0.47189766 0.40154517 -0.19905862 -0.22528408 0.53056836
-0.26571846 -0.18819499 0.26462924 0.35593843 -0.098335944 0.109460555 0.20318826 0.0074516097
0.3173768 0.5743652 0.38765442 0.08258675 0.61314774 0.25236997 0.42860195 -0.5816951
0.06494258 0.63787097 0.63012594 0.41122892 0.019750524 0.014772753 0.09208798 -0.36750746
-0.34459022 -0.501805 0.46348962 -0.034832288 -0.12244895 -0.92328244 0.30761135 -0.41097504
-0.09208135 -0.24711034 0.19313602 0.37875578 -0.058948357 0.21265562 -1.0802189 -0.3418059
1.2790413 -0.101174206 0.5904027 0.089766234 -0.031865668 -1.0052603 -0.25799385 -0.87329197
-0.45833862 -0.20093709 -0.09927298 0.11508026 -0.6760341 0.346881 0.2850873 0.29474625
0.20355661 0.18130615 -0.07203788 0.3705954 0.16705753 -0.03120479 0.21576254 -0.11190688
0.14810205 0.03582881 -0.17345673 -0.22278789 0.14376253 -0.068878144 -0.08011956 0.31392327
0.1704363 -0.26396856 -0.6311073 -0.3690445 0.34201038 0.29076934 0.29150385 -0.6277366
0.7097865 -0.04130393 0.15221888 -0.26367703 -1.0878497 -0.07533634 0.15713954 -0.6498726
0.14462392 0.1832545 0.09824541 -1.0240848 -0.4866824 -0.1122898 -0.024073327 -0.09324505
-0.49505344 -0.24332067 0.048792485 -1.7687625 -0.08379632 -0.037064303 -0.107666835 -0.1621915
-0.16815762 0.021816818 0.1706112 -0.23247834 -0.0728081 0.15252294 -0.6434036 -0.014353277
-0.022765268 -0.0026893734 0.2292303 0.0038292822 -0.3519716 0.15871814 -0.4541583 -0.0923604
00000000: 9c0b 6cbf 01f4 78bc c26b d3be dd23 a93e
00000010: 5f3f 823e ca36 77bf 1f1f 0d3e f177 963e
00000020: f666 49be 0ff4 12bc 5b04 f83d a1e7 99be
00000030: 3fee 91bc 46c6 44bd 79b4 53be 3e6b 23bf
00000040: ece8 4a3f 445e 8e3e f025 eabe 313d 373e
00000050: 01bd 2c3e cf57 393e 1fc5 ddbd e98d 5ebd
00000060: 0646 123e cc7b 45be bba0 5d3e 1d13 e4bd
00000070: a9b0 6d3e 9da5 313d 7c20 d2bd 921c aa3e
00000080: 207f ea3d 9408 f8bd f763 c9bc 642d 62be
00000090: 5be4 4cbe 0550 cfbe 51f6 fc3e c114 89bd
000000a0: 79f7 373e 073f a9be abba b53d 76fa af3e
000000b0: ab92 2e3f dbb3 f4be 6d7a 223f 61f2 6d3d
000000c0: 08be 5abe 758c d6be 9429 c2bd 2c74 353e
000000d0: 5fa8 293e a60d 1bbf 8bf5 3dbe c4de 3cbf
000000e0: 8a52 4b3f 20b6 403e 15a8 943e b540 293e
000000f0: 96ee 063f 5ed3 4cbf db87 c33e b0ae 1b3e
00000100: a004 873c 82ad ee3e d2d8 793e a1c1 4a3d
00000110: f4ab 973e 41cd 51bd 630c 0dbd a8a8 2cbf
00000120: aba8 2b3f c01f 6cbd d829 0cbf e297 f43e
00000130: 6155 d8bc ee95 2e3e 0865 143f 1712 84be
00000140: 49f8 5f3e 533b 813d 4321 3cbe 772a cd3e
00000150: fac2 ddbd 4813 8abe c0ce 1fbb a40b ba3e
00000160: 3217 d7bd d5f4 903e abdc edbe b838 9cbf
00000170: 5d9c 5ebd 9445 e4be 0cb9 9d3e be1b 1ebf
00000180: 3192 dd3e 527d d73e b74b 023f 0b8d 1a3c
00000190: 87a9 a3be 8947 64bd d86d c63d 08c1 bb3e
000001a0: 7929 e33d 4a81 893e dce2 943e ebd0 04be
000001b0: a064 2d3c 6882 0c3f 2b87 633e f7bf afbd
000001c0: 18fe 80bd 3e97 9b3c 19dd 3f3d 3a25 c03e
000001d0: 6670 a3be 6c98 163f 203e 9fbd 2e47 04be
000001e0: d33a 40be 15cc c4be c22d 83bd 223d 53bf
000001f0: 80c5 e8be aa1a 303e a716 2e3d 0457 833d
00000200: 79f8 563e ee90 f33e 5cce 30be 929c f13e
00000210: 5497 cd3e 06d6 4bbe dfb0 66be 54d3 073f
00000220: 400c 88be 30b6 40be 7c7d 873e 903d b63e
00000230: 5b64 c9bd db2c e03d 9510 503e a22c f43b
00000240: 367f a23e 9909 133f a47a c63e 3e23 a93d
00000250: 40f7 1c3f a336 813e b771 db3e f8e9 14bf
00000260: 9e00 853d 834b 233f ef4f 213f 998c d23e
00000270: dacb a13c 6b09 723c 9f98 bc3d f029 bcbe
00000280: 216e b0be 4b76 00bf 834e ed3e 4dac 0ebd
00000290: 84c6 fabd 3d5c 6cbf 3c7f 9d3e 526b d2be
000002a0: 2695 bcbd 7e0a 7dbe 73c5 453e 47ec c13e
000002b0: d573 71bd 65c2 593e 9d44 8abf 2f01 afbe
000002c0: a0b7 a33f 6c34 cfbd a224 173f 5cd7 b73d
000002d0: 9385 02bd 5fac 80bf c517 84be 1090 5fbf
000002e0: 5cab eabe 74c2 4dbe a24f cbbd 33af eb3d
000002f0: 9210 2dbf 639a b13e f6f6 913e fbe8 963e
00000300: 2571 503e 52a8 393e 9988 93bd aebe bd3e
00000310: 2111 2b3e 30a1 ffbc dbf0 5c3e 6f2f e5bd
00000320: 10a8 173e 3bc1 123d a49e 31be 8222 64be
00000330: 7c36 133e fc0f 8dbd b915 a4bd 8dba a03e
00000340: da86 2e3e e326 87be 3f90 21bf 67f3 bcbe
00000350: fc1b af3e b8df 943e fe3f 953e 59b3 20bf
00000360: 91b4 353f 4f2e 29bd 44df 1b3e ad00 87be
00000370: a93e 8bbf f049 9abd 30e9 203e 0d5e 26bf
00000380: 4b18 143e 11a7 3b3e e434 c93d 3615 83bf
00000390: 6f2e f9be 32f8 e5bd 6d35 c5bc 43f7 bebd
000003a0: a577 fdbe 0e29 79be a1da 473d cf66 e2bf
000003b0: 689d abbd bdd0 17bd 6e80 dcbd 8715 26be
000003c0: 8331 2cbe 2fb9 b23c b4b4 2e3e cd0e 6ebe
000003d0: 6a1c 95bd f92e 1c3e 19b6 24bf 022a 6bbc
000003e0: 3a7e babc 3340 30bb 59bb 6a3e b2f4 7a3b
000003f0: 9f35 b4be 0287 223e 7087 e8be 7327 bdbd

4.bias f4 [256]
-0.418685 0.58299756 -0.03863458 -0.32867852 -0.16642904 -1.1203614 -0.059192915 -0.90923536
-0.636807 -0.26211897 -0.3160853 -0.1653172 0.17007452 -0.6444119 -0.5543406 -0.067029215
-0.07519633 0.38187763 -0.5409694 -0.58547014 -0.43463442 0.10938963 -0.74556834 -0.9453363
-0.03343635 -0.50271714 -0.15251105 -1.4507222 -0.24614684 -0.7785881 -0.23564245 -0.5995196
0.19009595 -0.13427514 -0.14538929 -0.18372102 -0.010701771 -0.18414007 -1.2572185 -0.328071
-0.29243058 -0.7998846 -0.17942382 -0.3656897 -0.80465186 -1.3747225 0.037707202 -0.9258192
-0.15500626 -0.61444294 -0.84183544 0.46037674 -0.17485043 0.0205402 -0.6625486 -0.33374056
0.18141665 -0.56737 -1.9753338 -0.8317293 -0.19041204 -0.14518157 0.015777368 -0.48258528
-1.1169525 0.0069293003 -0.23703961 0.83775175 -0.27648753 -0.014365722 -0.27276927 -0.9124197
-0.19866481 -0.4666961 0.17256403 -0.764402 -0.23742914 -0.8273679 -0.68744975 -0.33733204
-0.5036247 0.3516728 -0.18501115 -0.29347005 -0.21176153 -0.5302066 -0.4622306 0.19753617
-0.8067111 -0.34277844 -0.45897394 -0.6082542 -0.6624901 0.16520786 0.28012598 0.26482472
-0.081811845 -0.043095417 -1.0561001 0.1995535 -0.04249915 0.078472905 -0.1114533 0.23748402
-0.024700856 -1.2890655 -0.8722422 -0.27792934 -0.06375839 -0.37519595 -0.1955779 -0.75580794
-0.36915988 -0.36725393 0.08680656 -0.6106899 -0.4000967 0.061282545 -0.42269117 0.2217316
-0.25140926 -0.4433562 -0.62007093 -0.5970898 0.020477815 -0.39762086 -0.56587183 0.009345765
-0.023113629 0.025378112 -0.8423688 -0.15105209 0.23034257 -0.04016869 -0.42407402 0.053867344
-0.11478733 0.2271745 -0.36067143 -0.3426156 0.040211715 -0.35583696 -1.0476952 -0.40482187
-0.6720674 0.31728208 0.15860914 -0.023362778 0.23370118 -0.3009911 -1.651821 -0.50744885
-0.44870812 0.37221572 -0.42364857 -1.9643984 0.15134892 -0.839782 0.7758066 -0.5173002
-0.44997096 -0.3340049 -0.6313553 -0.31742266 -0.009674219 -0.017484408 -0.14573872 -0.07292516
-0.9365423 0.30066165 -0.3542089 -0.04003143 -0.21865839 0.045251966 -0.48192456 -0.3845492
-1.0649837 -0.045365267 -0.7092234 -0.51126957 -0.20942271 -0.070102975 -0.40124363 -0.14996909
-0.08734212 -0.7458277 -0.38765496 0.026111418 0.094969064 -0.13731918 -0.18816808 0.3970206
-0.051774114 -0.52872056 -0.1994972 -0.22308761 -0.39443004 -0.3229325 -0.006394909 -1.0100601
-0.21844889 -0.17331621 -0.58036655 -0.5428547 -0.7169937 -0.047500916 -0.4454501 -0.136187
-0.6602307 -0.0695243 -0.39648974 0.2695579 -0.5252503 -0.30527577 -0.21406154 -0.5696053
0.11851894 -0.10781764 -0.017857356 0.05990631 -0.10469024 -0.7408321 -0.6039773 -0.27110344
0.13244396 -1.2937888 0.10392204 -0.6199314 -0.35556984 0.12968351 -0.06462154 -0.768494
-0.07804334 -0.16081159 -0.51419944 0.09207959 -0.9468463 -1.0739413 -0.9802921 0.21500319
-0.17355993 -0.33909467 0.15293464 -0.5313671 -0.079271056 -0.78323394 -0.13129227 -0.09137296
-0.91912204 -1.3665471 0.065037474 -0.28228995 0.6653459 -0.34000015 0.08071166 0.12098625
00000000: e15d d6be 543f 153f 4b3f 1ebd 8d48 a8be
00000010: 606c 2abe 0168 8fbf 4574 72bd a6c3 68bf
00000020: c905 23bf 7534 86be efd5 a1be e948 29be
00000030: 0428 2e3e 2ef8 24bf 44e9 0dbf 9d46 89bd
00000040: 8900 9abd 7785 c33e f87c 0abf 5fe1 15bf
00000050: 6788 debe ac07 e03d 91dd 3ebf 8f01 72bf
00000060: 8ef4 08bd 12b2 00bf db2b 1cbe 44b1 b9bf
00000070: eb0d 7cbe 8d51 47bf 414c 71be 1e7a 19bf
00000080: 83a8 423e 6c7f 09be eee0 14be 5d21 3cbe
00000090: 7b56 2fbc 378f 3cbe 89ec a0bf ecf8 a7be
000000a0: 76b9 95be 3dc5 4cbf e1ba 37be ae3b bbbe
000000b0: aafd 4dbf e8f6 afbf de72 1a3d 7d02 6dbf
000000c0: f6b9 1ebe 224c 1dbf 8782 57bf 80b6 eb3e
000000d0: fe0b 33be ec43 a83c c99c 29bf 0be0 aabe
000000e0: 49c5 393e 293f 11bf bdd7 fcbf 36ec 54bf
000000f0: 60fb 42be 7aaa 14be 8a3f 813c 6b15 f7be
00000100: 4df8 8ebf 2f0f e33b 83ba 72be e676 563f
00000110: c68f 8dbe 355e 6bbc 6aa8 8bbe 5694 69bf
00000120: ca6e 4bbe cbf2 eebe a0b4 303e d9af 43bf
00000130: a020 73be 62ce 53bf b5fc 2fbf c9b6 acbe
00000140: 8ced 00bf 750e b43e 9073 3dbe b541 96be
00000150: 04d8 58be 9fbb 07bf 7da9 ecbe ec46 4a3e
00000160: 9e84 4ebf a880 afbe a2fe eabe 8cb6 1bbf
00000170: f498 29bf 402c 293e ac6c 8f3e 1b97 873e
00000180: f88c a7bd d284 30bd 4a2e 87bf c157 4c3e
00000190: 9713 2ebd 67b6 a03d a141 e4bd 032f 733e
000001a0: 7359 cabc 1900 a5bf 444b 5fbf c14c 8ebe
000001b0: c293 82bd af19 c0be 9345 48be a17c 41bf
000001c0: 8602 bdbe b508 bcbe a3c7 b13d 2c56 1cbf
000001d0: 7ad9 ccbe 6803 7b3d fa6a d8be 9c0d 633e
000001e0: b7b8 80be 95ff e2be f8bc 1ebf e1da 18bf
000001f0: 17c1 a73c f694 cbbe fadc 10bf fb1e 193c
00000200: cb58 bdbc c2e5 cf3c 7ba5 57bf 66ad 1abe
00000210: ecde 6b3e ed87 24bd 3b20 d9be 01a4 5c3d
00000220: 9f15 ebbd 6fa0 683e eda9 b8be 506b afbe
00000230: 0ab5 243d 4330 b6be e01a 86bf d044 cfbe
00000240: 9c0c 2cbf cc72 a23e 6f6a 223e 4c63 bfbc
00000250: 5d4f 6f3e 811b 9abe df6e d3bf 2be8 01bf
00000260: 12bd e5be 0f93 be3e 77e8 d8be 6871 fbbf
00000270: 36fb 1a3e f4fb 56bf 439b 463f c96d 04bf
00000280: 9862 e6be b102 abbe 80a0 21bf 3985 a2be
00000290: 9e80 1ebc 763b 8fbc 883c 15be c959 95bd
000002a0: 3cc1 6fbf 53f0 993e de5a b5be fff7 23bd
000002b0: fce7 5fbe 205a 393d d1be f6be a2e3 c4be
000002c0: 6351 88bf eed0 39bd aa8f 35bf 90e2 02bf
000002d0: e872 56be 2692 8fbd ce6f cdbe 7f91 19be
000002e0: 6de0 b2bd 90ee 3ebf b67a c6be 9de7 d53c
000002f0: 247f c23d 669d 0cbe 22af 40be 4946 cb3e
00000300: 1811 54bd 3b5a 07bf fe48 4cbe 1471 64be
00000310: bcf2 c9be 6957 a5be 638c d1bb a649 81bf
00000320: 11b1 5fbe ce79 31be e792 14bf 87f8 0abf
00000330: e68c 37bf 5290 42bd 0912 e4be 9b74 0bbe
00000340: e104 29bf c262 8ebd b400 cbbe 7e03 8a3e
00000350: ce76 06bf 1b4d 9cbe f332 5bbe a7d1 11bf
00000360: 0fba f23d 7fcf dcbd 9749 92bc 5260 753d
00000370: d667 d6bd 2ca7 3dbf 429e 1abf 12ce 8abe
00000380: 649f 073e df9a a5bf 14d5 d43d d3b3 1ebf
00000390: 400d b6be c1cb 043e 4c58 84bd 06bc 44bf
000003a0: 30d5 9fbd cbab 24be 93a2 03bf 3994 bc3d
000003b0: 8564 72bf e976 89bf 6cf4 7abf cc29 5c3e
000003c0: b2b9 31be d19d adbe e69a 1c3e ad07 08bf
000003d0: dd58 a2bd 0582 48bf 7b71 06be bf21 bbbd
000003e0: 954b 6bbf 04eb aebf 5e32 853d 4f88 90be
000003f0: 1c54 2a3f 8014 aebe 284c a53d a4c7 f73d

6.weight f4 [7, 256]
-0.060040187 -0.037776355 -0.13725819 -0.116029136 -0.00079328904 0.28358582 -0.061277922 -0.22881098
0.050803106 -0.51551634 -0.008530206 0.006111905 -0.0040601026 -0.050276864 -0.16471377 -0.05984329
0.13046469 0.07143363 -0.010413514 0.06259276 -0.08877788 -0.015019133 0.14727934 -0.034003645
0.012787687 0.14739868 -0.1582854 -0.25914392 0.10990042 0.018461253 0.017439349 0.045407448
-0.1036426 -0.0065843975 0.0011187767 0.062342327 -0.033821728 -0.04651042 -0.005121443 0.035323795
-0.15988919 -0.70803744 0.08814972 -0.0066020833 -0.09304873 0.18056501 0.015628412 0.030775243
0.80440366 -0.08349309 -0.01206518 0.05188749 -0.110002555 -0.120049246 0.006077839 -1.5079018
0.060256936 -0.19729048 -0.29825854 -0.00214087 -0.07997826 0.21990168 0.03470813 -0.0023019726
0.08155884 0.060180265 -0.048003457 -0.0023742288 -0.06517049 -0.09564206 0.010604386 0.018087232
-0.24846663 -0.23637645 0.0046790317 -0.034073472 -0.041866418 -0.06517292 0.018786289 0.20081986
0.104066096 -0.15779015 -0.107825756 0.06731571 0.03247094 0.15397598 0.11045139 -0.00293976
-0.0165973 0.16507679 0.05384459 0.014784354 0.013497488 -0.071556054 0.005338233 0.08105099
-0.0028500194 0.13709708 0.049005155 -0.024579503 0.18938969 0.33164364 0.011833454 0.030370535
-0.030582938 -0.041061092 0.026656464 -0.049423605 -0.10281491 -0.069064446 -0.16523907 0.16075164
0.22093818 0.1236216 0.011350023 0.03997348 -0.034344956 0.009868929 0.0074882624 0.512388
-0.05104077 -0.035409406 -0.084097065 -0.03530608 -0.015071593 0.0056510707 0.031492736 -0.014832706
-0.039090943 -0.003986221 0.044564907 0.024799628 -0.009098435 0.0087906355 0.1553675 -0.04662818
0.004103838 -0.023724703 0.15077934 0.17945533 0.06305904 -0.10689428 -0.011669716 -0.0053839386
-0.18919869 0.08757864 0.003629871 -1.2917981 0.011833661 0.006435626 -0.1993999 0.019552868
-0.1274927 -0.04314821 0.026775785 -0.09181216 -0.034715444 0.0634529 -0.0050796713 0.131568
-0.059084352 -0.098592974 -0.055849873 0.086966075 -0.06214661 0.13208814 -0.052649256 0.113539204
-0.20696266 -0.004416377 0.028180614 -0.19434015 -0.033383243 0.052529205 0.03628254 0.009395124
-0.24608977 -0.071399406 0.20120743 -0.41167468 -0.041595567 0.019292526 -0.18375072 -0.21607597
0.10511076 0.029990053 -0.05610244 0.03345847 0.021716097 0.03776255 0.010260097 0.029355766
0.042900372 -0.05292015 0.066822514 0.0045368974 0.007217307 0.0014950063 0.12843561 -0.0026265455
0.054874346 -0.0793613 0.071565755 -0.78842205 -0.13005184 -0.095630266 0.0124387555 0.22424142
-0.96133167 0.07045076 0.0075694476 -0.028442701 -0.16938044 0.016883811 0.11900305 0.024378084
0.01859675 -0.01780918 0.030269772 0.00791299 -0.0039713383 0.41121528 0.13539425 0.060094535
0.018216923 0.0078825345 0.10018188 0.058411222 0.034123987 0.018166026 0.05973251 0.14188038
0.57345635 0.025132082 0.024987353 0.023769919 -0.01475067 -0.03469714 -0.012694932 0.0538065
-0.09665011 0.021314306 0.10182444 -0.036996387 0.021079846 0.10442018 0.008463267 0.047203787
-0.032030005 -0.13184376 0.21679778 -0.58142465 0.009193017 0.13382418 -0.47686628 0.17683522
00000000: b3ec 75bd 61bb 1abd 698d 0cbe afa0 edbd
00000010: baf4 4fba 2932 913e 8ffe 7abd 6d4d 6abe
00000020: eb16 503d e1f8 03bf 47c2 0bbc 6046 c83b
00000030: 9c0a 85bb 1def 4dbd baaa 28be 3d1e 75bd
00000040: 8998 053e cc4b 923d 729d 2abc a230 803d
00000050: 2dd1 b5bd cf12 76bc 65d0 163e 6847 0bbd
00000060: 7283 513c aeef 163e 9115 22be 83ae 84be
00000070: 7913 e13d 0e3c 973c f7dc 8e3c 29fd 393d
00000080: 9242 d4bd eec1 d7bb eba3 923a ab5a 7f3d
00000090: a788 0abd b681 3ebd c7d1 a7bb afaf 103d
000000a0: feb9 23be f141 35bf d787 b43d 4a56 d8bb
000000b0: 5590 bebd 09e6 383e 2807 803c 5d1c fc3c
000000c0: 66ed 4d3f 6dfe aabd 08ad 45bc fa87 543d
000000d0: 0549 e1bd 61dc f5bd 9c28 c73b ed02 c1bf
000000e0: facf 763d 8406 4abe 58b5 98be d74d 0cbb
000000f0: a4cb a3bd e82d 613e 1d2a 0e3d b1dc 16bb
00000100: 5208 a73d 957f 763d 469f 44bd f398 1bbb
00000110: 1b78 85bd fcdf c3bd 05be 2d3c ad2b 943c
00000120: 096e 7ebe ab0c 72be 9052 993b a090 0bbd
00000130: 1f7c 2bbd 6179 85bd b4e5 993c b9a3 4d3e
00000140: 9b20 d53d be93 21be c0d3 dcbd d2dc 893d
00000150: 4000 053d e1ab 1d3e 5734 e23d fda8 40bb
00000160: 10f7 87bc e409 293e 258c 5c3d 133a 723c
00000170: 9124 5d3c fb8b 92bd 58ec ae3b 10fe a53d
00000180: 64c7 3abb 2d63 0c3e a1b9 483d f45a c9bc
00000190: 5fef 413e 32cd a93e 1ae1 413c a1cb f83c
000001a0: 1289 fabc ad2f 28bd a85e da3c 6870 4abd
000001b0: a090 d2bd a971 8dbd 6e34 29be 149c 243e
000001c0: 9e3d 623e 522d fd3d 72f5 393c 3bbb 233d
000001d0: 4cad 0cbd 4ab1 213c 1960 f53b dc2b 033f
000001e0: 2010 51bd 7409 11bd 153b acbd 1c9d 10bd
000001f0: d8ee 76bc 9e2c b93b 87fe 003d e104 73bc
00000200: d31d 20bd d89e 82bb b189 363d 9728 cb3c
00000210: 9a11 15bc 9906 103c a818 1f3e 31fd 3ebd
00000220: 7d79 863b 4f5a c2bc e665 1a3e 23c3 373e
00000230: 1925 813d 63eb dabd 5632 3fbc c06b b0bb
00000240: 4dbd 41be 6e5c b33d 21e3 6d3b a459 a5bf
00000250: f9e1 413c f2e1 d23b 7d2f 4cbe 562d a03c
00000260: 728d 02be 2dbc 30bd e458 db3c 0408 bcbd
00000270: c831 0ebd 98f3 813d 5f73 a6bb c3b9 063e
00000280: 6f02 72bd 1deb c9bd d6c2 64bd 451b b23d
00000290: 728d 7ebd 1d42 073e bfa6 57bd 3e87 e83d
000002a0: 05ee 53be 41b7 90bb 08db e63c 1b01 47be
000002b0: debc 08bd dd28 573d 009d 143d 02ee 193c
000002c0: f5fe 7bbe da39 92bd 5209 4e3e 06c7 d2be
000002d0: 1d60 2abd 5c0b 9e3c 2629 3cbe 0543 5dbe
000002e0: 4f44 d73d b3ad f53c accb 65bd c00b 093d
000002f0: f5e5 b13c e7ac 1a3d f719 283c 817b f03c
00000300: 4db8 2f3d cdc2 58bd 3eda 883d 41aa 943b
00000310: 297f ec3b 16f4 c33a a084 033e 1f22 2cbb
00000320: ecc3 603d 2d88 a2bd 1191 923d 07d6 49bf
00000330: 4f2c 05be cdd9 c3bd eccb 4b3c 8b9f 653e
00000340: d519 76bf 7d48 903d 2109 f83b ab00 e9bc
00000350: 1172 2dbe eb4f 8a3c dfb7 f33d 8cb4 c73c
00000360: 3658 983c 8fe4 91bc 50f8 f73c 7ca5 013c
00000370: 0022 82bb cf8a d23e caa4 0a3e b025 763d
00000380: a83b 953c bf25 013c 282c cd3d 9b40 6f3d
00000390: 98c5 0b3d ebd0 943c 14aa 743d 1749 113e
000003a0: 09ce 123f cce1 cd3c 47b2 cc3c 22b9 c23c
000003b0: cbac 71bc 971e 0ebd 67fe 4fbc 3464 5c3d
000003c0: 7ef0 c5bd 579b ae3c 5589 d03d 8689 17bd
000003d0: a4af ac3c 3fda d53d 84a9 0a3c c258 413d
000003e0: e531 03bd 0d02 07be 3d00 5e3e 3fd8 14bf
000003f0: 4f9e 163c 3509 093e d127 f4be 4b14 353e

6.bias f4 [7]
-0.010485458 -0.102696426 0.0075092684 -0.21015917 0.0050254436 0.11705757 -0.003551029
00000000: 33cb 2bbc 8152 d2bd 4f10 f63b f733 57be
00000010: 7aac a43b e1bb ef3d 61b8 68bb
