models/Reach/rl/4/20-57-15_Reach_Panda_JOINT_VELOCITY_TD3/models/step_0860000/actor.pt (torch, 542961 bytes, 8 tensors)

trunk.0.weight f4 [256, 7]
0	0xbcd88bf5	-0.026433924
1	0x3c7991a9	0.015232482
2	0x3d0b7de1	0.034055594
3	0xbbbb1deb	-0.0057103536
4	0x3e24c8b8	0.16092193
5	0x3f72f1d1	0.9490023
6	0x3f924215	1.1426417
7	0x3d4d38d2	0.050103016
8	0x3e64b6e7	0.22335397
9	0x3de8e14d	0.11371098
10	0x3ce82bbb	0.028341165
11	0x3f1816e4	0.5940993
12	0x3f479f54	0.7797749
13	0x3efa5efd	0.48900595
14	0xbd4333e2	-0.0476569
15	0x3c846740	0.016162515
16	0x3e01c017	0.12670933
17	0x389a6fe1	7.364131e-05
18	0x3eda666b	0.42656264
19	0x3f4b3079	0.7937084
20	0x3fa88f98	1.3168821
21	0xbd8bd3b6	-0.0682749
22	0xbcad78dc	-0.021175794
23	0x3d79e74b	0.061011594
24	0x3d1b56a5	0.037924428
25	0xbfc1edc2	-1.5150683
26	0xbdf13f5b	-0.11779662
27	0x3fd2910e	1.6450517
28	0xbdda4384	-0.10657409
29	0xbc7a3cff	-0.015273332
30	0x3d9793f2	0.07401265
31	0xbcfb093d	-0.030644054
32	0x3fedb6dd	1.857143
33	0x3f47a4b5	0.779857
34	0xbd0d1913	-0.03444774
35	0xbc8d91c1	-0.017281415
36	0xbabc887e	-0.001438394
37	0x3b59c7f5	0.0033230756
38	0x3ce1531e	0.027505454
39	0xbeb7eea2	-0.3592425
40	0x3f915b8a	1.135606
41	0xbf7bf2e1	-0.9841748
42	0xbdea81a9	-0.11450512
43	0x3d6cf59f	0.05785143
44	0xbe6f5976	-0.2337397
45	0xbe868b71	-0.2627826
46	0xbccc9ee2	-0.024978105
47	0xbf13bbfb	-0.5770871
48	0xbf22f691	-0.6365748
49	0xbe55be97	-0.20873486
50	0xbb771acf	-0.0037705188
51	0xbe2a4c28	-0.16630614
52	0xbe8b2c39	-0.27182177
53	0xbf4d592c	-0.8021419
54	0x3f1574e2	0.58381474
55	0x3e0de6a7	0.13857518
56	0x3ef32a39	0.4749315
57	0x3d8f98e2	0.07011582
58	0xbe85bcf2	-0.26120716
59	0x3e94158e	0.28922695
60	0xbf7e9b99	-0.99456173
61	0xbd07f1b1	-0.03318948
62	0x3e4c9f2e	0.19982597
63	0xbe7afacc	-0.24509734
64	0xbd3ab042	-0.04557825
65	0x3d33a863	0.043861758
66	0xbe0c847a	-0.13722411
67	0xbfbe409b	-1.4863466
68	0xbe81714b	-0.25281748
69	0x3e827b29	0.2548459
70	0xbd84c1ad	-0.06482253
71	0xbe04961d	-0.12947889
72	0x3cd16a06	0.025563251
73	0xbedd0af6	-0.43172425
74	0x3f1cb2d0	0.61210346
75	0x3e35ccac	0.17753857
76	0x3f866d8d	1.0502182
77	0x3cd1847b	0.025575867
78	0x3d954263	0.07288053
79	0x3ead884d	0.33893052
80	0x3cb84d1c	0.022497706
81	0x3f0099ee	0.5023488
82	0x3e27962e	0.16365883
83	0xbea1e0ad	-0.31616727
84	0x3e8541de	0.26026815
85	0xbd79af03	-0.06095792
86	0x3d2d1498	0.042255968
87	0x3b738f42	0.0037164246
88	0x3d2c58c0	0.042076826
89	0xbf3888ae	-0.72083557
90	0xbf4226a9	-0.7584024
91	0x3e100bfb	0.1406707
92	0x3d8fcbe3	0.0702131
93	0x3ea15041	0.3150654
94	0xbcc13949	-0.023586886
95	0x3d85c6b4	0.0653204
96	0x3ed2ec93	0.41196117
97	0xbdeb3a89	-0.11485774
98	0xbc3202b2	-0.0108649
99	0xbd829c9a	-0.06377526
100	0x3c806319	0.015672253
101	0xbc9002ae	-0.017579403
102	0xbfcd1e50	-1.6024876
103	0x3e258644	0.161645
104	0x3f72ee06	0.94894445
105	0xbd314cfc	-0.04328631
106	0xbc8c3060	-0.01711291
107	0xbdceea5b	-0.101032935
108	0x3d80d8a0	0.06291318
109	0x3eb5aa4c	0.3548149
110	0x3ec3e66d	0.38261738
111	0xbf4bb380	-0.7957077
112	0x3a9a7dd0	0.0011786763
113	0x3c92bebe	0.017913219
114	0x3ca94feb	0.02066799
115	0xbc45aa20	-0.012064487
116	0x3efbaad3	0.49153766
117	0xbeed7c19	-0.46383741
118	0x3fe2dcf8	1.7723684
119	0x3da91868	0.08256608
120	0x3d7498f5	0.059716184
121	0xbd21cd3a	-0.03950236
122	0xbb6bafdd	-0.0035962977
123	0xbffd26bd	-1.9777447
124	0xbea45e39	-0.32103136
125	0xbea8c63f	-0.3296375
126	0xbe2d6250	-0.16932034
127	0xbe098cb0	-0.13432574
128	0xbdaaaf8c	-0.08334264
129	0x3c352a79	0.01105749
130	0xbb1ad53a	-0.0023625628
131	0xbe16b9ca	-0.1471931
132	0x3f086f55	0.5329488
133	0x3ea2ac8c	0.31772268
134	0x3d2a56a4	0.041586533
135	0xbe30cfdb	-0.1726679
136	0x3e8feab4	0.28108752
137	0x3f0d48c8	0.5518918
138	0xbed963ae	-0.42458862
139	0x3e943e94	0.28953993
140	0x3d9a2f2f	0.07528531
141	0x3d97c444	0.074104816
142	0x3d64d9bb	0.055871706
143	0x3e5b86f4	0.214382
144	0xbf460d5a	-0.7736412
145	0xbf260d40	-0.6486397
146	0xbdf29a12	-0.11845793
147	0x3d3f7748	0.046744615
148	0xbd85d45d	-0.06534646
149	0x3dd26ff6	0.10275261
150	0x3d5830c8	0.052780896
151	0x3f5e8822	0.8692647
152	0x3da595aa	0.08085187
153	0x3f202a43	0.62564486
154	0x3e8a7aef	0.27046916
155	0x3db299b0	0.0872072
156	0x3adfdd08	0.0017079422
157	0x3e99c029	0.3002942
158	0x3f348b7c	0.70525336
159	0x3f1be929	0.6090265
160	0xbf44645a	-0.76715624
161	0xbc2290ea	-0.0099222455
162	0x3d2ee99a	0.04270325
163	0x3dd0d08f	0.101960294
164	0x3de4af59	0.111662574
165	0xbf1590a3	-0.58423823
166	0xbf4bccce	-0.7960938
167	0xbf00c664	-0.5030272
168	0x389abe17	7.378699e-05
169	0xbd00ea29	-0.031473313
170	0x3cdba1b9	0.026810514
171	0x3d32509c	0.043533906
172	0xbf12028b	-0.5703513
173	0x3d0e8ee6	0.034804247
174	0xbf9b99e1	-1.2156335
175	0xbd85e549	-0.06537873
176	0xbd7c0768	-0.0615305
177	0xbe9d1324	-0.30678666
178	0x3e8014cd	0.2501587
179	0x3fba3484	1.4547276
180	0x3e0fc2ee	0.14039204
181	0xbefa111e	-0.48841184
182	0x3e15f572	0.14644411
183	0x3e5d7843	0.21627907
184	0xbd7a4a8f	-0.06110626
185	0x3d3b32b9	0.04570267
186	0x3ec33162	0.38123614
187	0x3f8ac268	1.0840578
188	0x3f8c5b7d	1.096542
189	0x3dd10f51	0.102079995
190	0x3d2482df	0.04016387
191	0x3e60f001	0.21966554
192	0xbd6fbff9	-0.05853269
193	0x3ebd1168	0.36927342
194	0xbf95e24e	-1.1709688
195	0x3eecc8d8	0.46246982
196	0xbd8afb33	-0.06786194
197	0xbc97432a	-0.018464644
198	0xbdddc0e6	-0.10827808
199	0x3bb724aa	0.0055890875
200	0xbf2a468f	-0.66513914
201	0x3e8fad1d	0.28061762
202	0x3febc02f	1.8418025
203	0x3e310fef	0.17291234
204	0x3c3e8f6e	0.011630876
205	0x3ddbea53	0.10738053
206	0x3db2d5e3	0.08732202
207	0x3f9133d4	1.1343942
208	0x3e6e85d4	0.23293239
209	0x3e38730e	0.1801264
210	0xbdcd47e3	-0.10023477
211	0x3dcb1bfa	0.099174455
212	0xbd9d7d66	-0.076899335
213	0xbe682220	-0.22669268
214	0x3e9c7890	0.30560732
215	0x3f094fa5	0.5363715
216	0xbf157e7e	-0.58396137
217	0x3e85b20d	0.26112404
218	0x3e56e456	0.20985541
219	0x3ca418fc	0.020031445
220	0xbe62c2df	-0.2214465
221	0x3e8c055d	0.27347842
222	0x3f203aa6	0.6258949
223	0x3e2ece5b	0.17070906
224	0xbe088bc7	-0.13334571
225	0x3cf41e4b	0.029799601
226	0xbcb1c3c0	-0.021699786
227	0x3e458f9d	0.19293065
228	0x3df87536	0.12131731
229	0xbe9d2c34	-0.30697787
230	0xbf1ff94f	-0.6248979
231	0xbdd53baf	-0.10411774
232	0x3dd5423b	0.10413023
233	0x3c4ac1d4	0.012375314
234	0x3e2c78f4	0.16843015
235	0x3f2ce63a	0.675388
236	0xbf070dd2	-0.52755463
237	0x3f5cc331	0.8623534
238	0x3e5c2cc0	0.21501446
239	0x3e0e137e	0.13874623
240	0xbe620196	-0.22070917
241	0x3c03eeda	0.008052552
242	0xbf88e57a	-1.0695031
243	0x3f1e515c	0.61842895
244	0x3e4bed9f	0.19914864
245	0x3cbcb638	0.023036107
246	0x3ebcc62e	0.3686995
247	0xbe3a148e	-0.18171903
248	0xbe2e1273	-0.16999225
249	0xbeba7205	-0.36415115
250	0x3eb423dd	0.35183612
251	0x3efcce63	0.4937621
252	0x3dfbf135	0.12301866
253	0x3ddccca5	0.1078122
254	0x3d37778c	0.044791743
255	0xbe054e1b	-0.13018076

trunk.0.bias f4 [256]
0	0x3d4a01be	0.049318068
1	0xbddcadf9	-0.1077537
2	0xbce7353c	-0.028223626
3	0x3da8041f	0.08203911
4	0xbbf7b928	-0.007559914
5	0x3d434b81	0.047679428
6	0xbd0171ad	-0.03160255
7	0xbc97f361	-0.01854867
8	0x3d877a0e	0.06615077
9	0x3d4e582b	0.050377052
10	0xbd7c8d7b	-0.061658364
11	0xbe06f1a2	-0.13178113
12	0xbcd36169	-0.025803285
13	0xbe0961f9	-0.1341628
14	0x3ce45417	0.027872128
15	0xbe3636b4	-0.17794305
16	0x3d8889c7	0.06666904
17	0x3cd28d39	0.025702106
18	0x3dc0c4e7	0.09412556
19	0x3d58ce6a	0.052931227
20	0xbd60da97	-0.054895964
21	0xbbfdb517	-0.007742535
22	0xbe037cfd	-0.12840648
23	0xbe111368	-0.14167559
24	0x3d236528	0.039891392
25	0xbd969901	-0.07353402
26	0xbdc6b587	-0.09702592
27	0xbd8e6705	-0.06953243
28	0x3d61d304	0.05513288
29	0x3d888c8a	0.06667431
30	0xbe0f840d	-0.14015217
31	0x3c4cacf4	0.012492407
32	0xbd8a7541	-0.06760646
33	0x3cde518d	0.027138496
34	0xbd80a544	-0.06281522
35	0x3c2d3a81	0.01057303
36	0xba573af3	-0.0008210383
37	0xbd7f7015	-0.06236275
38	0xbdd6040b	-0.1044999
39	0x3ba9b609	0.005179171
40	0xbdff2705	-0.12458614
41	0x3d12ccb6	0.03583976
42	0x3d169318	0.036761373
43	0xbcfb4667	-0.030673219
44	0xbd30b9bd	-0.043145884
45	0xbdc7fd61	-0.09765125
46	0xbd14faba	-0.036371924
47	0x3dd46b26	0.103719994
48	0x3d778012	0.06042487
49	0xbd70ec48	-0.058819085
50	0xbdd52be6	-0.104087636
51	0x3e1ce0ad	0.15320082
52	0x3e074223	0.13208823
53	0x3d52e55a	0.051488258
54	0xbd8e3683	-0.06943991
55	0xbe0690c3	-0.1314116
56	0x3cbbbf9c	0.022918515
57	0xbe3a4240	-0.18189335
58	0xba6e6d9a	-0.00090953114
59	0x3c18b2e7	0.009319997
60	0x3d3d7efb	0.046263676
61	0x3d929d36	0.07158892
62	0x3af0bbbe	0.0018366498
63	0x3d4a034c	0.04931955
64	0xbd798c98	-0.060925096
65	0x3dac46be	0.084119305
66	0xbc6b4bd2	-0.014361339
67	0x3cb568da	0.022144724
68	0xbd805aad	-0.06267295
69	0xbd4cfb8a	-0.050044574
70	0xbd6c186f	-0.05764049
71	0xbcb96d2c	-0.022635065
72	0xbcb78a6f	-0.022404877
73	0xbd580baa	-0.0527455
74	0x3bcb3b12	0.00620211
75	0xbc815d23	-0.015791481
76	0xbdb931b2	-0.09042682
77	0xbdd68054	-0.104736954
78	0xbd40d2e6	-0.04707613
79	0xbdfb7f76	-0.122801706
80	0xbc9fa834	-0.019489385
81	0x3c8b8b94	0.01703433
82	0xbd8541ff	-0.065067284
83	0xbdb71654	-0.089398056
84	0xbe050f75	-0.12994178
85	0xbd80a396	-0.062812015
86	0xbd6b3185	-0.057420272
87	0xbda797a5	-0.08183221
88	0xbe04851a	-0.12941399
89	0xbd7fde4a	-0.06246785
90	0xbc5f8946	-0.013643568
91	0xbc18e344	-0.009331528
92	0x3c72d163	0.0148204295
93	0xbe41d648	-0.18929398
94	0xbd238cc0	-0.03992915
95	0xbcc29b97	-0.023755832
96	0xbda17aa5	-0.07884721
97	0xbcdb5d3a	-0.026777852
98	0x3d790a28	0.0608007
99	0xbe2b61f3	-0.16736583
100	0xbd667611	-0.05626494
101	0xbc4e49e8	-0.012590863
102	0x3c2fb465	0.010724162
103	0xbd917ce6	-0.071039006
104	0xbd23ecbc	-0.04002069
105	0xbe393b70	-0.1808908
106	0xbd0aea52	-0.03391487
107	0xbd712a95	-0.0588785
108	0xbe2f1309	-0.17097105
109	0x3c593938	0.013258271
110	0xbd507235	-0.050890166
111	0x3d383316	0.044970594
112	0x3c54b3f7	0.01298236
113	0x3d2a6932	0.04160423
114	0x3c47b474	0.0121890195
115	0x3d557995	0.052117903
116	0xbdbf65e9	-0.0934561
117	0xbd3bce6a	-0.04585115
118	0x3d358a81	0.04432154
119	0x3dd336f6	0.10313217
120	0x3dcb5c48	0.099297106
121	0xbdb05278	-0.0860948
122	0xbd6230a4	-0.05522217
123	0xbce14874	-0.027500369
124	0xbdd525a4	-0.1040757
125	0xbd840abb	-0.06447359
126	0xbe187473	-0.14888172
127	0x3c95692f	0.018238632
128	0xbd80508c	-0.06265363
129	0xbde3a562	-0.11115529
130	0x3df04b03	0.11733057
131	0xbd23848e	-0.039921336
132	0xbdc7e93d	-0.097612835
133	0x3d5ab6f3	0.05339713
134	0xbe057af0	-0.13035178
135	0xbd306141	-0.0430615
136	0x3d008322	0.031375058
137	0xbbe9a235	-0.0071299323
138	0xbe034854	-0.1282056
139	0x3d702bd3	0.058635544
140	0x3d21747a	0.03941772
141	0xbe223b21	-0.15842868
142	0xbc849a4b	-0.016186854
143	0xbd1cc276	-0.03827139
144	0xbd937b5a	-0.07201262
145	0x3c88249f	0.016619025
146	0xbd40d064	-0.047073737
147	0xbcceffea	-0.025268514
148	0xbdbd5934	-0.0924553
149	0xbd3c58f4	-0.04598327
150	0xbdc67362	-0.09689976
151	0xbd122ad4	-0.035685375
152	0xbd095af7	-0.033534016
153	0xbbd8705a	-0.00660519
154	0xbd512fb0	-0.05107087
155	0x3d1339b6	0.03594371
156	0xbcffaa1b	-0.031209042
157	0xbd4fd949	-0.05074433
158	0xbd4b461d	-0.049627412
159	0xbd22feec	-0.039793894
160	0xbdf368f7	-0.11885255
161	0x3c9f51e2	0.019448224
162	0xbe066f96	-0.13128504
163	0xbd4198a9	-0.04726473
164	0xbda8dc20	-0.082451105
165	0xbdd5f28a	-0.10446651
166	0xbcddeea2	-0.027091328
167	0xbde1ef6b	-0.110319935
168	0xbdf7a1bf	-0.120913975
169	0x3c3d38d9	0.011549198
170	0xbe0f048a	-0.13966575
171	0x3d4dc5ff	0.050237652
172	0xbd943270	-0.07236183
173	0xbd9955d0	-0.074870706
174	0x3d895776	0.06706135
175	0xbdfce3a4	-0.123481065
176	0xbcc1147f	-0.023569344
177	0xbe02cc58	-0.12773263
178	0x3ad7ae94	0.0016455227
179	0xbdeb5100	-0.11490059
180	0x3d8fe574	0.070261866
181	0xbc86a74f	-0.0164372
182	0xbe3f2a36	-0.18668446
183	0xbc28c4c7	-0.010300822
184	0xbe4c38aa	-0.1994349
185	0x3d88610d	0.06659136
186	0xbe2b82e9	-0.16749157
187	0x398486e1	0.00025277495
188	0xbd548280	-0.051882267
189	0xbda06cda	-0.07833262
190	0x3c716d03	0.014735463
191	0x3cc5bce2	0.024137918
192	0xbda1cfe4	-0.0790098
193	0xbda57689	-0.080792494
194	0xbd4929f7	-0.049112286
195	0x3b433d16	0.0029791049
196	0xbb92d269	-0.0044806493
197	0xbca496b4	-0.020091392
198	0xbdebfce7	-0.11522847
199	0xbe4fa884	-0.20279127
200	0xbdff4977	-0.12465184
201	0x3c4fa028	0.012672462
202	0x3d32350a	0.043507613
203	0xbcecda5b	-0.028912714
204	0xbdab013a	-0.08349843
205	0xbd909549	-0.07059724
206	0xbd0b167c	-0.03395699
207	0xbcd34502	-0.025789741
208	0xbc87cd5a	-0.016577411
209	0x3b8496b5	0.004046286
210	0x3d360618	0.044439405
211	0x3dd8a018	0.105774105
212	0x3b4bb8ef	0.003108557
213	0xbd9ce3c2	-0.07660629
214	0xbbb874bc	-0.00562915
215	0xbc35b3c0	-0.011090219
216	0x3d7983d8	0.06091675
217	0xbdedb9ce	-0.11607705
218	0xbd765f9d	-0.060149778
219	0x3d1ee244	0.038790002
220	0x3d091dc3	0.03347565
221	0x3c142eb6	0.00904434
222	0xbd0b9933	-0.03408165
223	0xbe414aad	-0.18876143
224	0x3ad1a9c1	0.0015996025
225	0xbde926e7	-0.11384373
226	0x3d24a499	0.040196035
227	0x3d9a3114	0.07528892
228	0xbd657c39	-0.05602667
229	0xbdaa033c	-0.08301398
230	0xbd215ebe	-0.039396994
231	0x3d3f01f7	0.046632733
232	0x3c5625bc	0.01307052
233	0x3dcecca9	0.100976296
234	0xbd93149f	-0.071816675
235	0x3d5a6f57	0.05332884
236	0x3d69cec8	0.057081968
237	0xbb9b9f70	-0.004749231
238	0x3d70e62b	0.058813255
239	0xbcf12cc5	-0.029440293
240	0xbd8fc49f	-0.07019924
241	0xbdac5232	-0.08414115
242	0x3dc003d5	0.09375731
243	0xbc8fa004	-0.017532356
244	0x3cbd3ee2	0.023101274
245	0xbe1e7672	-0.15474871
246	0x3bc5c44a	0.0060353624
247	0x3d21291a	0.039345838
248	0xbd0598fc	-0.0326166
249	0xbd00bf84	-0.031432644
250	0xbad6d906	-0.0016391582
251	0x3dd9e415	0.10639206
252	0xbd5bf3e3	-0.053699385
253	0x3be20e49	0.0068986756
254	0xbd0fdd6f	-0.035123285
255	0x3da854fc	0.082193345

trunk.2.weight f4 [256, 256]
0	0xbe702c16	-0.23454317
1	0xbe4d0950	-0.20023084
2	0xbe0d529c	-0.13801044
3	0xbe1d6af3	-0.15372829
4	0xbd9c21d4	-0.0762364
5	0xbd371347	-0.04469612
6	0x3c3d6780	0.011560321
7	0x3d78c266	0.060732268
8	0x3de9255f	0.11384081
9	0xbdfe2f41	-0.12411357
10	0xbe287076	-0.1644915
11	0xbdafe79f	-0.085891
12	0xbcd1f0ee	-0.02562758
13	0xbec3aafb	-0.38216385
14	0xbe07e966	-0.13272628
15	0xbcb266a8	-0.021777466
16	0x3d1e3ea6	0.038633965
17	0x3e38c07f	0.18042181
18	0xbda445ee	-0.080211505
19	0x3d0fd079	0.035110924
20	0xbd21f6b8	-0.03954193
21	0xbccfba01	-0.025357248
22	0x3d5af569	0.053456698
23	0xbcc97977	-0.024594052
24	0x3db1a708	0.08674437
25	0xbd4488d4	-0.047982052
26	0xbb926ff1	-0.004468911
27	0x3b771eb1	0.0037707502
28	0x3ccb4d8d	0.024817253
29	0xbab0ec32	-0.0013498126
30	0x3b165c6a	0.0022943267
31	0xbe6572a8	-0.22407019
32	0xbe32fc38	-0.17479026
33	0x3d88d6c0	0.06681585
34	0x3decb7ae	0.115584716
35	0xbcaf4514	-0.021395244
36	0x3d2690ca	0.040665425
37	0x3c33eee9	0.010982254
38	0xbe1dbd18	-0.15404165
39	0xbe10addf	-0.14128827
40	0x3e8b1d6f	0.27170894
41	0x3e858399	0.26076964
42	0xbd87200a	-0.06597908
43	0xbe550f95	-0.20806725
44	0xbc7656d2	-0.015035348
45	0x3dd06631	0.101757415
46	0xbe12ce71	-0.14336564
47	0xbe41ce2e	-0.18926308
48	0xbd8cc494	-0.06873432
49	0xbe10780f	-0.14108299
50	0xbe310686	-0.17287645
51	0xbe169301	-0.14704515
52	0xbda6b3a0	-0.081397295
53	0x3c586d94	0.013209719
54	0xbd15b8b6	-0.036553107
55	0x3dd7b982	0.1053343
56	0xbe03a4d8	-0.12855852
57	0x3d04e084	0.032440677
58	0xbe55b406	-0.20869455
59	0xbbe85945	-0.00709072
60	0xbe974230	-0.29542685
61	0xbcf17854	-0.029476322
62	0xbdfeede2	-0.12447716
63	0xbe8d48b3	-0.27594528
64	0x3d676e88	0.056501895
65	0xbd04672a	-0.032324947
66	0xbe2674b3	-0.16255455
67	0x3d09fa0d	0.033685733
68	0xbe79687d	-0.24356265
69	0xbe56ef73	-0.2098978
70	0x3c169539	0.009190851
71	0x3c22020a	0.009888181
72	0xbdfe2a72	-0.124104396
73	0xbd4ab967	-0.04949322
74	0x3d426657	0.04746088
75	0xbe008e55	-0.12554295
76	0xbe0ad8d6	-0.13559279
77	0x3bd31964	0.006442236
78	0xbd917081	-0.071015365
79	0xbd64581a	-0.055748083
80	0x3e62fbd2	0.22166374
81	0xbe72e361	-0.2371955
82	0xbe2f9d6e	-0.17149898
83	0x3e045159	0.12921657
84	0xbb650141	-0.0034943374
85	0xbd590b47	-0.05298927
86	0xbe0d928a	-0.13825431
87	0xbdc929f6	-0.098224565
88	0x3d5053f4	0.050861314
89	0x3dac8173	0.08423128
90	0x3cb1caa0	0.021703064
91	0xbcec0a9d	-0.028813655
92	0x3c4bc0b8	0.012436084
93	0xbdcb9dfd	-0.09942243
94	0x3e10c3d6	0.14137205
95	0xbdb8db84	-0.09026244
96	0x3c870364	0.016481109
97	0x3c1faa36	0.009745171
98	0xbe45675b	-0.19277708
99	0xbda14c26	-0.07875852
100	0xbdc3cb70	-0.09560287
101	0xbd5d0d95	-0.05396803
102	0xbdae0cdb	-0.08498546
103	0xbd26f5eb	-0.04076187
104	0xbe5c78f4	-0.21530515
105	0xbda2c6a3	-0.07948043
106	0xbe2bd153	-0.1677907
107	0x3e16e676	0.14736351
108	0xbdabdde8	-0.08391935
109	0xbe612bef	-0.21989416
110	0x3dbdda30	0.092701316
111	0x3cbf11d1	0.023323925
112	0xbdab9ffe	-0.083801255
113	0x3d688bb0	0.05677384
114	0xbde4fe6a	-0.11181338
115	0x3c78a294	0.01517548
116	0xbd1c0eba	-0.03809998
117	0x3da216b0	0.079144835
118	0xbba17d57	-0.0049282718
119	0xbd4d2481	-0.05008364
120	0x3e13a136	0.14416966
121	0xbdb4209f	-0.087952845
122	0xbde44e85	-0.11147789
123	0xba617f4d	-0.0008602038
124	0xbdf231c4	-0.11825898
125	0x3dcfdb83	0.101492904
126	0xbc769042	-0.015049042
127	0x3c8bb7d2	0.017055426
128	0xbd9679f2	-0.07347478
129	0x3b35baeb	0.002772982
130	0xbc1dd888	-0.009634145
131	0xbe9c0478	-0.3047216
132	0xbdb66848	-0.08906609
133	0xbdc229ba	-0.09480615
134	0xbc3ac5ea	-0.011399725
135	0xbdb413c9	-0.08792836
136	0xbd401d15	-0.046902735
137	0xbdd125ef	-0.102123134
138	0x3c445fd1	0.011985735
139	0x3dd69946	0.10478453
140	0xbe177935	-0.1479233
141	0xbdec25ab	-0.11530622
142	0xbdd11bfd	-0.102104165
143	0xbcb62702	-0.022235397
144	0xbde4e0ef	-0.11175715
145	0x3d2c209a	0.04202328
146	0xbc37cc77	-0.011218182
147	0x3dbe9647	0.09306007
148	0xbcba7c1c	-0.022764258
149	0x3e0240a3	0.1271997
150	0xbba9847a	-0.005173263
151	0xbe33b334	-0.1754883
152	0xbd662b44	-0.056193605
153	0x3d6d2a5e	0.057901733
154	0xbdb62318	-0.08893412
155	0xbe2cada8	-0.1686312
156	0xbbc16ffc	-0.005903242
157	0x3d762e93	0.06010301
158	0x3de2df32	0.110777274
159	0x3de743b7	0.112922125
160	0xbe31ad8f	-0.17351364
161	0xbd8b7b71	-0.06810654
162	0xbdcd1444	-0.10013631
163	0x3cdbad49	0.026816027
164	0x3dbf6583	0.09345534
165	0x3d530d33	0.05152626
166	0xbe503fa9	-0.20336784
167	0xbd275934	-0.040856555
168	0xbe194668	-0.14968264
169	0xbe8ba9f8	-0.27278113
170	0x3db19412	0.0867082
171	0x3dbed3d9	0.093177505
172	0x3ca9668e	0.020678785
173	0xbd0628fa	-0.032753922
174	0x3d51962c	0.051168606
175	0xbd763323	-0.06010736
176	0x3d78af10	0.060713828
177	0xbd50447c	-0.05084656
178	0x3e16f84b	0.14743154
179	0x3c4d85db	0.012544121
180	0xbdf2f991	-0.11864007
181	0xbd26bd75	-0.040708024
182	0xbe1359a2	-0.14389661
183	0xbe316eac	-0.17327374
184	0xbe2294f3	-0.15877132
185	0x3d82d33e	0.063879475
186	0x3c9c6237	0.019089801
187	0xbcd8dc96	-0.026472371
188	0x3d0ace2e	0.033888035
189	0x3d51455f	0.051091548
190	0xbe9841bb	-0.29737648
191	0x3e03df65	0.12878187
192	0xbc735aa7	-0.014853156
193	0xbce1edb8	-0.027579173
194	0xbce81797	-0.028331561
195	0x3c6bff48	0.0144041255
196	0xbe36ccae	-0.17851517
197	0x3db0245a	0.086006835
198	0xbdbc8757	-0.092055015
199	0xbe276c0d	-0.16349812
200	0x3cb187bd	0.02167117
201	0x3d38b4e4	0.045094386
202	0x3d41f6ce	0.047354512
203	0xbe2fb97a	-0.17160597
204	0x3d6dbd73	0.058042
205	0xbe0bdbee	-0.13658115
206	0x3d5e79d3	0.0543154
207	0xbd8619fb	-0.06547924
208	0x3d2cfb4c	0.042231843
209	0x3debdd15	0.115167774
210	0xbc9f949f	-0.019480048
211	0xbdfe328c	-0.12411985
212	0x3d0e86a0	0.034796357
213	0xbc7141f0	-0.014725193
214	0xbed94a1d	-0.42439356
215	0x3c3c3ff7	0.01148986
216	0xbc9ce51f	-0.019152222
217	0xbe23db4f	-0.16001628
218	0x3ce9f288	0.02855803
219	0x3d6a8dc4	0.057264104
220	0xbdf1666b	-0.11787113
221	0x3c222947	0.009897537
222	0xbd4308a2	-0.047615655
223	0xbe4e8b94	-0.20170432
224	0x38667d48	5.495295e-05
225	0xbd8d330d	-0.06894503
226	0xbe0c1885	-0.13681228
227	0x3d07dba6	0.033168457
228	0xbd4e436c	-0.050357267
229	0xbbbc7cca	-0.0057521807
230	0x3dde510f	0.108553044
231	0xbd4287e9	-0.047492895
232	0xbd4f8f61	-0.050673846
233	0xbc6e24b1	-0.014535115
234	0xbca57556	-0.020197552
235	0xbdaa703a	-0.08322187
236	0xbe1afd4a	-0.15135685
237	0xbd9357b8	-0.071944654
238	0xbe4a55e2	-0.19759324
239	0xbce724a2	-0.02821571
240	0xbbdf2d72	-0.0068108374
241	0x3d3140f1	0.043274824
242	0xbde91a9b	-0.11382028
243	0xbd99ac07	-0.07503515
244	0xbbc6b3ed	-0.0060639293
245	0xbd6e6194	-0.058198527
246	0xbe0c32d5	-0.13691266
247	0xbaa13cef	-0.0012301485
248	0x3cb11e01	0.021620752
249	0xbe74212a	-0.23840776
250	0x3ce3e2cb	0.027818104
251	0xbccd3782	-0.025050882
252	0xbc9f8eb6	-0.01947723
253	0xbdaf314c	-0.085543245
254	0xbe6c0896	-0.2305015
255	0xbd0ae9e0	-0.033914447

trunk.2.bias f4 [256]
0	0x3c828868	0.015934184
1	0xbd0fc46b	-0.03509943
2	0xbdbf2016	-0.09332292
3	0xbd9e2df6	-0.0772361
4	0xbc3138ee	-0.010816796
5	0xbd4da3b3	-0.050204944
6	0xbd9baa58	-0.0760085
7	0x3da4a7c7	0.080398135
8	0x3dfd7bed	0.123771526
9	0xbccc47ae	-0.024936523
10	0xbe005f8b	-0.12536447
11	0xbda82127	-0.08209448
12	0xbe07b9b5	-0.13254435
13	0x3d5c9df8	0.05386159
14	0x3e190f7a	0.1494731
15	0xbcfa21ab	-0.030533632
16	0x3d31e528	0.04343143
17	0x3d81c330	0.06336057
18	0x3e12b564	0.14327008
19	0xbde2dae6	-0.11076908
20	0xbcaa4cdb	-0.0207886
21	0x3db62b2c	0.08894953
22	0x3d81ec31	0.06343878
23	0xbdcee08f	-0.10101425
24	0xbea7b853	-0.32757816
25	0xbe75e828	-0.24014342
26	0x3d844685	0.06458763
27	0xbe94330d	-0.289452
28	0xbec71c54	-0.388888
29	0xbc462bb2	-0.012095379
30	0xbeaac2d9	-0.33351782
31	0xbc36f4ea	-0.0111667905
32	0xbd041e3b	-0.032255393
33	0x3e05b899	0.130587
34	0xbe8f1942	-0.27948958
35	0xbe0545a0	-0.13014841
36	0xbd8fbe6f	-0.07018744
37	0x3dbe73e7	0.0929945
38	0xbc473de5	-0.012160753
39	0x3d75553b	0.059895735
40	0xbe735524	-0.23762947
41	0x3d881de8	0.06646329
42	0xbea7b2dc	-0.32753646
43	0xbd7a79a5	-0.061151166
44	0x3dd6e3bc	0.10492656
45	0xbc996b22	-0.018727843
46	0x3d9d27ce	0.07673608
47	0xbe7126d5	-0.2354997
48	0xbbe20950	-0.006898083
49	0xbdc4578e	-0.09587012
50	0xbdfd6ece	-0.1237465
51	0xbd23c86f	-0.03998607
52	0xbc4289ed	-0.011873704
53	0x3c6bedad	0.014399928
54	0xbea288ea	-0.31745082
55	0xbd917577	-0.07102483
56	0xbca2c689	-0.01987006
57	0xbd8260ec	-0.06366143
58	0xbc3a8c06	-0.011385923
59	0xbeb54327	-0.35402796
60	0x3cce0477	0.025148613
61	0x3ca40279	0.02002071
62	0x3d50c74f	0.050971325
63	0xbefd9c1f	-0.49533173
64	0xbc9e45a3	-0.019320315
65	0xbbc042ca	-0.005867337
66	0xbcfcbb2c	-0.03085097
67	0x3d04b085	0.032394905
68	0xbcfb688b	-0.030689498
69	0x3c72c502	0.014817478
70	0x3cd25594	0.025675572
71	0xbd0589de	-0.032602184
72	0xbede5e94	-0.43431532
73	0xbc09c10f	-0.008407845
74	0xbcf35c6e	-0.02970716
75	0xbb09be0d	-0.002101782
76	0xbed67b11	-0.41890767
77	0xbe94697d	-0.2898673
78	0xbd9e959d	-0.0774338
79	0xbd829bbe	-0.06377362
80	0xbd4b4eb7	-0.049635615
81	0xbd89e0dd	-0.067323424
82	0xbed9c2c4	-0.42531407
83	0x3d608258	0.054811805
84	0xbe2a6c34	-0.16642839
85	0xbee7eb5e	-0.45296758
86	0xbe8b3d21	-0.27195075
87	0x3e161097	0.14654766
88	0x3d50ae3c	0.050947413
89	0x3d515347	0.05110481
90	0xbe87f46d	-0.2655367
91	0x3c2c432c	0.010514062
92	0x3c9e74d2	0.019342814
93	0x3db85922	0.09001376
94	0x3da072e6	0.07834415
95	0xbeb8e36a	-0.36111003
96	0xbe352af2	-0.17692164
97	0x3ab9f6c1	0.0014187918
98	0xbd59c952	-0.05317051
99	0xbd26220b	-0.04055981
100	0xbe31c1e1	-0.17359115
101	0xbd43b054	-0.04777558
102	0xbc556593	-0.013024705
103	0x3dc43b38	0.095816076
104	0xbd22f5e4	-0.03978528
105	0xbd7a7044	-0.06114222
106	0xbb7d00d5	-0.0038605232
107	0xbefec551	-0.49759915
108	0xbeb77584	-0.35831845
109	0x3d55c903	0.052193653
110	0x3e1527db	0.14565985
111	0x3d800a5c	0.06251976
112	0xbdc56cad	-0.09639869
113	0xbde48ce4	-0.11159685
114	0x3da10dde	0.07863973
115	0x3c5f6bbc	0.013636526
116	0xbeb82b27	-0.35970423
117	0xbc5c777d	-0.013456223
118	0xbec1e9db	-0.3787373
119	0x3d656437	0.056003775
120	0xbe59e15d	-0.21277376
121	0xbe473939	-0.19455422
122	0xbd7e0d85	-0.062024612
123	0xbe945574	-0.28971446
124	0xbe0bbc82	-0.13646129
125	0x3c865712	0.01639894
126	0xbcde34b2	-0.027124736
127	0xbdee7adb	-0.116445266
128	0xbe03a213	-0.12854795
129	0xbd8c730d	-0.06857882
130	0xbe147b62	-0.14500192
131	0x3b509365	0.0031826135
132	0xbd3471f3	-0.044053983
133	0x3ca95c5d	0.020673925
134	0x3bf1cc6e	0.0073791062
135	0xbc9d49bf	-0.019200204
136	0xbe0f31d2	-0.13983849
137	0xbe59b470	-0.21260238
138	0xbef807ae	-0.4844336
139	0xbd8eecf1	-0.06978787
140	0xbd04e32a	-0.032443203
141	0x3da9a8f9	0.08284182
142	0xbec5c127	-0.38623926
143	0x3dbb0fe5	0.09133891
144	0xbec491d1	-0.383925
145	0xbcbbd464	-0.022928424
146	0xbec22192	-0.37916237
147	0x3dc0ba58	0.09410542
148	0xbeaffeaf	-0.34373996
149	0xbe785430	-0.24250865
150	0xbe9a309e	-0.30115217
151	0xbd284d46	-0.04108932
152	0x3d91b6f9	0.071149774
153	0xbeb40bf3	-0.35165367
154	0x3e0dd3a8	0.13850272
155	0xbe7d7864	-0.24752957
156	0x3d9b7567	0.07590752
157	0xbd73a788	-0.059485942
158	0xbe862bf2	-0.26205403
159	0xbdb42d42	-0.08797695
160	0x3c0c0989	0.008547195
161	0xbe831c3d	-0.25607482
162	0x3ce74a0e	0.028233554
163	0xbd1017ee	-0.03517907
164	0xbd2a315f	-0.04155099
165	0xbe8887cf	-0.26666114
166	0xbddec66d	-0.108776905
167	0xbddec889	-0.10878093
168	0xbe6186ca	-0.22024074
169	0x3c877f72	0.016540263
170	0x3e4cce16	0.2000049
171	0xbd22c7a7	-0.039741185
172	0x3d106ef5	0.035262067
173	0x3c8851ea	0.016640622
174	0xbc56a9d4	-0.013102014
175	0xbd0925b1	-0.03348321
176	0xbcf8d75b	-0.030376127
177	0xbcf344d9	-0.029695915
178	0x3dbf8d65	0.09353141
179	0xbea766df	-0.32695672
180	0xbe73c5e1	-0.23805954
181	0xbd0fd596	-0.0351158
182	0x3c136ab0	0.008997604
183	0xbe8c84d4	-0.2744509
184	0x3ba2849f	0.0049596573
185	0xbd26a986	-0.040689014
186	0x3cf178c1	0.029476525
187	0x3d5d04ca	0.053959645
188	0xbe0f952d	-0.1402175
189	0xbcb15440	-0.021646619
190	0xbc9b11e7	-0.018929435
191	0xbe044b0c	-0.12919253
192	0xbd25f40d	-0.040515948
193	0xbe1ed280	-0.15509987
194	0xbe974fd9	-0.29553106
195	0xbc8caeec	-0.017173253
196	0xbcbecfcf	-0.02329245
197	0xbca1099e	-0.019657906
198	0x3c1c64cb	0.009545515
199	0xbc800f19	-0.0156322
200	0xbe98ff67	-0.29882357
201	0x3df33c5a	0.118767455
202	0xbef29f27	-0.4738705
203	0xbb920491	-0.0044561108
204	0xbeb09f95	-0.3449675
205	0xbcd7e822	-0.026355807
206	0xbe085140	-0.13312244
207	0xbc3e5c2f	-0.011618658
208	0xbe0f3f1c	-0.13988918
209	0xbdbc14ed	-0.09183679
210	0xbd11bc61	-0.035580043
211	0x3d15089c	0.036385164
212	0x3ddbe3d8	0.10736817
213	0xbd1185b5	-0.035527904
214	0xbcef8c36	-0.029241662
215	0xbc051775	-0.008123268
216	0x3dec9c2b	0.11553224
217	0xbd43feb9	-0.047850344
218	0xbe1c0ee8	-0.15240061
219	0xbeff9ffc	-0.49926746
220	0x3df378cd	0.11888275
221	0xbed57593	-0.41691265
222	0xbe1812ca	-0.14850917
223	0xbc8cc0d2	-0.017181788
224	0xbe0610ff	-0.13092421
225	0xbdb11692	-0.08646883
226	0xbe0137cf	-0.12618946
227	0xbe25eb60	-0.1620307
228	0x3df3b84e	0.11900388
229	0xbd44914e	-0.047990136
230	0xbdd98711	-0.10621465
231	0xbe120f85	-0.14263733
232	0xbd125ad3	-0.035731148
233	0xbcee6123	-0.029099053
234	0xbdb777a4	-0.089583665
235	0x3d335505	0.043782253
236	0xbdddea48	-0.10835701
237	0xbc613ab9	-0.013746911
238	0xbcdf8a62	-0.027287666
239	0xbcf21ca1	-0.029554667
240	0xbce44382	-0.027864221
241	0xbe9c2d2b	-0.3050321
242	0xbdc968bd	-0.0983443
243	0xbd3eda7d	-0.046595085
244	0x3b308c69	0.002693916
245	0xbe264f24	-0.16241127
246	0x3d80e6ed	0.062940456
247	0xbdec5bbe	-0.11540936
248	0xbe94e792	-0.29082924
249	0xbd5ad10c	-0.05342202
250	0x3df2d6fe	0.11857413
251	0x3e295748	0.16537201
252	0xbe18b8d0	-0.1491425
253	0xbddad71f	-0.10685562
254	0xbd8b2c9c	-0.06795618
255	0x3d74e0ed	0.05978482

trunk.4.weight f4 [256, 256]
0	0xbc900fdc	-0.017585687
1	0x3ebb1af2	0.36543995
2	0xbd776275	-0.06039663
3	0xbde88bf5	-0.1135482
4	0xbca55c8e	-0.020185735
5	0x3e023ff9	0.12719716
6	0xbe29cf57	-0.16583
7	0x3bde9b67	0.0067934277
8	0x3e9cd8b3	0.30634078
9	0xbe615e22	-0.22008565
10	0xbe7120f9	-0.23547734
11	0xbaff51c8	-0.0019479329
12	0xbba2ef90	-0.0049724057
13	0xbec7e9f2	-0.39045674
14	0x3da25e48	0.07928139
15	0xbd1c5f42	-0.038176782
16	0xbd9802ca	-0.07422407
17	0xbdebb1ce	-0.11508523
18	0xbe893640	-0.26799202
19	0xbdf4a86b	-0.11946186
20	0x3d0a46a9	0.033758793
21	0x3d39898b	0.045297187
22	0x3c460c9f	0.01208797
23	0xbdcd4151	-0.10022224
24	0xbe00a22c	-0.12561864
25	0x3c6a08bb	0.014284308
26	0xbe0d9a87	-0.13828479
27	0x3f043d9a	0.51656497
28	0xbef02e41	-0.4691029
29	0x3d51bbd1	0.051204506
30	0x3e198cac	0.14995068
31	0x3e730fc0	0.23736477
32	0x3d317bbe	0.0433309
33	0x3d50a3c3	0.050937425
34	0xbc2f0682	-0.010682704
35	0x3a6493c7	0.00087195303
36	0x3e7cdcc7	0.24693595
37	0xbeef19b3	-0.46699294
38	0x3d56c63b	0.05243514
39	0xbd203ebd	-0.039122332
40	0xbd240068	-0.04003945
41	0xbd8463b8	-0.06464332
42	0x3a6ebdd6	0.0009107267
43	0xbcba27bf	-0.02272403
44	0xbe7118fc	-0.23544687
45	0xbe1df7c5	-0.15426548
46	0x3e2d5fa9	0.16931023
47	0xbcd74e45	-0.026282439
48	0x3d891813	0.06694045
49	0x3d05dbfb	0.032680493
50	0x3d9d6ebd	0.07687137
51	0x3e1d24d9	0.15346088
52	0xbd9a7e2e	-0.07543598
53	0xbeb1a724	-0.3469783
54	0xbd13439f	-0.03595316
55	0xbd221ef1	-0.03958029
56	0x3da5e33b	0.080999814
57	0xbdbc75fe	-0.09202193
58	0x3d4804c6	0.048832677
59	0x399c7ff1	0.00029849962
60	0xbe2ec6a0	-0.17067957
61	0xbed8da79	-0.4235418
62	0xbe122903	-0.14273457
63	0xbe66e0fb	-0.2254676
64	0xbdbf1de3	-0.09331872
65	0x3e0a069e	0.13479087
66	0xbe804e98	-0.25059962
67	0x3e0db2c1	0.1383772
68	0x3c8bfad9	0.017087387
69	0x3d332d5d	0.043744434
70	0xbd81682e	-0.06318699
71	0x3de0c3bb	0.109748326
72	0xbef82c78	-0.48471427
73	0xbe3b2a93	-0.1827796
74	0x3da68aed	0.08131967
75	0x3d0176e6	0.03160753
76	0xbf2bb8fc	-0.6707914
77	0x3e5a7eeb	0.21337478
78	0xbef4c192	-0.47803932
79	0xbd74f3b3	-0.059802722
80	0x3e61ae02	0.22039035
81	0x3d2612e2	0.04054535
82	0xbeed213e	-0.46314424
83	0x3d0177cf	0.0316084
84	0x3df44603	0.11927416
85	0x3d0449a0	0.032296777
86	0xbe8e3de6	-0.277816
87	0x3daa323c	0.08310363
88	0x3df8b390	0.12143624
89	0xbe8ebc87	-0.2787821
90	0x3aab014f	0.0013046655
91	0xbe97919f	-0.29603288
92	0x3dbb6455	0.09149996
93	0xbd1f5f6d	-0.038909364
94	0xbd6a957b	-0.057271462
95	0xbe082fcd	-0.13299485
96	0xbe954388	-0.29153085
97	0x3e167c03	0.14695744
98	0xbe210050	-0.15722775
99	0x3e0e8e1c	0.13921398
100	0x3e264659	0.16237773
101	0xbe975a8a	-0.29561263
102	0xbdc4705a	-0.09591742
103	0xbe3ddcce	-0.18541262
104	0xbe05c39e	-0.13062903
105	0xbc87d15b	-0.01657932
106	0x3df59c7e	0.11992739
107	0x3cb1efdf	0.021720825
108	0x3e895276	0.26820725
109	0xbe1f6d51	-0.15569045
110	0xbe5e1a38	-0.21689689
111	0x3ec99e42	0.39378554
112	0x3d258555	0.04041036
113	0xbd950936	-0.072771475
114	0x3e391442	0.18074134
115	0xbc56c4b1	-0.013108418
116	0x3dee140e	0.11624919
117	0x3c608494	0.013703484
118	0xbe827e55	-0.2548701
119	0x3dd9ae6d	0.10628972
120	0xbca8ba34	-0.020596601
121	0xbe699082	-0.22809032
122	0x3def6634	0.116894156
123	0xbdd7abe6	-0.10530834
124	0x3dd771b2	0.105197325
125	0xbb8b51a2	-0.0042516747
126	0x3b9f2855	0.004857103
127	0x3ecbe203	0.3982087
128	0x3bce8a0f	0.006303079
129	0xbd2b0c31	-0.041759674
130	0x3e3af1f4	0.1825636
131	0xbd8acbc8	-0.067771494
132	0x3cf45acb	0.02982845
133	0xbdc029a0	-0.09382939
134	0x3e1a7f06	0.15087518
135	0xbd8647d0	-0.06556666
136	0xbd90f875	-0.070786394
137	0x3c6288ba	0.013826543
138	0xbe39b6f1	-0.18136193
139	0x3d7e33a1	0.062060956
140	0x3c3f083f	0.011659681
141	0x3e0f8ff1	0.14019753
142	0xbec16857	-0.37774917
143	0x3e6a5f61	0.22887947
144	0x3d22337c	0.03959988
145	0xbe07e6da	-0.13271657
146	0x3c8c1e5f	0.017104326
147	0xbeb999ee	-0.36250252
148	0x3d63942f	0.05556124
149	0x3df243e3	0.118293546
150	0xbd518e24	-0.051160946
151	0x3dee0c52	0.11623444
152	0xbd035265	-0.032061
153	0xbf0561b2	-0.52102196
154	0x3db386e8	0.08765966
155	0xbc869a17	-0.016430898
156	0xbe430d71	-0.19048096
157	0xbe2191c3	-0.1577826
158	0xbe40f623	-0.18843894
159	0xbf38ac66	-0.7213806
160	0xbe168f42	-0.14703086
161	0xbe543585	-0.20723541
162	0xbde481bc	-0.11157557
163	0xbe0281e6	-0.12744865
164	0x3de80ad8	0.11330193
165	0xbd9aaac6	-0.07552104
166	0xbe6cdffc	-0.23132318
167	0xbe21118c	-0.1572935
168	0xbd4cbbb3	-0.04998369
169	0x3e0d132c	0.13776845
170	0xbe579036	-0.21051106
171	0x3d7f2c70	0.06229824
172	0xbe92a4dc	-0.28641403
173	0xbeec0cd4	-0.46103537
174	0x3cd5d921	0.026104512
175	0x3d989636	0.074505255
176	0x3e5634c7	0.2091857
177	0x3c85370c	0.0162616
178	0x3d2e8fa7	0.042617466
179	0x3e75428a	0.23951164
180	0x3e059ee0	0.13048887
181	0xbd9b5a42	-0.07585575
182	0x3e59e39c	0.21278232
183	0xbdfacb43	-0.122458
184	0xbe9e3f84	-0.30907834
185	0x3dad8564	0.08472708
186	0x3d95963d	0.07304046
187	0xbd159779	-0.03652141
188	0xbd5e9fbd	-0.054351557
189	0xbd62ef5c	-0.055404052
190	0xbe14814a	-0.14502445
191	0x3dd8b0e3	0.105806135
192	0x3d3abbb7	0.045589175
193	0x3d290acb	0.04127006
194	0x3ebe040a	0.37112457
195	0xbd09d8f3	-0.033654165
196	0xbc70d554	-0.014699299
197	0x3ede477e	0.4341392
198	0xbd91e2a9	-0.0712331
199	0xbe89ce1b	-0.26915058
200	0xbe85f864	-0.2616607
201	0x3edc21db	0.4299458
202	0xbea52920	-0.32257938
203	0xbb25c4b9	-0.0025294258
204	0x3ce2838a	0.027650613
205	0x3d06f06f	0.03294414
206	0xbeb469e5	-0.3523704
207	0xbe026e7e	-0.12737462
208	0xbe4bd064	-0.19903713
209	0x3ddc0246	0.10742621
210	0x3cc264ce	0.023729708
211	0xbe778cfe	-0.24174878
212	0x3ce60623	0.028079098
213	0xbd7fb7dd	-0.062431205
214	0x3cd85cf4	0.026411511
215	0x3e2cc610	0.1687243
216	0xbec9d5c8	-0.39420915
217	0x3e526c29	0.20549072
218	0xbde04f85	-0.10952667
219	0xbe96f341	-0.29482463
220	0xbe84113e	-0.25794405
221	0x3c9cea9d	0.019154841
222	0xbea9bcd9	-0.33151892
223	0x3e77a36c	0.24183434
224	0x3d974dd9	0.07387895
225	0xbe974aad	-0.2954916
226	0x3cb42a1a	0.021992732
227	0xbd983cb1	-0.07433451
228	0xbef2517d	-0.47327796
229	0xbe6fbb30	-0.2341125
230	0x3e18b0a5	0.14911135
231	0x3d980c65	0.07424239
232	0xbeb6aaab	-0.35677084
233	0x3dafb7cd	0.08579979
234	0xba8f7d00	-0.0010947287
235	0xbe0c5477	-0.13704096
236	0x3dcd4d8c	0.100245565
237	0xbe3f02c1	-0.18653394
238	0xbe0eadb5	-0.13933451
239	0xbd2d2342	-0.042269953
240	0xbd90c55b	-0.070688926
241	0x3e6e5ab0	0.23276782
242	0xbd11147e	-0.035419933
243	0xbdcc639a	-0.09979935
244	0x3b735bed	0.003713365
245	0xbe989194	-0.29798567
246	0xbe4af73d	-0.19820876
247	0x3e42b296	0.19013438
248	0xbf0a249b	-0.53962106
249	0x3dac9359	0.08426542
250	0x3f1efa78	0.62100935
251	0xbab73cef	-0.0013979952
252	0x3dfca2d4	0.123357445
253	0xbda293af	-0.07938325
254	0x3e969de7	0.29417345
255	0xbddca85e	-0.10774301

trunk.4.bias f4 [256]
0	0xbe34699c	-0.17618412
1	0xbdc26026	-0.09490995
2	0x3e283ca9	0.1642939
3	0xbd0febe6	-0.03513708
4	0xbeda54a8	-0.42642713
5	0xbeb5154e	-0.35367817
6	0xbd6ddbf9	-0.05807111
7	0xbd923e5f	-0.071408026
8	0xbe6aceca	-0.22930446
9	0xbecbac25	-0.39779773
10	0xbd217cac	-0.039425537
11	0xbe57d074	-0.21075612
12	0x3c903cab	0.017607054
13	0xbd45b9c6	-0.04827287
14	0xbd25a403	-0.040439617
15	0xbde2cf37	-0.11074679
16	0x3ca71d13	0.020399606
17	0xbe99f193	-0.3006712
18	0xbbfa5d63	-0.007640527
19	0xbe3ac3cd	-0.18238755
20	0xbbc17544	-0.0059038717
21	0xbe475b20	-0.19468355
22	0xbd750fa9	-0.059829388
23	0xbc3e71fe	-0.011623858
24	0xbdbc62e8	-0.09198552
25	0xbef23927	-0.4730923
26	0xbf65f1cd	-0.89822084
27	0xbe71e216	-0.23621401
28	0xbd56d32f	-0.052447494
29	0xbe39863c	-0.18117613
30	0xbd8a6ab8	-0.06758636
31	0x3ca8a798	0.020587727
32	0xbeac5e56	-0.33665723
33	0x3d06403e	0.03277611
34	0xbe21855e	-0.15773532
35	0xbe2cf2d0	-0.168895
36	0xbde07cf2	-0.109613314
37	0xbe0ff169	-0.14056934
38	0xbf0aa2c3	-0.54154605
39	0xbe5859fe	-0.2112808
40	0xbe773941	-0.24142934
41	0xbe0fdf5b	-0.14050047
42	0x3d512d4b	0.051068585
43	0xbe6008ad	-0.2187831
44	0x3cccba70	0.024991244
45	0xbeb2d865	-0.3493072
46	0x3dc6be54	0.09704271
47	0x3d090695	0.033453543
48	0x3dacf6b2	0.08445491
49	0x3d30e7a8	0.043189675
50	0xbd333deb	-0.04376022
51	0xbd4e2fe0	-0.050338626
52	0xbeba7a21	-0.36421302
53	0xbe01fc0e	-0.12693807
54	0xbf02a4b6	-0.5103258
55	0xbe168ecc	-0.1470291
56	0xbdaa49fa	-0.08314891
57	0xbca70ed6	-0.020392817
58	0xbebaed9e	-0.36509413
59	0x3d1fb555	0.03899129
60	0xbf3edb3e	-0.7455329
61	0xbe9d631a	-0.3073967
62	0xbcf8ad2a	-0.030356009
63	0xbda32e09	-0.07967765
64	0xbd4a5cf7	-0.049405064
65	0xbe813331	-0.25234368
66	0xbe234d6c	-0.15947503
67	0xbd2e5514	-0.042561606
68	0xbe87a11d	-0.26490107
69	0xbeb04dd3	-0.34434375
70	0xbec4267d	-0.38310614
71	0x3c8bf02d	0.017082298
72	0xbd65f5cd	-0.056142617
73	0xbe260c15	-0.16215546
74	0xbe23b4eb	-0.15986983
75	0xbd181032	-0.03712482
76	0xbddbef99	-0.10739059
77	0xbd496cb3	-0.04917593
78	0xbd8c45ff	-0.06849288
79	0xbd971ccf	-0.07378542
80	0xbd486ec7	-0.04893377
81	0xbda90d22	-0.08254458
82	0x3c6df668	0.01452408
83	0xbca7157b	-0.020395985
84	0x3b0b0ec9	0.002121853
85	0x39c2c123	0.00037146462
86	0xbe2c3723	-0.16817908
87	0x3e14caae	0.14530441
88	0xbe444b51	-0.19169356
89	0xbe3f2e81	-0.18670084
90	0xbdd568cb	-0.10420378
91	0xbd03836a	-0.032107748
92	0xbe0d5d48	-0.13805115
93	0xbd83ae3d	-0.06429718
94	0x3bba267f	0.0056808586
95	0xbd8ee5c1	-0.06977416
96	0xbef17911	-0.4716268
97	0x3d4c1703	0.049826633
98	0xbd955610	-0.07291806
99	0xbe29abdf	-0.1656947
100	0xb9e46784	-0.00043564674
101	0xbddbbfc1	-0.107299335
102	0xbd90407e	-0.07043551
103	0xbede1b34	-0.4338013
104	0xbe4d737d	-0.20063587
105	0xbd8864e6	-0.0665987
106	0xbd9cdcee	-0.076593265
107	0xbe5c27b4	-0.2149952
108	0xbe898a3d	-0.2686328
109	0xbd2ae537	-0.041722503
110	0xbdb1c66e	-0.086804256
111	0xbe4dd3f9	-0.20100392
112	0xbe7e4a74	-0.24833089
113	0x3ce7e58c	0.028307699
114	0xbeb7d189	-0.3590205
115	0xbcaf4443	-0.021394854
116	0xbe658c2d	-0.22416754
117	0xbe7a1433	-0.24421768
118	0xbf0f4ae0	-0.55973625
119	0x3d650217	0.055910196
120	0x3ccce6a3	0.02501232
121	0xbe4362fb	-0.19080727
122	0x3b3343ed	0.002735372
123	0x3d2c313d	0.042039145
124	0xbe16d504	-0.14729697
125	0xbe014fca	-0.12628093
126	0xbcbddc4a	-0.023176331
127	0x3d11b4c2	0.035572775
128	0xbe3fb0bf	-0.18719767
129	0xbd26c04a	-0.040710725
130	0xbd47b210	-0.048753798
131	0xbf1b1d23	-0.60591334
132	0xbded99de	-0.116016135
133	0x3d85c9fa	0.065326646
134	0xbe8d0aed	-0.27547398
135	0x3da5fdea	0.08105071
136	0xbdcc44be	-0.09974049
137	0xbd1c2b23	-0.038127076
138	0xbc7f626d	-0.015587431
139	0xbe793f3e	-0.24340531
140	0xbda265b0	-0.079295516
141	0xbe97d7d2	-0.29656845
142	0x3d0f43ca	0.034976758
143	0xbdec732c	-0.11545405
144	0xbdc731ab	-0.0972627
145	0xbd4d78d0	-0.050164044
146	0xbdcdf8c6	-0.100572154
147	0xbe36d371	-0.17854096
148	0xbd60cc3a	-0.054882266
149	0xbef50b3f	-0.47860143
150	0xbe676162	-0.22595742
151	0xbd11dccc	-0.03561096
152	0xbe9a6df1	-0.30162004
153	0xbd73f082	-0.059555538
154	0xbe1137df	-0.1418147
155	0x3cdbe247	0.026841296
156	0xbcd3b385	-0.025842438
157	0xbe4f68fe	-0.20254895
158	0xbd60294e	-0.05472689
159	0x3dc9abf4	0.098472506
160	0xbd580459	-0.05273852
161	0xbeea0583	-0.4570733
162	0xbe3b9ebf	-0.18322276
163	0xbdaf564f	-0.08561384
164	0xbf2d9d4f	-0.6781816
165	0x3e0c3fff	0.13696288
166	0xbe19118f	-0.14948104
167	0xbe42f56e	-0.19038936
168	0xbe2d9735	-0.16952212
169	0x3d7317f8	0.05934903
170	0x3d82b1a4	0.063815385
171	0x3ddab5ff	0.10679244
172	0xbc6cbda8	-0.014449514
173	0xbef1999a	-0.471875
174	0xbe9bde66	-0.30443114
175	0xbd11c26b	-0.035585802
176	0xbc57ddf5	-0.013175477
177	0x3d8ad0a2	0.06778075
178	0x3d7ced94	0.06175001
179	0xbdcb1e8b	-0.09917935
180	0xbe3de4d2	-0.1854432
181	0xbda45e6a	-0.080258206
182	0x3db9c4ab	0.090707146
183	0xbeee11f4	-0.46498072
184	0x3d1049a6	0.035226487
185	0xbdeb3c66	-0.114861295
186	0xbc84f4b8	-0.016229972
187	0xbd3b015e	-0.0456556
188	0xbd9710c1	-0.073762424
189	0x3d903a06	0.07042317
190	0x3d6b6c3e	0.057476275
191	0xbd37801f	-0.04479992
192	0xbe84eaa6	-0.25960273
193	0xbdccf439	-0.10007519
194	0xbdbccfdb	-0.09219333
195	0x3d94bfcd	0.072631456
196	0x3d5f6845	0.0545428
197	0xbe286b25	-0.16447122
198	0x3d8398ef	0.06425654
199	0xbddbefb3	-0.107390784
200	0xbda172f9	-0.078832574
201	0xbeb5fddb	-0.3554524
202	0x3c945bc9	0.018110173
203	0x3e41af3b	0.18914501
204	0xbd942e47	-0.07235389
205	0xbe89d18e	-0.2691769
206	0xbd28c6f9	-0.04120538
207	0xbeae8fbe	-0.34094042
208	0xbecd5f6c	-0.40111864
209	0xbdb022e7	-0.08600407
210	0xbc4fbc32	-0.012679147
211	0xbe924b2b	-0.28572974
212	0xbd579019	-0.052627657
213	0x3e180ff8	0.14849842
214	0xbe5956e0	-0.21224546
215	0xbd4717b3	-0.048606586
216	0xbd651183	-0.055924904
217	0xbd8e09ce	-0.06935464
218	0xbe217883	-0.15768628
219	0x3d4a4d1f	0.049389955
220	0xbf23c4fa	-0.6397244
221	0xbdbe243a	-0.092842534
222	0xbe68abe7	-0.22721826
223	0x3e22a800	0.158844
224	0xbe5a3ccc	-0.21312255
225	0xbec709e5	-0.38874736
226	0xbe7a90f9	-0.24469365
227	0x3ca38f43	0.019965773
228	0x3e0798e6	0.1324192
229	0xbe9b2ef5	-0.30309263
230	0xbe04209e	-0.12903067
231	0x3da8147d	0.08207033
232	0x3c89e4c9	0.016832726
233	0xbe13aa1b	-0.14420359
234	0xbe679cea	-0.22618452
235	0xbc9a89c0	-0.018864512
236	0xbd88731e	-0.06662582
237	0xbd46a358	-0.04849562
238	0xbea7e3c2	-0.32790953
239	0xbeba7d16	-0.36423558
240	0x3ca4a902	0.02010012
241	0xbdbb8b40	-0.09157419
242	0xbd454176	-0.04815813
243	0xbe08cbd9	-0.13359012
244	0xbde10a55	-0.10988299
245	0xbe58a369	-0.21156086
246	0xbe2e3d07	-0.17015468
247	0xbeec5621	-0.4615946
248	0x3d392023	0.045196664
249	0xbcca906a	-0.024727065
250	0xbd505238	-0.05085966
251	0x3db67110	0.08908284
252	0xbe0f55dd	-0.13997598
253	0x3da913c2	0.08255722
254	0xbe403c40	-0.18772984
255	0x3dcda1f6	0.10040657

trunk.6.weight f4 [5, 256]
0	0xbe60748a	-0.21919456
1	0x3d65a410	0.056064665
2	0x3ec2e191	0.3806272
3	0x3e874e98	0.2642715
4	0xbdae788a	-0.08519085
5	0xbe82cb7f	-0.2554588
6	0xbdbc89ea	-0.092059925
7	0xbe228a12	-0.15872982
8	0xbe864356	-0.26223248
9	0x3eb425d8	0.35185122
10	0xbd1140e7	-0.035462286
11	0xbe1bab96	-0.15202174
12	0xbcbe8186	-0.023255121
13	0x3cea1f6c	0.028579436
14	0x3e07cdad	0.13262053
15	0x3d08c094	0.03338678
16	0x3e1066eb	0.1410176
17	0x3db19e94	0.086728245
18	0xbd17b3fa	-0.037036873
19	0x3c3701d1	0.011169867
20	0xbc62e905	-0.0138495015
21	0x3bd906ed	0.00662314
22	0xbcffd2c3	-0.031228429
23	0xbd5b62be	-0.053560965
24	0x3dae0105	0.08496288
25	0x3e52f772	0.20602205
26	0xbeb2e1be	-0.34937853
27	0xbe19562b	-0.14974277
28	0x3ed9aa91	0.42512944
29	0x3da444f6	0.08020966
30	0x3d782087	0.060577895
31	0x3cf4d897	0.029888434
32	0x3e1a332c	0.15058583
33	0xbd9b00b5	-0.07568494
34	0xbe0a93cb	-0.13532941
35	0x3d8952a2	0.06705214
36	0x3e2c27b2	0.16812018
37	0x3db36ebc	0.08761355
38	0x3f18bb44	0.59660745
39	0xbda636a6	-0.08115892
40	0xbde73594	-0.11289516
41	0x3d559158	0.052140564
42	0x3d0588ba	0.032601096
43	0x3d0651b8	0.032792777
44	0x3e84a970	0.2591052
45	0xbdd7560f	-0.10514461
46	0x3eaa19b6	0.3322274
47	0x3cb0b480	0.021570444
48	0xbdfd96d5	-0.123822846
49	0x3defd86e	0.117112026
50	0x3c6ca048	0.014442511
51	0x3d626c23	0.05527891
52	0x3d676cd1	0.05650026
53	0x3d80535b	0.06265899
54	0xbeab3827	-0.33441278
55	0x3b566125	0.0032711711
56	0x3d81ba2d	0.06334338
57	0xbc79744a	-0.015225479
58	0xbe9f8f0e	-0.3116383
59	0xbce50a88	-0.027959123
60	0xbfaef641	-1.3668901
61	0x3e6ce4ff	0.2313423
62	0xbd37ccef	-0.044873174
63	0x3b819067	0.0039539817
64	0x3d35b1be	0.04435896
65	0xbe3c093c	-0.18362898
66	0x3e28d3ad	0.16486998
67	0x3dc803e0	0.09766364
68	0xbdcd77c5	-0.1003261
69	0xbcc03b09	-0.02346565
70	0xbe8e4ca2	-0.2779284
71	0x3e17a1d1	0.14807822
72	0xbe26b250	-0.16278958
73	0xbdbf118e	-0.0932952
74	0xbd334360	-0.043765426
75	0xbd80ebaf	-0.06294953
76	0xbdf5cb81	-0.12001706
77	0x3ce917c4	0.028453715
78	0x3af6f40a	0.001884104
79	0xbe7db793	-0.2477706
80	0x3d6fb260	0.05851972
81	0x3dcb603f	0.09930467
82	0x3c842a72	0.01613352
83	0x3abcb836	0.0014398161
84	0xbdab7041	-0.0837102
85	0xbea94050	-0.3305688
86	0xbedec9ad	-0.4351324
87	0xbba6fe42	-0.005096228
88	0xbec78852	-0.38971192
89	0x3dc00098	0.09375113
90	0xbd8c6de1	-0.06856895
91	0x3d4252fe	0.04744243
92	0x3e1d4be9	0.15360989
93	0xbd732997	-0.059365835
94	0xbd06919b	-0.032853704
95	0xbe03412f	-0.12817834
96	0xbef5c63a	-0.48002797
97	0x3e4cb16c	0.19989556
98	0xbd772db5	-0.060346324
99	0x3e2c3e40	0.16820621
100	0x3e9684bc	0.29398143
101	0x3cfa4fed	0.03055569
102	0xbd5e42ba	-0.054262854
103	0xbd492347	-0.04910591
104	0xbf3dcaa5	-0.74137336
105	0xbd17f752	-0.037101097
106	0x3de4d5cc	0.11173591
107	0xbcd092cd	-0.025460625
108	0xbe11b2d6	-0.14228377
109	0x3e9e1dc8	0.30882096
110	0xbda7df8e	-0.081969365
111	0xbecdb9ba	-0.4018076
112	0xbeace9e5	-0.33772197
113	0xbe74e3f8	-0.23915088
114	0xbd139842	-0.036033876
115	0xbc3408d0	-0.010988429
116	0x3d8682cb	0.065679155
117	0x3e04182a	0.12899843
118	0xbf3cbc41	-0.7372475
119	0xbd0c2c3a	-0.034221865
120	0xbd3362a5	-0.043795247
121	0xbdaaa609	-0.0833245
122	0x3e196639	0.14980401
123	0xbc4b860b	-0.012422095
124	0x39b34c35	0.0003419832
125	0xbdf158b6	-0.117844984
126	0xbd1a38a3	-0.03765167
127	0xbdd3d79b	-0.10343858
128	0x3e4d94fb	0.20076363
129	0xbd439979	-0.047753785
130	0xbbfe00eb	-0.0077515743
131	0xbeaf7184	-0.34266293
132	0x3e785a8f	0.24253295
133	0x3c821c07	0.015882505
134	0x3db5125f	0.08841395
135	0x3ebd8bab	0.3702062
136	0xbc20788c	-0.009794366
137	0xbd2f02f0	-0.04272741
138	0x3e0947ea	0.1340634
139	0xbe924ac4	-0.28572667
140	0x3d22d5ea	0.039754786
141	0xbe0e8df6	-0.13921341
142	0xbd5a273b	-0.05326007
143	0xbe902652	-0.28154236
144	0x3da8d2bf	0.082433216
145	0x3f107cde	0.5644053
146	0x3ea44148	0.32081056
147	0xbf1bc71d	-0.608507
148	0xbdc9a7ee	-0.09846483
149	0x3e5f997f	0.21835898
150	0xbeded399	-0.4352081
151	0x3d63bc96	0.05559977
152	0x3cfed987	0.031109584
153	0x3d96d965	0.073656835
154	0xbdbcd25d	-0.09219811
155	0x3dc8c150	0.098024964
156	0xbd28327c	-0.04106377
157	0xbd2897b0	-0.041160285
158	0x3bbf5cf3	0.005839938
159	0x3d9334d1	0.07187808
160	0xbc3b75ba	-0.011441642
161	0xbea6224f	-0.3244805
162	0x3d86405c	0.06555244
163	0xbda46c1a	-0.08028431
164	0xbf4fb94f	-0.81142133
165	0xbd9d53f8	-0.076820314
166	0xbdb66a0c	-0.089069456
167	0xbd332cb6	-0.04374381
168	0xbf32a258	-0.69778967
169	0xbda396bf	-0.07987737
170	0x3ce6d879	0.028179394
171	0x3eb3d8e4	0.35126412
172	0x3eb5af9b	0.3548554
173	0xbeb17447	-0.34659025
174	0xbe0a0880	-0.13479805
175	0x3d6e0bb8	0.058116645
176	0xbc57b6f0	-0.013166174
177	0x3ea83378	0.32851768
178	0xbd81fbb3	-0.06346836
179	0x3c442f99	0.011974239
180	0x3e198c37	0.14994894
181	0xbc57fdf4	-0.013183106
182	0x3d490a76	0.049082242
183	0xbe7f27f9	-0.24917592
184	0xbddd79ca	-0.10814245
185	0x3d8ad324	0.06778553
186	0xbbd4cd62	-0.00649421
187	0xbd143d1b	-0.036191087
188	0xbbe31564	-0.00693004
189	0x3cd317ec	0.025768243
190	0xbdcc928b	-0.09988888
191	0x3cce040f	0.02514842
192	0x3eac92cb	0.33705744
193	0x3ea5aace	0.32356876
194	0xbde24ff3	-0.11050405
195	0xbde38b2f	-0.111105315
196	0xbc0d594e	-0.008627249
197	0xbd9f18d6	-0.07768409
198	0xbe60e11c	-0.21960872
199	0xbe2d1dca	-0.16905895
200	0x3da7863b	0.08179899
201	0xbe9ea4cd	-0.30985108
202	0xbe0605b9	-0.1308812
203	0xbe85246b	-0.26004347
204	0x3dfcea70	0.12349403
205	0xbecbc2a5	-0.3979694
206	0x3ddf6a7b	0.109089814
207	0x3e26cdbc	0.16289419
208	0x3e29df16	0.16589007
209	0x3e42b580	0.1901455
210	0xbe073c17	-0.13206516
211	0xbf226904	-0.6344149
212	0x3da6a72a	0.08137353
213	0x3e3a16f5	0.1817282
214	0x3cf5cb12	0.030004058
215	0xbe70d1f3	-0.2351759
216	0xbcaf052b	-0.021364769
217	0xbe4fb538	-0.20283973
218	0xbec447b4	-0.38335955
219	0x3bb7faa4	0.0056145955
220	0x3f0d975f	0.553091
221	0xbcdcf2a1	-0.026971163
222	0x3bd4ac25	0.006490248
223	0x3d83d95b	0.06437942
224	0xbd19847d	-0.037479866
225	0xbe873e80	-0.2641487
226	0xbf04e561	-0.51912504
227	0xbd73abfa	-0.05949018
228	0x3d78b62d	0.06072061
229	0x3f14b8c3	0.58094424
230	0x3e8b8689	0.2725108
231	0x3cce1c68	0.02516003
232	0xbc423a80	-0.011854768
233	0xbf1fc4fe	-0.6240996
234	0x3e584853	0.2112134
235	0xbbfc4901	-0.0076991324
236	0xbc0183cb	-0.007904957
237	0xbddd81ca	-0.10815771
238	0x3e0d4b64	0.1379829
239	0xbf232c83	-0.63739794
240	0x3d8c54e8	0.06852132
241	0xbdaca398	-0.084296405
242	0x3e2ecd35	0.17070468
243	0xb82f9b1a	-4.18677e-05
244	0x3e708131	0.23486783
245	0xbe1021ef	-0.14075445
246	0x3d84c007	0.06481939
247	0x3dac4a31	0.084125884
248	0xbeb9dd13	-0.3630148
249	0x3d7e308a	0.06205801
250	0xbb35754f	-0.002768833
251	0x3e394e0b	0.18096177
252	0x3e838116	0.25684422
253	0x3ddabd41	0.106806286
254	0x3e0466b0	0.12929797
255	0xbddf50b9	-0.109040685

trunk.6.bias f4 [5]
0	0xbc17cb72	-0.009264814
1	0x3dc11cf1	0.09429348
2	0xbdcd0f28	-0.100126565
3	0x3dcf158d	0.10111532
4	0xc0fc2e3f	-7.8806453
