models/Reach/rl/4/20-57-15_Reach_Panda_JOINT_VELOCITY_TD3/models/step_0860000/fwd_dyn.pt (torch, 542861 bytes, 8 tensors)

0.weight f4 [256, 8]
0.32534662 0.59071475 0.005967689 -0.099464186 0.05155563 0.20342487 -0.21026213 -0.12462118
-0.28984514 0.53313595 -0.2888025 -0.047580376 0.0254749 -0.20500988 0.1164867 0.2904548
-0.65999603 0.2825258 -0.0023872738 0.0019623933 0.05639605 -0.27231702 -0.3026063 -0.24037735
-0.1957834 -0.03351694 0.087977394 -0.07948864 -0.06343428 -0.023993976 0.119302556 -0.29787064
0.08889306 -0.06663679 -0.67158717 -0.15240481 0.33979067 0.19720656 0.20365255 -0.4196056
-0.05842194 -0.06237818 0.08604322 0.06870822 -0.19545732 -0.45530465 0.20118932 0.3395915
-0.29818892 -0.3208 -0.28242457 -0.30313903 -0.21378548 -0.22619034 0.20162188 -0.0630388
-0.39181608 0.33814204 0.12870075 0.45507964 -0.044853926 0.012356197 0.11786645 -0.16839945
0.27933687 0.6975519 0.10051375 0.09467442 -0.18321176 -0.14994556 0.13306026 0.016006073
-0.029387394 -0.002308559 0.23839682 -0.14460371 -0.17322454 -0.0259074 0.17106962 -0.08098002
-0.09564278 -0.008946449 -0.078714564 -0.044165995 -0.014694138 0.06841142 -0.19773147 -0.22284168
-0.0027511448 0.016802214 0.07942876 -0.057591088 -0.23457527 0.07173853 0.2197064 -0.07497357
-0.02501597 -0.06878925 0.0049777976 -0.03382938 0.040129647 -0.13281097 0.0068290066 0.06847855
0.0847389 0.061795693 -0.2517775 0.08832698 -0.047125965 -0.043506168 -0.09665179 0.054255582
0.09519268 -0.010578651 -0.5385236 -0.022287581 -0.026675735 0.018672252 0.03334523 0.030344099
0.2132939 -0.46307588 0.22706653 0.49282476 -0.13910785 -0.46475142 -0.082082346 -0.012532
-0.22437122 0.88643163 0.32285348 -0.041641213 0.043861277 0.026045768 -0.05220352 0.0035023494
-0.5537089 0.34299585 0.26671848 0.19405065 0.33226433 0.2875154 0.028887268 -0.03757689
0.09261175 0.04194161 -0.050649542 0.06634087 -0.03656587 0.6813617 0.22353001 -0.43368512
-0.09962085 0.0062900553 0.32705215 0.3262095 -0.3663061 -0.11768608 0.38811252 0.3472527
-0.04821398 0.014492133 -0.16584197 0.014281394 -0.0861491 -0.06766769 0.038848918 -0.061717127
0.4129207 0.106264874 -0.39506176 0.10490271 0.057796042 0.00700814 -0.21639033 0.07389414
-0.08388011 0.043578375 0.5446033 0.12173707 -0.27958718 -0.18598537 -0.16439234 0.36536694
0.05666685 -0.01626467 0.15728582 0.31562904 -0.13547203 -0.31853804 0.24021353 0.09544819
-0.1181916 -0.17561571 -0.28175768 0.37599838 0.5777053 -0.15890013 0.31166932 -0.5336433
-0.03252303 0.5057544 0.43977407 -0.12736087 0.30691823 -0.10825582 -0.02208849 -0.18020159
0.028174328 0.102403015 0.16771972 0.4013139 -0.019238003 0.42669126 -0.36495975 -0.091093324
0.60330963 -0.29285094 0.39412963 -0.24502541 -0.047952164 -0.09892685 0.16202933 0.032468077
-0.23637995 -0.46989208 -0.18686144 0.1897026 0.20793246 -0.2809958 -0.03958381 -0.19279124
-0.038838696 0.064699285 0.040183246 -0.005503612 -0.3528155 -0.21986291 0.22042295 -0.17554004
0.08728891 -0.055126984 0.033354063 0.032570202 0.0047762715 0.15506351 0.17835727 -0.0035976113
0.022632299 0.008826418 0.041366007 -0.049599476 -0.3586429 -0.22933897 0.0366521 -0.14590006
00000000: d593 a63e 1539 173f 9b8c c33b e1b3 cbbd
00000010: ff2b 533d 9c4e 503e f54e 57be 6439 ffbd
00000020: 9566 94be 997b 083f ecdd 93be a4e3 42bd
00000030: bdb0 d03c 1cee 51be 9490 ee3d 7eb6 943e
00000040: 80f5 28bf 39a7 903e cf73 1cbb 7f9b 003b
00000050: 8bff 663d 236d 8bbe 37ef 9abe 7b25 76be
00000060: 727b 48be 0f49 09bd 7e2d b43d f1ca a2bd
00000070: d5e9 81bd 048f c4bc e654 f43d 8082 98be
00000080: 910d b63d df78 88bd 23ed 2bbf 0210 1cbe
00000090: 0bf9 ad3e 84f0 493e 4b8a 503e 8cd6 d6be
000000a0: d84b 6fbd 4380 7fbd 6d37 b03d e5b6 8c3d
000000b0: f725 48be b11d e9be 9304 4e3e f0de ad3e
000000c0: 38ac 98be e63f a4be f499 90be 0a35 9bbe
000000d0: 95ea 5abe 719e 67be f775 4e3e 7d1a 81bd
000000e0: 1e9c c8be f420 ad3e 21ca 033e 3300 e93e
000000f0: c0b8 37bd a671 4a3c f763 f13d e870 2cbe
00000100: 3e05 8f3e c392 323f 27da cd3d aae4 c13d
00000110: dd9b 3bbe 548b 19be f340 083e 2b1f 833c
00000120: d5bd f0bc 314b 17bb 4c1e 743e ff12 14be
00000130: c661 31be c13b d4bc e02c 2f3e dad8 a5bd
00000140: 5de0 c3bd 2094 12bc 1a35 a1bd 67e7 34bd
00000150: afbf 70bc 491b 8c3d 1e7a 4abe 9c30 64be
00000160: 8d4c 34bb cca4 893c 8cab a23d a2e4 6bbd
00000170: 8034 70be a7eb 923d b7fa 603e be8b 99bd
00000180: 4bee ccbc 61e1 8cbd cb1c a33b ad90 0abd
00000190: fc5e 243d 99ff 07be dcc5 df3b 7b3e 8c3d
000001a0: 978b ad3d 7b1d 7d3d fbe8 80be c7e4 b43d
000001b0: 2807 41bd 8633 32bd 60f1 c5bd 1a3b 5e3d
000001c0: 61f4 c23d 1452 2dbc afdc 09bf 7294 b6bc
000001d0: 1287 dabc 8df6 983c 0295 083d 3094 f83c
000001e0: b769 5a3e 4818 edbe 2184 683e 8753 fc3e
000001f0: 4a72 0ebe e6f3 edbe ca1a a8bd 0553 4dbc
00000200: 92c1 65be 2fed 623f 0d4d a53e fa8f 2abd
00000210: e2a7 333d ef5d d53c 5cd3 55bd ac87 653b
00000220: debf 0dbf 279d af3e 538f 883e 37b5 463e
00000230: 8d1e aa3e 3835 933e fea4 ec3c 3aea 19bd
00000240: 3bab bd3d f7ca 2b3d e575 4fbd b9dd 873d
00000250: 18c6 15bd b86d 2e3f 0de5 643e fa0b debe
00000260: 0406 ccbd cf1c ce3b 6173 a73e ee04 a73e
00000270: 798c bbbe 6605 f1bd afb6 c63e 1bcb b13e
00000280: 067c 45bd 6970 6d3c 7ad2 29be 82fc 693c
00000290: f06e b0bd 5c95 8abd 0b20 1f3d 19cb 7cbd
000002a0: 586a d33e 66a1 d93d 8945 cabe 3bd7 d63d
000002b0: 8bbb 6c3d 8aa4 e53b 6d95 5dbe d055 973d
000002c0: 56c9 abbd 3d7f 323d 1f6b 0b3f 4951 f93d
000002d0: 0d26 8fbe f372 3ebe 7756 28be 6011 bb3e
000002e0: 801b 683d 7c3d 85bc 890f 213e 219a a13e
000002f0: 2eb9 0abe 6b17 a3be 89fa 753e 577a c33d
00000300: 700e f2bd 9bd4 33be 8b42 90be dc82 c03e
00000310: 7fe4 133f b7b6 22be 1f93 9f3e d99c 08bf
00000320: de36 05bd 1f79 013f 112a e13e e36a 02be
00000330: 6324 9d3e 3ab5 ddbd ecf2 b4bc c486 38be
00000340: d9cd e63c acb8 d13d b8be 2b3e 0479 cd3e
00000350: 0499 9dbc 4777 da3e 01dc babe 238f babd
00000360: 8072 1a3f 8ff0 95be 5ccb c93e f1e7 7abe
00000370: 7d69 44bd 299a cabd 04eb 253e 3ffd 043d
00000380: 960d 72be b295 f0be 9b58 3fbe 6641 423e
00000390: 3fec 543e aede 8fbe a222 22bd 116b 45be
000003a0: 5315 1fbd 0f81 843d 3097 243d a557 b4bb
000003b0: 3ca4 b4be be23 61be 8eb6 613e c5c0 33be
000003c0: 87c4 b23d d5cc 61bd 459e 083d 5568 053d
000003d0: 4582 9c3b f8c8 1e3e 4aa3 363e e7c5 6bbb
000003e0: 5f67 b93c ae9c 103c 676f 293d d228 4bbd
000003f0: 0ba0 b7be d6d7 6abe 8320 163d d366 15be

0.bias f4 [256]
-0.41597337 -0.11743556 -0.19242282 0.15932813 -0.35369334 0.31005824 -0.2084185 0.11812195
-0.22356223 0.12966935 0.15672123 0.3757563 -0.0702173 -0.15270652 -0.23305617 0.20815948
-0.31400266 -0.20857899 -0.1775361 -0.12127458 -0.16445047 0.2059077 0.30474666 0.34681326
-0.030514713 -0.25643125 -0.31080893 -0.32670355 0.24737535 -0.21590947 0.16400482 0.3262439
0.05010331 0.003814455 0.43410575 -0.39807022 -0.21656893 -0.03972808 -0.44903648 -0.18374331
0.20140396 -0.50363165 -0.18800223 -0.055223852 0.13052979 0.22756983 -0.20377879 -0.14273359
0.17119403 0.023321291 -0.15132602 -0.065042146 0.29240838 -0.39343515 -0.22189873 -0.035022687
-0.3075861 -0.25653726 -0.296199 0.12762439 -0.14061004 -0.035555188 -0.03438042 -0.10401055
0.1433036 -0.026806317 0.057281394 -0.3854821 -0.082539424 -0.31954923 -0.4561879 -0.043167133
-0.09619579 0.51619065 -0.15021503 0.22136433 -0.18007216 -0.58603734 -0.49281457 -0.10269617
-0.10196969 0.103347845 0.17659593 -0.20032726 -0.19487856 0.04039943 0.03386863 0.052832667
0.25286412 0.15404944 -0.047946446 -0.10798406 0.100168906 0.06948149 0.33379027 0.22631256
0.033923928 -0.26688996 -0.032323726 0.0749906 0.15042004 -0.03529239 -0.30693159 -0.26926273
-0.5492327 -0.4802446 -0.19778365 0.3679844 -0.057749093 0.018998353 0.3108859 0.2320244
-0.17229848 -0.2373681 0.06181575 0.67610395 0.22957118 -0.31986323 0.58437735 -0.2990149
-0.13750866 0.15640914 0.19576834 -0.03442122 -0.4210252 0.01667516 -0.105668165 0.13225228
0.22753364 -0.23110269 0.082424335 0.315183 -0.06658901 -0.06709326 -0.012285502 -0.08996131
-0.26134348 0.3032601 0.24493204 0.39786887 0.18270689 -0.38533673 0.027977573 0.102074124
0.047309577 -0.2533718 -0.22712581 0.38616714 -0.49955368 0.045243792 0.02567165 -0.47104087
-0.19746123 -0.31810674 -0.16225652 0.24985792 -0.26175702 -0.25295147 0.13242504 -0.44537747
-0.05912426 0.20066985 0.035979427 -0.10916777 -0.070485204 0.14821218 -0.43764293 0.19346237
-0.74779713 -0.24772437 0.25655013 0.12994656 0.084958486 -0.081186466 -0.053711012 -0.22292253
0.10332075 0.02869338 -0.24969213 0.24984719 -0.5547992 -0.34630093 0.00051274453 0.02879254
-0.027274089 -0.3292287 0.20854077 -0.45796818 -0.17706916 -0.10206143 0.27983412 -0.20234045
-0.084656395 -0.29306835 0.15177172 0.20598817 0.115572594 -0.25324318 -0.035257477 -0.18096144
0.24653716 0.47213098 0.32072395 -0.46072903 0.27377546 -0.026984649 0.090107806 -0.011197877
0.07008084 -0.47865924 0.036371533 0.1063099 0.17542553 0.15665914 -0.3168439 -0.34296227
-0.24914594 -0.24236082 -0.41942772 -0.04603448 0.2270512 0.031783085 -0.23087169 -0.52200323
-0.2743677 -0.009267946 0.076946065 0.10239086 0.304906 -0.21210884 0.005928836 -0.23987147
-0.2904358 0.30566058 -0.4183666 0.10141926 0.19214675 0.2360694 -0.13171534 -0.21006311
0.0415622 -0.4535686 0.13373806 0.25905207 -0.019863285 -0.25356764 -0.18672636 -0.14250292
-0.24777621 0.27561504 -0.1445002 0.26742515 0.22940174 0.17642477 0.14204004 -0.18554762
00000000: 76fa d4be 0e82 f0bd 7d0a 45be ea26 233e
00000010: 4b17 b5be f4bf 9e3e a96b 55be ece9 f13d
00000020: 7fed 64be 0bc8 043e 887b 203e 2163 c03e
00000030: 16ce 8fbd 195f 1cbe 47a6 6ebe c227 553e
00000040: f5c4 a0be bb95 55be 06cc 35be cf5e f8bd
00000050: b465 28be 78d9 523e c107 9c3e 8291 b13e
00000060: fef9 f9bc f54a 83be 5922 9fbe b045 a7be
00000070: f74f 7d3e 5f17 5dbe e1f0 273e 7109 a73e
00000080: 2139 4d3d effb 793b 1c43 de3e dccf cbbe
00000090: 3fc4 5dbe e9b9 22bd 1ce8 e5be 3527 3cbe
000000a0: d73c 4e3e 01ee 00bf a883 40be 6832 62bd
000000b0: 9aa9 053e 1108 693e 63ab 50be c128 12be
000000c0: 7d4d 2f3e 4b0c bf3c 35f5 1abe d134 85bd
000000d0: 8db6 953e 5570 c9be 6c39 63be f373 0fbd
000000e0: ed7b 9dbe da58 83be 65a7 97be f8af 023e
000000f0: 14fc 0fbe 51a2 11bd 7cd2 0cbd 7c03 d5bd
00000100: 2ebe 123e ec98 dbbc e59f 6a3d e95d c5be
00000110: 6e0a a9bd f59b a3be 7691 e9be 05d0 30bd
00000120: 4c02 c5bd 1225 043f f8d1 19be 55ad 623e
00000130: d664 38be 8b06 16bf 3152 fcbe 5f52 d2bd
00000140: 7cd5 d0bd 09a8 d33d 90d5 343e 9722 4dbe
00000150: 3f8e 47be df79 253d d5b9 0a3d 1167 583d
00000160: 6877 813e 23bf 1d3e 7e63 44bd bf26 ddbd
00000170: 5b25 cd3d 504c 8e3d 8fe6 aa3e 7bbe 673e
00000180: d1f3 0a3d cda5 88be e265 04bd ac94 993d
00000190: b607 1a3e c18e 10bd 2326 9dbe cedc 89be
000001a0: 849a 0cbf 9fe2 f5be cc87 4abe 7468 bc3e
000001b0: 508a 6cbd 6fa2 9b3c 702c 9f3e ce97 6d3e
000001c0: 036f 30be a010 73be 8332 7d3d 2615 2d3f
000001d0: b514 6b3e 1dc5 a3be c199 153f 7b18 99be
000001e0: 12cf 0cbe b829 203e 7f77 483e 44fd 0cbd
000001f0: 9d90 d7be 589a 883c 8d68 d8bd 246d 073e
00000200: 94fe 683e 2fa6 6cbe 17ce a83d ab5f a13e
00000210: d25f 88bd 3168 89bd 2149 49bc a33d b8bd
00000220: d0ce 85be e844 9b3e 77cf 7a3e 78b5 cb3e
00000230: 8417 3b3e db4a c5be 3931 e53c 3d0c d13d
00000240: b0c7 413d f3b9 81be ab93 68be b3b7 c53e
00000250: 80c5 ffbe 8e51 393d 5a4d d23c 452c f1be
00000260: 4733 4abe e3de a2be 9326 26be c1da 7f3e
00000270: 0405 86be db82 81be 6e9a 073e 8408 e4be
00000280: 482c 72bd 667c 4d3e 2a5f 133d 5a93 dfbd
00000290: 8c5a 90bd efc4 173e bc12 e0be 001b 463e
000002a0: a26f 3fbf 75ab 7dbe 8a5a 833e b610 053e
000002b0: b7fe ad3d 1745 a6bd 1400 5cbd ce45 64be
000002c0: d499 d33d 610e eb3c 4baf 7fbe f1d7 7f3e
000002d0: 5207 0ebf 5b4e b1be b469 063a 55de eb3c
000002e0: e96d dfbc aa90 a8be b68b 553e ce7a eabe
000002f0: 9e51 35be 9505 d1bd 6b46 8f3e 5632 4fbe
00000300: 5560 adbd 0e0d 96be 0c6a 1b3e 90ee 523e
00000310: 53b1 ec3d 17a9 81be 256a 10bd f54d 39be
00000320: 3d74 7c3e 27bb f13e ee35 a43e ade4 ebbe
00000330: 4c2c 8c3e e90e ddbc 718a b83d 4d77 37bc
00000340: 8b86 8f3d d312 f5be 51fa 143d 01b9 d93d
00000350: c0a2 333e 416b 203e 5d39 a2be c098 afbe
00000360: 1d20 7fbe 6f2d 78be 3bbf d6be a78e 3cbd
00000370: 1c80 683e fb2e 023d a169 6cbe 01a2 05bf
00000380: ec79 8cbe 95d8 17bc e695 9d3d 4db2 d13d
00000390: a41c 9c3e 0f33 59be ae46 c23b dea0 75be
000003a0: 00b4 94be 8b7f 9c3e 2634 d6be e7b4 cf3d
000003b0: 1ec2 443e 2dbc 713e 63e0 06be c91a 57be
000003c0: 203d 2a3d 253a e8be a1f2 083e 79a2 843e
000003d0: 54b8 a2bc 9ed3 81be 3235 3fbe 49ec 11be
000003e0: 0cb9 7dbe 6a1d 8d3e dcf7 13be f3eb 883e
000003f0: 4ae8 6a3e b2a8 343e f272 113e 3200 3ebe

2.weight f4 [256, 256]
0.09411362 -0.57870317 -0.44552037 -0.078822136 -0.36207983 6.1156345e-05 -0.0012788761 -0.13016239
0.4006117 0.2573303 -0.031741202 0.023173818 -0.105560236 0.21548843 0.19753788 -0.04382886
-0.64459896 0.31148446 -0.09907194 0.20448393 -0.258383 0.03617277 -0.03285177 0.123315446
0.15509954 -0.020271575 0.0068690437 0.09643112 0.113074124 0.02948323 -0.0074460707 0.34264472
-0.2258031 -0.37631825 0.1566823 -0.14239629 -0.51917285 -0.010981895 -0.0070420206 -0.032610983
5.0358107e-05 0.04192382 -0.05066007 0.028753323 -0.01839502 0.119718 0.055548236 -0.06419467
0.17925148 0.008687385 0.1034935 0.05077232 0.11067763 -0.19352077 -0.05357796 -0.038160797
-0.11843433 0.05656476 0.39056844 -0.15891905 0.050093655 0.007883455 -0.15157875 -0.31489947
-0.008800782 -0.16586341 -0.16828394 -0.03562806 -0.201696 -0.043259222 0.05772108 -0.23596019
-0.27759823 0.027422743 0.040620644 0.012679597 0.4857899 -0.44611245 -0.32484913 -0.00844375
-0.20194341 0.112120405 0.055992857 -0.018406194 0.03266088 0.032192778 -0.05369577 -0.020675033
0.1740115 0.24455748 0.14780284 0.03230657 0.023124585 0.030379532 -0.026701346 0.0027767553
0.07495016 0.17975448 0.30650234 0.010147919 0.13031393 0.15680707 -0.12639421 -0.17928597
0.44580898 -0.10963516 -0.13204898 -0.067225456 -0.034781728 0.21253282 0.06910941 -0.08231714
-0.06867576 -0.10900175 -0.18859908 0.112445705 -0.13418819 0.07288556 0.0735607 -0.22081648
-0.3478812 -0.08350977 -0.0022354599 -0.524216 0.38095704 -0.12078842 0.04710281 0.14469525
0.053155936 -0.076903656 -0.004138414 0.31115955 0.067997694 0.30441657 -0.4408703 0.19997647
0.15458521 -0.11044747 0.114761375 0.2562127 -0.032675114 -0.6345825 -0.00078480237 -0.038661227
-0.04253902 0.15264201 0.2223247 -0.6529387 -0.2842151 0.06028475 -0.106112964 -0.41143468
-0.13927977 -0.024542538 -0.120765194 -0.021557879 0.051477 -0.38380146 0.23659678 -0.80631673
0.0565804 0.00053345185 -0.2694462 0.13435125 -0.11392819 0.0017004559 -0.2935406 0.01613103
0.2817202 0.07874199 0.053919822 -0.060326666 -0.012416153 0.18694459 -0.110892184 -0.054644592
-0.08180454 -0.41425547 -0.28746197 -0.56325287 -0.6457072 0.4480781 -0.004949778 -0.32016456
0.18980266 -0.34729195 -0.014217126 0.09611573 0.09922043 -0.13569757 -0.07300613 0.08952662
-0.36128452 0.25480163 0.09089795 0.07020407 0.14024425 -0.6252513 0.071317546 -0.4665111
-0.050961506 -0.034587916 -0.26116306 0.06351834 -0.0033809752 -0.021513114 0.07791964 -0.05438122
-0.13591826 -0.40221488 0.18715777 -0.27151498 0.02031796 0.06233411 0.55004495 0.020033391
0.09433853 -0.23669453 -0.34232354 0.0087555675 -0.044118647 0.3296063 -0.29276827 -0.13840199
-0.20965543 -0.0025219738 -0.07885126 -0.056073792 0.20867746 -0.32726827 0.100917384 0.1050971
-0.1250694 0.24457885 -0.009179371 -0.036287524 0.17761932 0.032698736 0.16976593 -0.4211827
0.18769006 -0.352429 0.07091531 0.23280773 0.13605313 0.19875474 -0.0944004 0.1155186
-0.4737321 -0.022962326 0.039486416 -0.082038 0.0065994565 0.02976099 0.4200857 0.024548251
00000000: a4be c03d e425 14bf 3f1b e4be 806d a1bd
00000010: 8762 b9be 1041 8038 f69f a7ba 4a49 05be
00000020: fa1c cd3e ccc0 833e 1003 02bd 05d7 bd3c
00000030: f72f d8bd 00a9 5c3e 5f47 4a3e e485 33bd
00000040: 7004 25bf e47a 9f3e 3be6 cabd 3c64 513e
00000050: c74a 84be e629 143d 948f 06bd cf8c fc3d
00000060: 6ad2 1e3e 9310 a6bc b715 e13b ae7d c53d
00000070: 6893 e73d d186 f13c 2bfe f3bb 216f af3e
00000080: ee38 67be c9ac c0be 5371 203e 55d0 11be
00000090: 83e8 04bf 68ed 33bc c0c0 e6bb 1893 05bd
000000a0: 9b37 5338 50b8 2b3d ef80 4fbd 178c eb3c
000000b0: 27b1 96bc b62e f53d 8c86 633d 7f78 83bd
000000c0: b38d 373e 8955 0e3c 66f4 d33d a3f6 4f3d
000000d0: f4aa e23d 4f2a 46be 9074 5bbd 7f4e 1cbd
000000e0: b38d f2bd 73b0 673d 96f8 c73e adbb 22be
000000f0: 012f 4d3d 9b29 013c 7637 1bbe 813a a1be
00000100: 2831 10bc 19d8 29be a052 2cbe bbee 11bd
00000110: 6589 4ebe 9530 31bd f06c 6c3d 8c9f 71be
00000120: 5b21 8ebe a9a5 e03c d561 263d 16be 4f3c
00000130: 74b9 f83e da68 e4be a052 a6be a857 0abc
00000140: 41ca 4ebe 629f e53d c458 653d 96c8 96bc
00000150: 6ac7 053d 93dc 033d 19f0 5bbd b05e a9bc
00000160: 1230 323e 476d 7a3e a159 173e e553 043d
00000170: c56f bd3c 7fde f83c c8bc dabc 39fa 353b
00000180: 787f 993d 8f11 383e e0ed 9c3e 7543 263c
00000190: 0471 053e 0892 203e 7c6d 01be be96 37be
000001a0: 1341 e43e 6688 e0bd d937 07be 80ad 89bd
000001b0: 4977 0ebd 34a2 593e 3c89 8d3d e495 a8bd
000001c0: e0a5 8cbd 4f3c dfbd 1e20 41be ef49 e63d
000001d0: a168 09be 0645 953d fea6 963d b71d 62be
000001e0: 7c1d b2be 2c07 abbd cb80 12bb 0533 06bf
000001f0: cd0c c33e eb5f f7bd e0ee 403d fe2a 143e
00000200: 0aba 593d aa7f 9dbd 889b 87bb 4e50 9f3e
00000210: 6042 8b3d 7ddc 9b3e c1b9 e1be a2c6 4c3e
00000220: 964b 1e3e 4832 e2bd 0308 eb3d 502e 833e
00000230: 57d6 05bd 0074 22bf 32bb 4dba 3c5b 1ebd
00000240: 653d 2ebd 304e 1c3e 16a9 633e fe26 27bf
00000250: a484 91be 24ed 763d c151 d9bd 91a7 d2be
00000260: 5b9f 0ebe 6f0d c9bc be53 f7bd 269a b0bc
00000270: 8cd9 523d a081 c4be 6d46 723e c66a 4ebf
00000280: d9c0 673d 59d7 0b3a daf4 89be 6093 093e
00000290: 2f53 e9bd d5e1 de3a f44a 96be 3925 843c
000002a0: a13d 903e 7b43 a13d 08db 5c3d 1819 77bd
000002b0: 1f6d 4bbc 676e 3f3e 711b e3bd 02d3 5fbd
000002c0: 2389 a7bd 4b19 d4be 372e 93be 5731 10bf
000002d0: 114d 25bf 7e6a e53e bf31 a2bb 9cec a3be
000002e0: a15b 423e 40d0 b1be f3ee 68bc 53d8 c43d
000002f0: 1534 cb3d 4ef4 0abe 3d84 95bd bc59 b73d
00000300: 49fa b8be 5c75 823e b428 ba3d 27c7 8f3d
00000310: 309c 0f3e 7810 20bf ef0e 923d 8bda eebe
00000320: 03bd 50bd 0fac 0dbd 2ab7 85be e715 823d
00000330: 5a93 5dbb 453c b0bc 5594 9f3d d8be 5ebd
00000340: 282e 0bbe 1cef cdbe 49a6 3f3e 0304 8bbe
00000350: da71 a63c 0d52 7f3d bfcf 0c3f 111d a43c
00000360: 8f34 c13d 0d60 72be 0845 afbe 8373 0f3c
00000370: c1b5 34bd 28c2 a83e b9e5 95be 40b9 0dbe
00000380: eaaf 56be b347 25bb c57c a1bd a2ad 65bd
00000390: 8baf 553e b58f a7be c6ad ce3d 263d d73d
000003a0: 3112 00be e172 7a3e 1365 16bc 3aa2 14bd
000003b0: d7e1 353e 1cef 053d 1fd7 2d3e 42a5 d7be
000003c0: d331 403e 9371 b4be 0c3c 913d 2665 6e3e
000003d0: 8351 0b3e 5d86 4b3e ff54 c1bd 0495 ec3d
000003e0: 048d f2be 7d1b bcbc 82bc 213d 8a03 a8bd
000003f0: 4140 d83b 52cd f33c 7915 d73e 6a19 c93c

2.bias f4 [256]
-0.067748055 0.012768273 -0.20224157 -0.02483691 -0.042233184 -0.13625133 -0.32119596 -0.065584294
0.025924006 -0.06793036 -0.20826237 -0.17217687 -0.1106109 -0.15405656 -0.032799166 -0.035758346
-0.06786976 -0.08320835 0.0030403184 -0.027439564 -0.17616448 -0.18408413 0.008899577 -0.27570927
0.013236706 -0.065996505 -0.05114828 -0.32596344 -0.060415767 -0.23882276 -0.37811083 -0.008599285
-0.04713379 -0.011330921 0.0419435 0.03404227 -0.1676684 -0.16235244 -0.014214318 -0.011879584
-0.015384433 -0.047259144 -0.05625139 0.0037234456 -0.031107008 -0.025231568 -0.03863665 -0.16908517
-0.09310096 -0.16665967 -0.13334706 -0.06197795 -0.06182283 -0.087373875 -0.25450614 -0.1532893
-0.08148618 0.03744493 0.18538925 -0.085123725 -0.028395612 -0.37832296 -0.15827215 -0.04765836
-0.0133552225 -0.12441609 -0.10119369 -0.0041627875 0.028601015 -0.076429665 -0.0068516945 -0.0047649345
-0.021509916 -0.019219255 -0.006003666 -0.055673514 0.06918081 -0.4351624 -0.14209616 0.0032069478
-0.07428971 -0.048520822 0.068118565 -0.10174634 0.048161585 -0.07078539 -0.003468445 -0.05623165
-0.06991004 -0.11830926 -0.00233074 0.04533936 -0.027044976 -0.04099308 -0.12347884 0.0022220537
-0.04277882 -0.09164862 0.09167074 -0.3987561 -0.012903578 -0.2243633 -0.078858435 0.01756528
-0.020502573 -0.02732142 -0.58923 -0.35915947 -0.04132464 -0.08374947 -0.115009695 0.01979079
-0.051729664 0.108241536 -0.020996766 0.05237358 -0.18796997 -0.010438546 -0.066604555 -0.48724332
-0.07832424 -0.66473883 -0.08272546 0.09774842 -0.3207175 0.010433602 -0.18598542 -0.062318496
0.0023305628 -0.059127845 -0.06894719 0.05231203 -0.15091589 -0.04166095 -0.34721076 -0.17114823
0.06004255 -0.09183567 -0.28210342 -0.26209405 -0.13893394 0.0071013086 -0.06268302 -0.1388098
0.0645821 -0.14320733 -0.078695446 -0.03298614 -0.59367645 -0.050539054 0.092156015 0.06674197
0.0032837626 0.07326448 -0.039436642 -0.017534217 -0.104511775 -0.23248903 -0.07164464 -0.19828801
-0.057345748 0.030997364 -0.19635116 -0.017516067 -0.14799652 0.019845393 -0.14800423 -0.3421452
-0.35222986 -0.54992473 -0.107315674 -0.0023161522 -0.007214509 0.0026015034 -0.016151495 0.008268904
-0.01158702 -0.03205367 -0.029011698 -0.33796814 -0.026893882 -0.09454431 -0.04149555 -0.08112435
-0.005280209 -0.057815637 -0.21246731 -0.109444864 -0.07644049 -0.039264064 -0.0028460475 0.012701704
-0.032658327 -0.01626179 -0.07640551 0.00931378 -0.2812903 -0.24056616 -0.00809745 0.09829657
-0.14920494 -0.009558018 0.033191957 -0.040482607 0.019540492 0.028705113 -0.013365986 -0.0528367
-0.6049409 -0.023012288 -0.12893699 -0.072965555 -0.040019955 0.011688913 -0.3807033 -0.108006924
-0.059667822 0.0005475047 -0.01613622 -0.019435517 -0.06548436 0.024167752 -0.05894402 0.12599649
-0.091095544 -0.035371326 -0.0021129504 -0.13305384 -0.056953322 -0.069396675 -0.049809907 -0.11895675
0.022093387 -0.0027722523 -0.11369063 -0.12406513 -0.10359277 -0.12086806 -0.041572608 -0.4572551
-0.1536533 0.11221724 -0.058377862 -0.06170078 -0.10202969 -0.09442069 -0.05172824 -0.13336486
-0.06924281 -0.011564536 0.023923106 -0.1500747 -0.09896594 -0.16588317 -0.44057915 0.104531415
00000000: 7ebf 8abd 0532 513c 6a18 4fbe c776 cbbc
00000010: b4fc 2cbd 7885 0bbe cc73 a4be 0f51 86bd
00000020: 955e d43c 131f 8bbd bb42 55be 224f 30be
00000030: f887 e2bd 01c1 1dbe 6b58 06bd 5877 12bd
00000040: 4dff 8abd 2469 aabd 1440 473b f0c8 e0bc
00000050: 7664 34be 8d80 3cbe 88cf 113c c429 8dbe
00000060: c5de 583c 2d29 87bd dc80 51bd aee4 a6be
00000070: 8676 77bd f48d 74be be97 c1be 04e4 0cbc
00000080: 5c0f 41bd 54a5 39bc f3cc 2b3d e86f 0b3d
00000090: 44b1 2bbe b83f 26be 2ce3 68bc 96a2 42bc
000000a0: fd0e 7cbc ce92 41bd dc67 66bd 0d05 743b
000000b0: 20d4 febc 6fb2 cebc 7741 1ebd aa24 2dbe
000000c0: b7ab bebd d5a8 2abe 228c 08be 97dc 7dbd
000000d0: f039 7dbd 13f1 b2bd a14e 82be dff7 1cbe
000000e0: 3ae2 a6bd db5f 193d aed6 3d3e 5955 aebd
000000f0: ea9d e8bc 8cb3 c1be 1812 22be 6a35 43bd
00000100: ddcf 5abc ddcd febd a33e cfbd fe67 88bb
00000110: ad4c ea3c 2887 9cbd 2e84 e0bb 2b23 9cbb
00000120: 9035 b0bc b371 9dbc 67ba c4bb e909 64bd
00000130: abae 8d3d 9bcd debe a881 11be a82b 523b
00000140: 3425 98bd c5bd 46bd bf81 8b3d 6360 d0bd
00000150: 1545 453d eef7 90bd da4e 63bb 2953 66bd
00000160: ff2c 8fbd 204c f2bd 54bf 18bb c4b5 393d
00000170: 6d8d ddbc 5ce8 27bd 79e2 fcbd e09f 113b
00000180: d838 2fbd 46b2 bbbd debd bb3d c229 ccbe
00000190: 8769 53bc 7ebf 65be 8880 a1bd 10e5 8f3c
000001a0: 03f5 a7bc 2cd1 dfbc c7d7 16bf c0e3 b7be
000001b0: 0744 29bd d884 abbd 348a ebbd 4b20 a23c
000001c0: 7ce2 53bd bdad dd3d 6901 acbc ae85 563d
000001d0: 337b 40be 6f06 2bbc f867 88bd f577 f9be
000001e0: 7668 a0bd 532c 2abf f76b a9bd 5330 c83d
000001f0: 1635 a4be b3f1 2a3c f672 3ebe ae41 7fbd
00000200: 5bbc 183b 0a30 72bd 2f34 8dbd 2445 563d
00000210: b289 1abe aca4 2abd 9cc5 b1be 7b41 2fbe
00000220: 2def 753d 5714 bcbd dc6f 90be 3131 86be
00000230: b344 0ebe 18b2 e83b f55f 80bd 2824 0ebe
00000240: 9f43 843d f1a4 12be 142b a1bd 7a1c 07bd
00000250: 2efb 17bf 0a02 4fbd 4bbc bc3d 04b0 883d
00000260: 6534 573b b00b 963d 5188 21bd eba3 8fbc
00000270: 450a d6bd 9b11 6ebe 6dba 92bd 030c 4bbe
00000280: 60e3 6abd 2fee fd3c 4710 49be db7d 8fbc
00000290: 668c 17be ce92 a23c 6c8e 17be a82d afbe
000002a0: 7957 b4be dec7 0cbf 52c8 dbbd 96ca 17bb
000002b0: b067 ecbb fc7d 2a3b 2450 84bc 4c7a 073c
000002c0: 7cd7 3dbc b64a 03bd f1a9 edbc 290a adbe
000002d0: 8f50 dcbc 72a0 c1bd 3df7 29bd 8624 a6bd
000002e0: 9a05 adbb 17d0 6cbd 0891 59be a124 e0bd
000002f0: d58c 9cbd 5bd3 20bd c184 3abb cf1a 503c
00000300: bdc4 05bd 7237 85bc 7e7a 9cbd d398 183c
00000310: 4805 90be fa56 76be 2bab 04bc b64f c93d
00000320: 2ec9 18be 3c99 1cbc 4af4 073d 17d1 25bd
00000330: 6213 a03c fc26 eb3c 02fd 5abc 4c6b 58bd
00000340: 68dd 1abf 4484 bcbc 0f08 04be f76e 95bd
00000350: f7eb 23bd db82 3f3c 8beb c2be bc32 ddbd
00000360: 3f66 74bd 6b86 0f3a 1b30 84bc 3c37 9fbc
00000370: aa1c 86bd 73fb c53c 496f 71bd 3905 013e
00000380: 4d90 babd 86e1 10bd 6d79 0abb 443f 08be
00000390: e347 69bd d81f 8ebd 7905 4cbd 999f f3bd
000003a0: 31fd b43c adae 35bb a2d6 e8bd dc15 febd
000003b0: 7228 d4bd ac89 f7bd 0a48 2abd 571d eabe
000003c0: 4a57 1dbe 27d2 e53d a01d 6fbd f5b9 7cbd
000003d0: f1f4 d0bd a25f c1bd fee0 53bd cc90 08be
000003e0: 2dcf 8dbd 2e79 3dbc 64fa c33c 2fad 19be
000003f0: a8ae cabd 47dd 29be 9793 e1be 9114 d63d

4.weight f4 [256, 256]
0.011271414 0.0536513 0.042670008 0.011187816 -0.09383786 -0.01180483 -0.041080497 0.035515044
0.00858672 0.03765769 -0.035751387 -0.032296102 0.097923845 0.062114365 0.00459183 0.11025778
-0.04998679 -0.020665323 0.035408717 -0.0032824776 -0.22781724 0.008757071 -0.07330407 0.031933863
-0.0053716726 0.03186047 0.023817262 0.043406203 -0.055282056 0.09897848 0.02161607 -0.012523573
0.056050576 0.045444023 0.045726176 -0.02682987 0.0467857 0.10514036 0.028151825 0.048370436
0.10054732 0.05946544 0.11570806 -0.10807667 -0.024243733 0.02332262 -0.035670806 0.020372946
0.0050403816 0.12566029 0.3669902 -0.04745513 0.05060486 0.00781824 -0.031316537 0.023192482
0.043128725 0.04921744 0.116077445 -0.0037033542 -0.061131515 0.044557054 0.041087236 -0.03354688
-0.032991186 -0.016877051 -0.0304941 -0.012146339 0.08317479 0.039084494 -0.05466839 -0.017090736
-0.01640613 0.037404995 -0.01617199 0.14817062 0.061043717 0.2317982 -0.005005839 -0.005364446
-0.018283514 0.056583792 0.06541144 0.052067608 -0.13829719 0.0018915414 0.012770975 -0.1785924
-0.07946106 -0.04688741 -0.029807724 -0.02076113 -0.022811469 0.027851213 0.035164308 0.02665842
0.028590694 0.22343276 -0.024470968 0.20888045 -0.050348803 -0.035263084 0.034117933 0.117724456
0.057863344 0.12311654 0.20411289 -0.032451652 0.09036121 0.1090584 0.11072453 -0.032836415
-0.0059704497 0.10709979 0.0013910235 0.045608178 0.03395359 -0.01150862 -0.06087006 0.14749993
-0.025524663 -0.24697645 -0.07445689 -0.04776304 0.047025897 0.12920696 -0.009019902 0.15405355
-0.021689558 -0.029986251 0.024237162 -0.050385546 0.12715313 0.092816 -0.16852994 0.019334948
-0.34444705 -0.020348014 0.18970963 -0.03098697 -0.08068073 0.12069131 -0.010702376 -0.02503412
-0.022096524 0.09945587 -0.016214764 0.00080965186 0.010344847 0.08890374 0.09746087 0.14340258
-0.0068095014 0.05598643 -0.0064916452 -0.0071621607 0.051765334 0.04022302 0.06867976 0.027424186
0.018422548 -0.014055851 0.21279292 0.11264163 0.027376885 0.13199027 0.04289884 -0.0026024114
0.1071743 0.024273854 0.052077148 -0.028169153 0.039097223 0.20355205 0.0186506 0.017060056
-0.06510226 -0.012618048 -0.062245354 0.02078653 0.04150918 0.051985595 0.18230283 -0.067743145
-0.01599081 -0.059656687 -0.036734115 0.0872324 0.076868154 -0.026956528 0.017053278 0.12088936
0.015412109 -0.104893126 -0.008694946 -0.0111391125 -0.059515588 -0.11605856 0.027184105 -0.025911182
-0.0062161493 -0.047515426 0.039704096 0.012174615 0.04398448 -0.018728545 -0.09308875 0.14472893
0.048294134 0.03285621 0.1023202 0.012867636 -0.011379486 0.00490401 0.031855293 0.054588076
0.012679074 -0.014007455 0.014245524 0.023835568 0.23436934 0.0075448565 -0.023647167 0.044265106
-0.023467548 0.042323686 0.036346648 0.069005005 -0.008800984 0.013999477 0.045340117 0.019316427
0.034662858 0.107599996 -0.026493784 -0.011521716 0.03395788 -0.051506046 0.09833243 0.0010036065
-0.10998849 0.062001366 0.12034251 0.058558736 0.031267475 -0.041450754 -0.042107966 -0.17041807
0.05374884 0.018895347 -0.11634221 -0.01893267 0.015368605 -0.0022243443 -0.23613589 -0.021562777
00000000: bdab 383c 77c1 5b3d bfc6 2e3d 1a4d 373c
00000010: 102e c0bd 0c69 41bc 0644 28bd 3978 113d
00000020: 50af 0c3c f33e 1a3d 0c70 12bd eb48 04bd
00000030: 4c8c c83d a26b 7e3d 1077 963b d5ce e13d
00000040: f3be 4cbd 534a a9bc bb08 113d d61e 57bb
00000050: ec48 69be d179 0f3c 7220 96bd 15cd 023d
00000060: db04 b0bb 2080 023d 6b1c c33c b4ca 313d
00000070: 706f 62bd 3bb5 ca3d 2f14 b13c ac2f 4dbc
00000080: 4a95 653d 8323 3a3d 5f4b 3b3d 51ca dbbc
00000090: 5da2 3f3d d453 d73d a89e e63c 1420 463d
000000a0: c1eb cd3d 0992 733d 59f8 ec3d 4d57 ddbd
000000b0: cb9a c6bc 140f bf3c 8d1b 12bd 2ae5 a63c
000000c0: c929 a53b 17ad 003e 24e6 bb3e 4f60 42bd
000000d0: 0b47 4f3d 1318 003c c545 00bd 29fe bd3c
000000e0: bfa7 303d 3a98 493d 03ba ed3d f9b3 72bb
000000f0: 0a65 7abd 7581 363d 174b 283d 7468 09bd
00000100: c421 07bd be41 8abc c3ce f9bc 7001 47bc
00000110: 8b57 aa3d 1017 203d f6eb 5fbd df01 8cbc
00000120: 2666 86bc fb35 193d 1f7b 84bc 0aba 173e
00000130: fa08 7a3d 825c 6d3e 0508 a4bb 3cc8 afbb
00000140: 4fc7 95bc 68c4 673d 6ff6 853d d844 553d
00000150: c79d 0dbe 99ed f73a 5a3d 513c ede0 36be
00000160: 7bbc a2bd 030d 40bd 542f f4bc 3f13 aabc
00000170: 1edf babc 3a28 e43c 7308 103d c262 da3c
00000180: 0837 ea3c 8fcb 643e 5777 c8bc c2e4 553e
00000190: 8c3a 4ebd 0670 10bd 3fbf 0b3d 8519 f13d
000001a0: 1d02 6d3d 8624 fc3d f802 513e 06ec 04bd
000001b0: 4c0f b93d 035a df3d 8bc3 e23d 7a7f 06bd
000001c0: c3a3 c3bb 2257 db3d 0153 b63a a4cf 3a3d
000001d0: eb12 0b3d a78e 3cbc e252 79bd 390a 173e
000001e0: 1919 d1bc 65e7 7cbe db7c 98bd 2da3 43bd
000001f0: 3a9e 403d d44e 043e 36c8 13bc 37c0 1d3e
00000200: 4dae b1bc baa5 f5bc 038d c63c 1361 4ebd
00000210: 6e34 023e 5116 be3d 1d93 2cbe 5364 9e3c
00000220: 5d5b b0be e1b0 a6bc 3e43 423e 63d8 fdbc
00000230: f03b a5bd 012d f73d 0559 2fbc 5b14 cdbc
00000240: c503 b5bc 85af cb3d d3d4 84bc d13e 543a
00000250: 6f7d 293c 2a13 b63d 9199 c73d 20d8 123e
00000260: 3d22 dfbb 0752 653d deb7 d4bb 8fb0 eabb
00000270: e307 543d e5c0 243d f9a7 8c3d b0a8 e03c
00000280: e2ea 963c 834a 66bc 63e6 593e a8b0 e63d
00000290: 7d45 e03c 7528 073e b2b6 2f3d 388d 2abb
000002a0: 337e db3d f6d9 c63c d94e 553d ffc2 e6bc
000002b0: 6924 203d f36f 503e 25c9 983c 88c1 8b3c
000002c0: 5554 85bd eebb 4ebc fcf4 7ebd 8348 aa3c
000002d0: 8805 2a3d d9ee 543d 98ad 3a3e ebbc 8abd
000002e0: 29ff 82bc 925a 74bd 8376 16bd e7a6 b23d
000002f0: 0d6d 9d3d f0d3 dcbc 51b3 8b3c d794 f73d
00000300: 1283 7c3c 35d2 d6bd 3f75 0ebc d380 36bc
00000310: 9ec6 73bd 1cb0 edbd 33b1 de3c b043 d4bc
00000320: d7b0 cbbb 899f 42bd c3a0 223d 0978 473c
00000330: 1229 343d 9b6c 99bc 51a5 bebd d233 143e
00000340: 12d0 453d 3c94 063d 418d d13d c7d2 523c
00000350: 0671 3abc d1b1 a03b b27a 023d bf97 5f3d
00000360: e4bb 4f3c 867f 65bc 0f66 693c cf42 c33c
00000370: 84fe 6f3e d83a f73b b4b7 c1bc 544f 353d
00000380: 043f c0bc 9a5b 2d3d 39e0 143d 7f52 8d3d
00000390: 0132 10bc 105e 653c 8fb6 393d 7c3d 9e3c
000003a0: a4fa 0d3d 635d dc3d 7e09 d9bc 94c5 3cbc
000003b0: 6b17 0b3d 01f8 52bd 8362 c93d 728b 833a
000003c0: a541 e1bd 25f5 7d3d 2276 f63d 49db 6f3d
000003d0: 5312 003d 44c8 29bd 6779 2cbd 1382 2ebe
000003e0: be27 5c3d 6aca 9a3c d344 eebd b018 9bbc
000003f0: 9acc 7b3c 4ec6 11bb 9bcd 71be 6ca4 b0bc

4.bias f4 [256]
-0.019912228 -0.026321406 -0.12611912 -0.035299223 -0.07600663 0.063794866 -0.06781616 -0.67997724
-0.030291501 -0.16118987 -0.12173387 0.11139065 -0.057338092 -0.16944589 -0.33534962 -0.0085155545
-0.6698631 -0.080171995 -0.07734958 0.08115559 -0.046210527 -0.3815117 -0.048006672 0.014662796
-0.028398156 -0.19756065 -0.84394985 -0.0009089147 -0.17634086 -0.021007527 -0.1603173 0.013376419
-0.041461304 -0.10368533 0.10843539 -0.0685005 -0.005907289 -0.3745268 -0.07679127 -0.73436606
0.023420202 0.0069249 0.05742222 -0.05259843 0.06383836 -0.73051363 -0.051599093 -0.18038075
0.025377633 -0.31324258 0.0016828816 -0.34610727 -0.13405094 -0.0376907 -0.06026965 -0.20182426
-0.0636938 -0.024530316 -0.18552478 -0.2204849 -0.12214402 -0.018168546 -0.24096392 -0.039174758
-0.010165089 -0.032754835 -0.03151534 0.094820745 -0.05711359 -0.21094666 -0.09034337 -0.15727285
-0.07928859 -0.13640657 -0.16296797 -0.20353699 -0.010538126 0.12196225 -0.50487536 -0.968928
-0.26555493 -0.030209163 -0.034782 0.01735539 -0.20143546 -0.053514436 -0.32196417 -0.030050082
-0.7695901 0.07014886 0.0068052546 0.027692901 -0.19274373 -0.021449585 -0.06916003 -0.08259493
-0.08967713 -0.15135826 -0.114576116 -0.40019897 -0.06172766 -0.04430799 -0.9001095 -0.20997706
-0.13397877 -0.13805026 -0.0760076 -0.009163933 -0.05008255 -0.01733268 -0.12994045 -0.13069671
0.05913954 -0.04964296 -0.079619154 -0.04632798 -0.26532266 -0.033729196 -0.066240825 -0.032939654
-0.04640653 0.016007578 0.03220153 0.00603407 -0.40297446 -0.047343325 -0.030456752 -0.044939063
-0.6926204 -0.082790606 0.057344284 0.015764361 -0.05968715 -0.20357595 -0.029196514 0.07231195
-0.012503569 -0.21033098 -0.07541988 -0.09536424 -0.03009102 -0.45649225 -0.0003065915 -0.05580864
-0.13580474 -0.403582 -0.056630548 -0.14736144 0.01770131 -0.11077778 -0.0041481405 -0.7510222
-0.07598017 0.017520506 0.07246009 -0.07424453 0.022097157 -0.21746838 0.023942027 -0.07904831
-0.0065798294 -0.18659943 -0.0505658 -0.055986207 -0.045648135 0.069812834 -0.0675578 -0.053061277
-0.05521333 -0.1735074 -0.9302966 -0.09706811 -0.061126113 0.011306341 -0.07937471 0.005002969
-0.06409535 0.08593 -0.08463034 -0.76894313 -0.094826385 -0.12719928 -0.22197464 -0.04294272
0.02687657 -0.026291799 -0.2046351 -0.16415226 -0.062216837 0.031214941 -0.8389861 -0.071356505
-0.2250083 -0.043060996 0.121377826 0.029864315 -0.1475374 -0.0883426 0.05541602 -0.052043974
-0.381509 0.023044413 -0.27099225 -0.1356829 0.05239578 -0.09690006 -0.03371064 -0.014825873
0.04139493 -0.051772535 -0.053212542 -0.2202659 -0.023839345 -0.1701133 -0.0370033 0.0007974545
-0.5235061 0.020832207 -0.0674681 -0.072096415 0.022272943 0.018089898 -0.16587721 -0.12602827
-0.093669645 -0.64901704 -0.21955243 -0.2074419 -0.042953305 -0.86956507 -0.045521382 -0.034925718
-0.2693485 -0.09431074 0.015630974 -0.7289988 0.004064585 -0.30658612 -0.057142347 -0.023291547
-0.096500926 -0.036241595 -0.045038797 -0.038188763 -0.076388545 -0.07083339 -0.049616493 -0.012863273
-0.08907502 0.061026104 0.055972125 -0.17181307 -0.15482987 -0.070310004 -0.32586765 -0.17356198
00000000: f81e a3bc fd9f d7bc 5f25 01be eb95 10bd
00000010: 5da9 9bbd e2a6 823d 33e3 8abd fd12 2ebf
00000020: e225 f8bc f50e 25be 9b4f f9bd c820 e43d
00000030: 59db 6abd 3983 2dbe f2b2 abbe d384 0bbc
00000040: 267c 2bbf 3731 a4bd 7569 9ebd e734 a63d
00000050: 4047 3dbd 8055 c3be a5a2 44bd 393c 703c
00000060: 40a3 e8bc 574d 4abe 190d 58bf 3c44 6eba
00000070: b392 34be fa17 acbc 382a 24be c528 5b3c
00000080: 54d3 29bd f958 d4bd 6013 de3d fd49 8cbd
00000090: ef91 c1bb fac1 bfbe be44 9dbd 6aff 3bbf
000000a0: b9db bf3c 46ea e23b 9033 6b3d 7471 57bd
000000b0: b0bd 823d f102 3bbf 9259 53bd bbb5 38be
000000c0: c1e4 cf3c 5561 a0be 2394 dc3a f934 b1be
000000d0: a644 09be 9061 1abd 4fdd 76bd 05ab 4ebe
000000e0: e571 82bd cdf3 c8bc 35fa 3dbe cbc6 61be
000000f0: a526 fabd 34d6 94bc 3fbf 76be b675 20bd
00000100: 798b 26bc ef29 06bd 3b16 01bd 6131 c23d
00000110: f1ef 69bd 6702 58be f205 b9bd 220c 21be
00000120: 0e62 a2bd 2aae 0bbe 13e1 26be 006c 50be
00000130: 1ba8 2cbc 58c7 f93d 833f 01bf aa0b 78bf
00000140: d1f6 87be 3579 f7bc 9277 0ebd e42c 8e3c
00000150: 1945 4ebe f431 5bbd 7dd8 a4be 972b f6bc
00000160: db03 45bf 35aa 8f3d 9dfe de3b 39dc e23c
00000170: 9d5e 45be 0ab7 afbc c6a3 8dbd 8827 a9bd
00000180: a5a8 b7bd a9fd 1abe e2a6 eabd e1e6 ccbe
00000190: 25d6 7cbd 4c7c 35bd 946d 66bf 3a04 57be
000001a0: bb31 09be 0c5d 0dbe dfa9 9bbd 5224 16bc
000001b0: 5c23 4dbd 44fd 8dbc 1c0f 05be 5cd5 05be
000001c0: 4d3c 723d 6b56 4bbd 5e0f a3bd 68c2 3dbd
000001d0: 5fd8 87be a027 0abd 45a9 87bd bbeb 06bd
000001e0: c614 3ebd 5322 833c c0e5 033d 73b9 c53b
000001f0: ab52 cebe 13eb 41bd 7080 f9bc 0612 38bd
00000200: 924f 31bf 1f8e a9bd d7e1 6a3d 4324 813c
00000210: 837a 74bd 3776 50be 872d efbc 4a18 943d
00000220: c5db 4cbc 0161 57be bd75 9abd 544e c3bd
00000230: 7181 f6bc 5ab9 e9be 04be a0b9 9a97 64bd
00000240: 6610 0bbe 4da2 cebe 6ff5 67bd ebe5 16be
00000250: 5602 913c 76df e2bd 20ed 87bb fe42 40bf
00000260: 7e9b 9bbd 2a87 8f3c f565 943d 840d 98bd
00000270: 1905 b53c 08b0 5ebe 1222 c43c 15e4 a1bd
00000280: 9c9b d7bb ec13 3fbe 161e 4fbd cb51 65bd
00000290: 8af9 3abd 08fa 8e3d be5b 8abd c856 59bd
000002a0: 5f27 62bd edab 31be eb27 6ebf a5cb c6bd
000002b0: 605f 7abd 3b3e 393c 358f a2bd f2ef a33b
000002c0: 6c44 83bd 11fc af3d ac52 adbd 75d9 44bf
000002d0: 5634 c2bd 8740 02be 524d 63be b5e4 2fbd
000002e0: 412c dc3c e661 d7bc dd8b 51be 8817 28be
000002f0: 15d7 7ebd 7ab6 ff3c cbc7 56bf 5c23 92bd
00000300: 9368 66be ba60 30bd f094 f83d 02a6 f43c
00000310: 0b14 17be f7ec b4bd e9fb 623d 102c 55bd
00000320: 2655 c3be a3c7 bc3c 7fbf 8abe 75f0 0abe
00000330: f59c 563d 8a73 c6bd 2b14 0abd 38e8 72bc
00000340: bb8d 293d 700f 54bd 65f5 59bd 628d 61be
00000350: bb4a c3bc 2e32 2ebe c690 17bd 440c 513a
00000360: 7f04 06bf 4ea8 aa3c b72c 8abd 49a7 93bd
00000370: bf75 b63c 4431 943c b7db 29be 8e0d 01be
00000380: dfd5 bfbd fb25 26bf 5ad2 60be a66b 54be
00000390: ceef 2fbd d19b 5ebf a174 3abd 450e 0fbd
000003a0: 0ce8 89be fd25 c1bd 870c 803c aa9f 3abf
000003b0: 3630 853b dbf8 9cbe 180e 6abd eacd bebc
000003c0: 47a2 c5bd 1172 14bd 9a7a 38bd d26b 1cbd
000003d0: 9971 9cbd 1911 91bd aa3a 4bbd 7ac0 52bc
000003e0: f76c b6bd 82f6 793d 0743 653d c4ef 2fbe
000003f0: b98b 1ebe b1fe 8fbd 20d8 a6be 3bba 31be

6.weight f4 [4, 256]
0.019129666 0.024422262 -0.23027931 0.013916577 -0.23531938 -0.14595324 0.32401988 0.014734673
-0.03581093 -0.078231834 0.030487144 -0.026964132 -0.035990532 -0.15677902 -0.09882022 0.014258985
0.010167009 -0.11234597 0.014657104 -0.02679858 0.29774663 -0.0023973421 0.4587052 0.04119823
-0.049613945 -0.0017494172 -1.0027443 -0.019054012 -0.005425605 -0.019498447 -0.14205122 -0.010920452
0.035712544 -0.075706616 -0.03309365 0.021426471 -0.04396149 -0.27617255 -0.003911797 -0.010403189
0.006299611 0.030565633 -0.054844994 -0.3202238 -0.014478654 0.20333259 0.052022826 0.011072033
-0.010374807 -0.23508851 0.000895559 0.023105327 0.044955436 0.055719905 0.045997795 0.017306048
0.27062827 0.46823433 0.018420096 0.020062057 -0.08092755 -0.062444787 0.071931764 0.30520198
-0.0034795955 0.011818634 -0.016404416 -0.025715254 -0.007640619 0.06762935 0.01764357 -0.23811018
0.014415639 -0.16159832 0.19669838 0.02712237 -0.030693395 -0.034815136 0.009223794 -0.0025899997
0.12944303 -0.38100788 -0.030979278 -0.21978496 0.018034589 0.17415136 -0.008413701 0.011560189
0.0068754065 -0.013729147 -0.019170752 -0.00279962 -0.0017123073 0.029596305 0.012302394 -0.008253407
0.19353451 -0.1164243 -0.060898118 -0.005250896 0.04414277 0.032991316 0.0031320287 -0.0706506
-0.052227966 -0.259264 -0.028129015 -0.0071126125 -0.021730013 -0.02535369 0.033612065 0.021935811
0.08035014 0.0123096565 -0.13568485 0.01126305 -0.06993003 -0.0057689687 -0.056044158 0.17510866
0.009884482 0.03263906 0.018238077 0.045362905 0.022025608 0.09773379 -0.091690965 0.02374156
0.0057849614 0.00404479 -0.15725368 0.029437969 0.0043927496 0.017382981 0.011448552 -0.019210422
0.043945372 0.012440162 -0.07326316 -0.08352257 -0.06508898 0.002329683 -0.052847344 -0.046755563
0.00096112554 -0.0067863083 0.007539562 -0.06663341 0.0001587299 0.017001066 -0.016245585 0.021773268
0.117838696 0.0007778582 -0.014838145 0.04067683 0.00299033 -0.0036257952 -0.014859561 -0.0134623675
0.04742354 0.41736555 -0.030183455 0.018124674 -0.025242098 -0.02148942 0.027624661 0.032093912
-0.051555738 0.16156234 -0.0004528052 0.37843618 0.01012208 -0.020523284 0.032412898 -0.04791395
-0.017050764 -0.008162495 0.011463967 0.004085386 -0.032493334 -0.26488915 0.07205956 -0.050983228
-0.055574022 -0.031019622 0.0029980307 0.034025196 3.755368e-05 -0.004672318 -0.0011743992 -0.00220685
0.05605506 -0.034431886 -0.059949804 0.005110089 -0.029285094 0.00022305208 -0.029274499 -0.16890593
-0.0007628747 0.028317256 0.01966146 0.01867935 -0.009560421 -0.07405492 0.03662042 0.038195904
-0.04779042 0.023188239 0.05623758 -0.018813884 0.019666461 0.4784508 0.017951943 0.035495274
0.0038745971 -0.0031759574 -0.02677974 -0.026217123 -0.031591035 -0.0021760555 0.061293893 -0.051028337
0.057656962 0.0024342241 0.29498163 -0.3054541 0.014208336 -1.3498381 0.02601833 -0.0032264048
-0.07174018 -0.01327819 -0.010735424 0.8150714 -0.029294688 0.003342366 0.065880656 -0.043455057
-0.15733619 -0.087556064 -0.0071538715 -0.014314538 0.02577623 0.020133335 -0.0012843614 -0.005243882
-0.031197557 0.0072355284 -0.10396007 -0.1104407 0.015220706 -0.008580905 -0.19869666 -0.18393905
00000000: d1b5 9c3c 3211 c83c 57ce 6bbe 5b02 643c
00000010: 90f7 70be c474 15be efe5 a53e b369 713c
00000020: 7bae 12bd 0338 a0bd 2dc0 f93c e2e3 dcbc
00000030: cf6a 13bd ae8a 20be 4162 cabd 859e 693c
00000040: 8793 263c a515 e6bd 5a24 703c b288 dbbc
00000050: 3f72 983e ba1c 1dbb 68db ea3e 7abf 283d
00000060: fe37 4bbd b34c e5ba ed59 80bf 2917 9cbc
00000070: 46c9 b1bb 35bb 9fbc e075 11be b2eb 32bc
00000080: 5147 123d 120c 9bbd 358d 07bd 9186 af3c
00000090: f710 34bd 7d66 8dbe 882e 80bb 2372 2abc
000000a0: f86c ce3b c764 fa3c 25a5 60bd 60f4 a3be
000000b0: e037 6dbc 6b36 503e e315 553d 7967 353c
000000c0: 18fb 29bc 0bbb 70be f2c3 6a3a 6247 bd3c
000000d0: 3123 383d 8e3a 643d 2f68 3c3d 6ac5 8d3c
000000e0: ca8f 8a3e 69bc ef3e bee5 963c 2f59 a43c
000000f0: 58bd a5bd 1bc6 7fbd f650 933d 6f43 9c3e
00000100: ed09 64bb f2a2 413c 8e62 86bc cca8 d2bc
00000110: 285e fabb 4281 8a3d 4089 903c 28d3 73be
00000120: 932f 6c3c 087a 25be 4d6b 493e bc2f de3c
00000130: b770 fbbc 519a 0ebd 651f 173c fcbc 29bb
00000140: b78c 043e 7713 c3be 41c8 fdbc 4f0f 61be
00000150: 46bd 933c bc54 323e 9fd9 09bc f266 3d3c
00000160: 174b e13b 37f0 60bc fb0b 9dbc d479 37bb
00000170: 806f e0ba f373 f23c fb8f 493c 4c39 07bc
00000180: e92d 463e dd6f eebd 4e70 79bd b50f acbb
00000190: 0dcf 343d e721 073d b942 4d3b 43b1 90bd
000001a0: feec 55bd 40be 84be d26e e6bc eb10 e9bb
000001b0: 2403 b2bc 8bb2 cfbc ceac 093d bbb2 b33c
000001c0: 9d8e a43d 71ae 493c f8f0 0abe a888 383c
000001d0: 7a37 8fbd 9e09 bdbb 8f8e 65bd af4f 333e
000001e0: 86f2 213c 89b0 053d 0568 953c 74ce 393d
000001f0: 0c6f b43c a728 c83d 79c8 bbbd a97d c23c
00000200: c68f bd3b 288a 843b 1c07 21be e527 f13c
00000210: 0ef1 8f3b c166 8e3c b592 3b3c 2d5f 9dbc
00000220: 1000 343d d2d1 4b3c ff0a 96bd e20d abbd
00000230: 5f4d 85bd 98ad 183b 7576 58bd c382 3fbd
00000240: 0bf4 7b3a ae5f debb 6e0e f73b 1977 88bd
00000250: bc70 2639 d245 8b3c 7615 85bc da5d b23c
00000260: 6a55 f13d 2ee9 4b3a b11b 73bc bf9c 263d
00000270: 6af9 433b c09e 6dbb 8475 73bc 4391 5cbc
00000280: 303f 423d f0b0 d53e 4b43 f7bc 327a 943c
00000290: 84c8 cebc 950a b0bc 1d4d e23c e874 033d
000002a0: 1c2c 53bd 9970 253e 7c66 edb9 63c2 c13e
000002b0: 15d7 253c 7220 a8bc 63c3 043d 6b41 44bd
000002c0: 0bae 8bbc fcbb 05bc 5dd3 3b3c b4de 853b
000002d0: bb17 05bd 8d9f 87be f693 933d cad3 50bd
000002e0: 96a1 63bd dd1c febc 9c7a 443b 015e 0b3d
000002f0: f582 1d38 3f1a 99bb 4cee 99ba cda0 10bb
00000300: fe99 653d 7308 0dbd ed8d 75bd 8972 a73b
00000310: 4be7 efbc 16e3 6939 13d1 efbc adf5 2cbe
00000320: a8fb 47ba 97f9 e73c 1211 a13c 7005 993c
00000330: 50a3 1cbc 1baa 97bd 4bff 153d 4f73 1c3d
00000340: e3bf 43bd 43f5 bd3c 6059 663d 931f 9abc
00000350: 8f1b a13c 81f7 f43e f40f 933c 7e63 113d
00000360: f4ec 7d3b b923 50bb 2f61 dbbc 4bc5 d6bc
00000370: 9a65 01bd 279c 0ebb 4e0f 7b3d 1703 51bd
00000380: b529 6c3d 8187 1f3b d507 973e 7b64 9cbe
00000390: 15ca 683c 7fc7 acbf 6524 d53c 1772 53bb
000003a0: 84ec 92bd c48c 59bc a2e3 2fbc 85a8 503f
000003b0: 6afb efbc 990b 5b3b 70ec 863d eefd 31bd
000003c0: bd1c 21be 9850 b3bd 066b eabb 8687 6abc
000003d0: ac28 d33c aaee a43c 0458 a8ba dfd4 abbb
000003e0: 0592 ffbc 0318 ed3b 04e9 d4bd bc2e e2bd
000003f0: 4560 793c ed96 0cbc 2377 4bbe 855a 3cbe

6.bias f4 [4]
-0.047134053 -0.026767122 0.029115064 0.05237324
00000000: a30f 41bd b946 dbbc b782 ee3c 5385 563d
