models/Reach/rl/4/20-57-15_Reach_Panda_JOINT_VELOCITY_TD3/models/step_0860000/inv_dyn.pt (torch, 542861 bytes, 8 tensors)

0.weight f4 [256, 8]
0	0x3e1df9a9	0.15427269
1	0xbea30348	-0.3183844
2	0x3d33ca2c	0.043893978
3	0x3f0416d6	0.51597345
4	0xbe2ea8ed	-0.17056628
5	0x3e9141ce	0.28370517
6	0xbd0f2789	-0.034949813
7	0xbf0002ee	-0.5000447
8	0x3e22fe67	0.1591736
9	0x3e9a0852	0.30084473
10	0xbe58a16c	-0.21155328
11	0x3e20e3c7	0.1571189
12	0xbe8630f8	-0.26209235
13	0xbe5e736d	-0.21723719
14	0xbee1e78a	-0.44121963
15	0xbcdc138f	-0.026864795
16	0x3e047478	0.12935054
17	0xbe966b9e	-0.2937898
18	0x3c6d62cc	0.014488887
19	0x3e728817	0.23684727
20	0xbe94c35a	-0.2905529
21	0xbebfbd4f	-0.37449118
22	0x3d839a9e	0.06425975
23	0xbe9eebc3	-0.31039247
24	0x3e3eaf5a	0.18621579
25	0x3e417be6	0.1889492
26	0xbdf4e916	-0.1195852
27	0x3e81345b	0.25235257
28	0x3d40c3df	0.047061797
29	0xbe3e2f19	-0.18572654
30	0xbe3894c6	-0.18025503
31	0x3eedfcf0	0.46482038
32	0xbd24d367	-0.04024067
33	0x3f0e580d	0.55603105
34	0x3e081c55	0.13292058
35	0xbd53d1be	-0.051713698
36	0x3bae27e9	0.0053148163
37	0xbf0d9c71	-0.55316836
38	0x3d55cadd	0.05219542
39	0x3d5eb101	0.054368023
40	0xbd5ddcc8	-0.05416563
41	0x3eb9cac6	0.36287516
42	0x3f1247a7	0.5714058
43	0x3e60927d	0.21930881
44	0x3daa73cb	0.08322867
45	0xbe811215	-0.25209108
46	0xbf0bc01e	-0.5459002
47	0xbe26fe53	-0.16307954
48	0xbf539be3	-0.8265974
49	0x3db4ca81	0.08827687
50	0xbe460df5	-0.19341262
51	0x3ce3df01	0.027816297
52	0x3f49a701	0.7877045
53	0xbdc5695b	-0.096392356
54	0x3e3ac681	0.18239786
55	0xbca520af	-0.020157186
56	0x3e5dbf0e	0.21654913
57	0xbdf0aaff	-0.11751365
58	0x3e8a3068	0.26990056
59	0xbeb3882c	-0.35064828
60	0x3ddf1699	0.10892982
61	0xbeb38c32	-0.35067898
62	0xbd20e7c0	-0.039283514
63	0x3e2bbde8	0.16771662
64	0xbdaaf16b	-0.08346828
65	0xbe1c74c8	-0.15278924
66	0x3db22cc1	0.086999424
67	0xbd7c3017	-0.0615693
68	0xbec6b4a8	-0.38809705
69	0xbc8c18c8	-0.01710166
70	0x3ea626ba	0.3245142
71	0x3ebc20be	0.3674373
72	0x3ee0f2e5	0.43935314
73	0x3e6bfad7	0.23044907
74	0xbd82ef2b	-0.06393274
75	0x3d2c7bfa	0.04211042
76	0x3ea314e3	0.31851873
77	0xbea52cf7	-0.32260868
78	0xbdccb13e	-0.09994744
79	0xbe0683b2	-0.13136175
80	0x3d001558	0.031270355
81	0x3e7a5d4f	0.24449657
82	0xbe8b04da	-0.2715214
83	0xbcfb0549	-0.030642169
84	0xbdf458e0	-0.11931014
85	0xbe20aa36	-0.1568993
86	0x3eba2230	0.36354208
87	0xbe6022d6	-0.21888289
88	0xbf45aaef	-0.7721395
89	0x3e229b00	0.1587944
90	0x3e7ef33f	0.24897479
91	0x3e5a7881	0.21335031
92	0x3f41e5aa	0.75741065
93	0xbe2e6e66	-0.17034301
94	0xbe7f8ea5	-0.24956758
95	0xbe52bd80	-0.20580101
96	0xbad007fc	-0.001587152
97	0xbe7ea557	-0.2486776
98	0xbeb706fc	-0.35747516
99	0xbe6250a2	-0.22101071
100	0xbcd5fb44	-0.02612079
101	0x3e8e1c93	0.27756175
102	0x3ebf65d8	0.37382388
103	0x3e3a051b	0.1816601
104	0x3e7bc376	0.24586281
105	0x3d409102	0.04701329
106	0x3eb97b93	0.36227092
107	0xbe957c73	-0.2919651
108	0xbe73c2f3	-0.23804836
109	0xbd3fc745	-0.046820898
110	0xbe9a15b1	-0.30094674
111	0x3e7ae1c3	0.24500184
112	0x3dc3653d	0.09540794
113	0xbee5bb93	-0.4486967
114	0xbd389b7b	-0.045070153
115	0x3d4c59cb	0.04989032
116	0xbd634c1a	-0.055492498
117	0xbecddf7c	-0.40209568
118	0x3d6bbe14	0.05755432
119	0xbb598e6a	-0.0033196458
120	0x3b95b0b0	0.004568182
121	0x3e2fbab7	0.1716107
122	0x3f01de17	0.5072951
123	0xbdd98fde	-0.106231436
124	0xbe512dd4	-0.20427638
125	0xbe255f41	-0.16149618
126	0xbef5075a	-0.4785717
127	0x3e2838e3	0.1642795
128	0xbe31ed2d	-0.17375632
129	0xbe8388f3	-0.2569042
130	0x3e5fd73c	0.21859449
131	0x3ec32992	0.38117653
132	0x3eb905a2	0.3613711
133	0x3ec96e1c	0.3934182
134	0xbd10aedc	-0.03532301
135	0xbe699b97	-0.22813259
136	0x3afa9bd0	0.0019119922
137	0x3dc11dc7	0.09429508
138	0xbce7b52f	-0.028284637
139	0xbe4f401e	-0.20239303
140	0x3f112421	0.56695753
141	0xbea01ebf	-0.31273457
142	0xbd58ead4	-0.052958325
143	0xbd869da6	-0.06573038
144	0x3dfbafdd	0.12289403
145	0xbedfa635	-0.43681493
146	0xbe296e3f	-0.16545962
147	0xbdc6a76f	-0.09699904
148	0xbe34533e	-0.1760988
149	0x3eec885d	0.46197787
150	0x3e4d4dbd	0.20049186
151	0x3d8c1f27	0.06841879
152	0x3da56baa	0.08077176
153	0x3f2103c9	0.628964
154	0xbefd863e	-0.4951648
155	0x3e0f4ff6	0.13995346
156	0x3d5029ff	0.0508213
157	0xbf1d31ee	-0.6140431
158	0x3eeae12c	0.45874918
159	0x3c273d35	0.010207464
160	0xbe2ee7bf	-0.17080592
161	0xbe9f39c8	-0.3109877
162	0x3e67fe84	0.22655684
163	0xbec5a8ee	-0.38605446
164	0x3e9901cc	0.29884183
165	0xbd353577	-0.04424044
166	0x3dbd7ea3	0.0925267
167	0x3dfdb50a	0.12388046
168	0x3e4bd823	0.19906668
169	0xbe540a82	-0.20707133
170	0xbec10576	-0.3769948
171	0xbd0bbc74	-0.03411527
172	0xbe8a2ed2	-0.26988846
173	0x3e0f429b	0.13990252
174	0x3edc0299	0.42970732
175	0xbcc8ab07	-0.024495615
176	0x3ea39d53	0.31955966
177	0xbe787421	-0.2426305
178	0x3f0e2b10	0.5553446
179	0xbe157b9c	-0.14597934
180	0xbe9e563f	-0.30925176
181	0x3e8cc8ec	0.2749704
182	0xbf0f82eb	-0.5605914
183	0x3e23821b	0.159676
184	0x3e71be6f	0.23607801
185	0xbdd1d0aa	-0.10244878
186	0xbe2afd8a	-0.1669828
187	0xbe8ad51d	-0.27115718
188	0xbe083880	-0.13302803
189	0xbde6a139	-0.112612195
190	0xbe548bfe	-0.20756528
191	0x3eb9d886	0.36298007
192	0xbc37ec98	-0.011225842
193	0x3dcc76d9	0.09983606
194	0x3dd97cf7	0.10619538
195	0x3e12b50a	0.14326873
196	0xbe361006	-0.1777955
197	0x3ee93627	0.45549127
198	0xbdcdb2c7	-0.10043865
199	0x3de4cdd3	0.1117207
200	0xbeb0ab10	-0.3450551
201	0xbe61f2e9	-0.22065319
202	0x3dab62f8	0.08368486
203	0xbdea5e1c	-0.11443731
204	0xbe3206ad	-0.17385359
205	0x3d1ac4a4	0.037785187
206	0x3d647c52	0.055782624
207	0x3dfc1272	0.12308206
208	0xbe479d03	-0.19493489
209	0x3e7494c5	0.23884876
210	0x3e9ed5e6	0.31022567
211	0xbf0544e1	-0.52058226
212	0x3e533a18	0.2062763
213	0xbe7a0024	-0.24414116
214	0x3e82d8ea	0.25556117
215	0x3f162eaa	0.58664954
216	0x3cb2a856	0.021808784
217	0x3e0c2ae4	0.13688236
218	0x3ec6ca02	0.38825995
219	0xbebc875e	-0.36822027
220	0xbd05c76e	-0.032660894
221	0xbdd222e2	-0.102605596
222	0xbeab7a40	-0.33491707
223	0x3eaae3c3	0.33376893
224	0x3e1a5394	0.15070945
225	0xbe1c9660	-0.15291739
226	0xbedf743d	-0.4364337
227	0xbc8161b1	-0.015793653
228	0x3d8b3b43	0.06798413
229	0x3e03a130	0.12854457
230	0xbeabad7e	-0.33530802
231	0x3de25e82	0.11053182
232	0xbdb47b47	-0.08812576
233	0x3ef74c2d	0.48300305
234	0x3eb3fd02	0.35153967
235	0xbec9ee39	-0.39439562
236	0x3d4d789b	0.050163846
237	0xbec9dc9a	-0.39426118
238	0x3e86c69e	0.26323408
239	0x3ec4f1e3	0.38465795
240	0xbe24e275	-0.16102012
241	0xbb6a4fa8	-0.0035753045
242	0x3eb21105	0.3477861
243	0xbd16c896	-0.036812387
244	0x3d4d6ef9	0.05015466
245	0xbf030a73	-0.5118782
246	0xbe17bd70	-0.14818358
247	0x3db6f68c	0.08933744
248	0x3e45793a	0.19284526
249	0xbddd2c2d	-0.107994415
250	0xbf00b0e4	-0.50269914
251	0x3eb981f6	0.36231965
252	0x3df24ebc	0.11831424
253	0xbc75429c	-0.014969494
254	0x3e99d3d1	0.30044416
255	0xbe12c04d	-0.1433117

0.bias f4 [256]
0	0x3ca5c97a	0.020237673
1	0xbf097464	-0.53693223
2	0xbf1fd0b2	-0.6242782
3	0xbedfcd2f	-0.4371123
4	0x3df1f2a8	0.11813861
5	0x3e14146d	0.14460917
6	0xbd05659b	-0.0325676
7	0xbed8d239	-0.42347887
8	0xbeb46975	-0.35236707
9	0xbf30aff5	-0.6901849
10	0x3a11fa0b	0.00055685703
11	0xbcc93d3f	-0.024565337
12	0x3d0eaa6c	0.034830496
13	0xbd923622	-0.07139231
14	0xbf3a823f	-0.7285499
15	0x3c0e7385	0.008694534
16	0xbe1718a8	-0.147555
17	0xbf0f23a8	-0.5591378
18	0x3d6cde04	0.057828918
19	0x3dd84b74	0.105612665
20	0xbee4899b	-0.44636235
21	0x3c7afc6f	0.015318974
22	0x3d264530	0.040593326
23	0xbe791be8	-0.24327052
24	0xbe9f602f	-0.3112807
25	0xbe982b9d	-0.29720774
26	0xbee866a9	-0.45390823
27	0x3d33c131	0.043885414
28	0xbf150f3f	-0.5822639
29	0xbecd41ec	-0.40089357
30	0xbea42f43	-0.32067308
31	0xbe413521	-0.18867923
32	0x3c5bc617	0.0134139275
33	0xbea271aa	-0.31727344
34	0xbd970f1d	-0.073759295
35	0x3e41f360	0.18940496
36	0xbf1e6768	-0.61876535
37	0xbe3d72a1	-0.18500759
38	0xbefdfb48	-0.49605775
39	0xbebfc8a5	-0.37457767
40	0x3cc019ce	0.023449805
41	0x3ccacc93	0.024755752
42	0x3e2d1e4c	0.16906089
43	0xbdaac4a6	-0.08338289
44	0xbe668a27	-0.22513638
45	0xbcc6bc6c	-0.024259768
46	0xbf14c96c	-0.58119845
47	0xbe044876	-0.12918267
48	0x3c9d9da1	0.019240202
49	0xbe8b65ea	-0.27226192
50	0xbd2ed595	-0.042684156
51	0xbd1b36bb	-0.037893992
52	0x3cd5fc0f	0.026121167
53	0xbd18f40f	-0.037342127
54	0x3cc60990	0.024174482
55	0xbd8422c9	-0.06451947
56	0xbeb9d5ef	-0.3629603
57	0xbed7a7b1	-0.42120126
58	0x3c80124d	0.015633726
59	0x3c423d5f	0.011855452
60	0x3d4789ea	0.04871551
61	0x3d14b675	0.036306817
62	0xbe9f11fd	-0.3106841
63	0x3c5c5118	0.013447069
64	0x3e18719f	0.14887093
65	0x3c262cb2	0.010142492
66	0x3d305d91	0.043057982
67	0xbecf2fb2	-0.40466076
68	0xbc834388	-0.016023412
69	0x3c3a13a2	0.01135722
70	0xbed498de	-0.41522878
71	0xbdd498ac	-0.10380682
72	0x3cbd8ffa	0.023139942
73	0x3cedae0b	0.029013654
74	0xbed05341	-0.40688518
75	0xbdadb320	-0.08481431
76	0x3bb922dc	0.0056499075
77	0x3c96ba70	0.018399447
78	0xbebf9253	-0.37416324
79	0x3c3e1cbe	0.011603532
80	0x3d46933d	0.04848026
81	0xbd67705e	-0.056503646
82	0xbe9047d2	-0.28179795
83	0xbea0cd1a	-0.3140648
84	0xbedc44ac	-0.43021142
85	0xbee74770	-0.4517169
86	0x3d84b95f	0.06480669
87	0xbf4982d6	-0.78715265
88	0x3bc1df7d	0.0059165345
89	0xbe5a4581	-0.21315576
90	0x3c85afcd	0.01631918
91	0x3cb73c1c	0.02236753
92	0x3d1f71d1	0.038926903
93	0x3c653b8a	0.013991246
94	0xbdef0d14	-0.11672416
95	0xbedf8815	-0.4365851
96	0xbeb05e5f	-0.34447
97	0x3bdb8150	0.006698765
98	0x3d6f2f3c	0.058394656
99	0xbeeaee69	-0.45885018
100	0xbf14b2bd	-0.5808523
101	0xbd23f3b5	-0.04002734
102	0xbd9fd270	-0.0780381
103	0x3c6582a2	0.014008196
104	0x3bd84897	0.0066004503
105	0x3cb58314	0.02215723
106	0xbdd7dd34	-0.10540238
107	0xbdbdfdf3	-0.092769526
108	0xbf156aed	-0.5836628
109	0xbe900e08	-0.28135705
110	0xbe56a05a	-0.20959607
111	0xbeeef3a6	-0.46670264
112	0x3c976f6d	0.01848575
113	0x3e7a3121	0.24432804
114	0xbe1f0b2e	-0.15531608
115	0x3cc5b7bc	0.024135463
116	0x3d09afbe	0.033614866
117	0xbe0745f7	-0.13210283
118	0xbf1d077a	-0.61339533
119	0x3a07582a	0.0005162979
120	0xbf29fdf9	-0.66403157
121	0xbf359624	-0.7093222
122	0x3de68a05	0.11256794
123	0xbf10a5b4	-0.5650284
124	0xbeaac1da	-0.33351022
125	0xbd858f56	-0.0652148
126	0xbf1cf559	-0.6131187
127	0x3c955b30	0.018231958
128	0xbca02c0c	-0.019552253
129	0xbdb05894	-0.08610645
130	0xbe7b3125	-0.24530466
131	0x3c05cdab	0.008166711
132	0xbe80c404	-0.25149548
133	0xbe862372	-0.26198918
134	0x3c60d895	0.013723512
135	0xbe056a8c	-0.13028926
136	0xbf228660	-0.6348629
137	0xbf42434a	-0.75883925
138	0x3d60c656	0.054876648
139	0xbe38fd2c	-0.18065327
140	0xbf22f325	-0.6365226
141	0xbe6bc606	-0.23024759
142	0xbe0d4edd	-0.13799615
143	0x3c102cbd	0.008799729
144	0xbe558b5c	-0.20853943
145	0xbdb79870	-0.08964622
146	0xbd806ba1	-0.062705286
147	0xbe023e4b	-0.12719075
148	0x3ca88d12	0.02057508
149	0xbc86ecbf	-0.016470311
150	0x3c2b2021	0.010444672
151	0xbe4670e3	-0.19379
152	0xbebddb5b	-0.37081417
153	0xbd83832f	-0.06421506
154	0x3c8b2838	0.016986951
155	0x3bf8287b	0.007573185
156	0x3e88860a	0.26664764
157	0xbf16139d	-0.5862368
158	0x3dbd06f7	0.09229844
159	0xbc0b1677	-0.008489243
160	0xbe605a53	-0.21909456
161	0x3c9b388b	0.01894786
162	0xbe7143af	-0.23560975
163	0x3c929d1c	0.017897181
164	0xbe3ba860	-0.18325949
165	0x3cb41518	0.021982715
166	0xbf0353f6	-0.5129999
167	0x3bd60756	0.006531636
168	0x3c5c65c2	0.013451995
169	0xbe9ab4a4	-0.30215943
170	0xbd0f8c2e	-0.035045795
171	0xbc602d9d	-0.01368275
172	0xbe8e0a59	-0.2774227
173	0x3c7eec20	0.015559226
174	0x3c8bdfd9	0.017074512
175	0xbe80dfc9	-0.25170735
176	0xbdc1cfc3	-0.094634555
177	0xbd358734	-0.044318393
178	0xbdfbfff3	-0.12304678
179	0xbdd1536c	-0.102209896
180	0x3d78bc1c	0.06072627
181	0x3d65e20c	0.05612378
182	0xbe0d3ab3	-0.13791923
183	0xbcf0a80a	-0.029377002
184	0x3c88dc9d	0.01670676
185	0x3c29e7af	0.010370179
186	0xbe86bb45	-0.2631475
187	0x3d03ca21	0.032175187
188	0x3d6223e1	0.055209998
189	0xbe8cddbc	-0.2751292
190	0xbf343865	-0.7039855
191	0xbf1106ec	-0.56651187
192	0xbf1881b1	-0.59572893
193	0xbe9ae7b4	-0.302549
194	0xbed48ced	-0.41513768
195	0xbf301c2c	-0.68792987
196	0x3da05f32	0.07830657
197	0xbd25ba26	-0.040460728
198	0xbec66251	-0.38746884
199	0xbdb41025	-0.08792142
200	0x3d677790	0.056510508
201	0xbe4abdf6	-0.19799027
202	0xbeb8068e	-0.359425
203	0x3d594e0b	0.053052943
204	0xbe409d15	-0.18809922
205	0xbf053ee6	-0.520491
206	0xbedcba89	-0.43111065
207	0xbe936458	-0.28787494
208	0xbf3d5161	-0.739523
209	0xbf0e2f70	-0.55541134
210	0xbf004762	-0.5010892
211	0xbe73bf5c	-0.23803467
212	0x3deaa056	0.11456363
213	0x3c39defd	0.011344668
214	0x3c853d23	0.016264504
215	0xbf4a4ee3	-0.7902662
216	0xbcf6e463	-0.0301382
217	0xbed26d36	-0.41098946
218	0xbd68fb09	-0.05688003
219	0xbee46cae	-0.44614166
220	0x3d87a0ca	0.06622465
221	0xbeb3048a	-0.349644
222	0x3db89a20	0.09013772
223	0x3d81ed5e	0.06344102
224	0x3d831b28	0.06401664
225	0xbb907882	-0.004408897
226	0xbed34de9	-0.41270378
227	0x3c091073	0.008365738
228	0xbe625aa5	-0.2210489
229	0x3c902fdf	0.017600952
230	0x3c9a68a5	0.018848727
231	0xbf137109	-0.5759435
232	0x3da97b2b	0.082754456
233	0x3ce4ec8e	0.02794483
234	0x3c8a55a6	0.016886543
235	0xbe88a866	-0.26690978
236	0x3cba8c75	0.022772053
237	0x3c13a55e	0.009011595
238	0xbe7feaa6	-0.24991855
239	0x3cc74a4f	0.024327425
240	0x3d9256ee	0.07145487
241	0x3c9821b3	0.018570757
242	0xbefbc9f4	-0.49177516
243	0xbf29bb71	-0.6630164
244	0xbee624d2	-0.44949967
245	0x3cac89c7	0.021061791
246	0x3e02f873	0.12790088
247	0xbe86cc54	-0.26327765
248	0x3cefdb6e	0.029279437
249	0xbd3827c8	-0.044959813
250	0xbe0374e7	-0.12837563
251	0xbe86692c	-0.26252115
252	0x3c0b5c73	0.008505928
253	0x3d9fd1d6	0.07803695
254	0x3dc0a8ad	0.09407172
255	0xbdf4334b	-0.11923846

2.weight f4 [256, 256]
0	0xbd4b5a1d	-0.049646486
1	0x3c86e747	0.016467704
2	0xbcaee86b	-0.02135106
3	0x3b262f00	0.0025357604
4	0x3b6f34ee	0.0036500054
5	0xbcb01900	-0.021496296
6	0xbd8a2703	-0.06745722
7	0xbca30930	-0.019901842
8	0xbd4627da	-0.04837785
9	0x3d079741	0.03310323
10	0xbd0b52a7	-0.03401437
11	0x3d32a41e	0.043613546
12	0x3c91068e	0.01770332
13	0xbd9a2c39	-0.07527966
14	0x3cb5be3c	0.022185437
15	0x3b68b569	0.003550852
16	0xbc39da4a	-0.011343548
17	0x3c748b4a	0.014925787
18	0xbcdcc473	-0.026949143
19	0x3c090c89	0.008364805
20	0x3d00bd64	0.031430617
21	0xbc901aee	-0.017590966
22	0xbc781b4b	-0.015143226
23	0x3c72002d	0.01477055
24	0xbb698cc5	-0.0035636884
25	0xbcd38d0c	-0.025824092
26	0xbcd96d7c	-0.026541464
27	0xbd145e3d	-0.036222685
28	0x3c2ac251	0.010422305
29	0xbd33dcbf	-0.04391169
30	0xbd2fe459	-0.04294238
31	0x3c9a1c3d	0.018812293
32	0xbd5fbe92	-0.0546251
33	0x3d02c306	0.03192427
34	0x3cd2a150	0.025711685
35	0xbd7625b3	-0.060094547
36	0x3d363756	0.044486366
37	0x3cebe6a5	0.028796503
38	0x3cee0de0	0.02905935
39	0xbb7d0732	-0.0038609025
40	0xbd5f2d52	-0.05448658
41	0x3caebd6b	0.021330556
42	0x3ccbe044	0.024887212
43	0xbd4b850b	-0.049687427
44	0x3d15062e	0.036382847
45	0xbc9e2c19	-0.019308137
46	0x3cbb8114	0.022888698
47	0xbd54f154	-0.05198796
48	0xbcbd6d9f	-0.02312356
49	0xbd0fd963	-0.035119426
50	0xbd985515	-0.07438103
51	0x3cfcbe90	0.030852586
52	0x3ceb2eba	0.028708804
53	0xbd616011	-0.055023257
54	0x3d08bb9a	0.033382036
55	0x3c8b7f44	0.017028458
56	0x3d0db755	0.034598667
57	0x3d16db1a	0.036830045
58	0x3d05327e	0.032518856
59	0x3c41f68c	0.0118385665
60	0xbd3fe8b8	-0.046852797
61	0xbd56ae10	-0.052412093
62	0x3bd81aa5	0.006594973
63	0xbc69bcf2	-0.0142662395
64	0xbd5eeca9	-0.054424915
65	0x3d049f41	0.03237844
66	0xbd9f30af	-0.077729575
67	0xbd42c315	-0.047549326
68	0xbb450e6c	-0.003006841
69	0xbca1902a	-0.019722063
70	0x3d2c56f9	0.04207513
71	0xbd18cc3d	-0.03730415
72	0xba2dfbee	-0.0006636967
73	0x3cecadfb	0.028891554
74	0xbce2329c	-0.027612023
75	0x3cf4a762	0.02986497
76	0xbc408552	-0.011750536
77	0xbd55cd90	-0.052197993
78	0x3c754d1c	0.014971998
79	0x3d2ca0c9	0.042145524
80	0xbd83c5b8	-0.06434196
81	0x3be634d7	0.007025342
82	0x3ceb682e	0.0287362
83	0x3d069456	0.032856308
84	0xbd8c7b4d	-0.06859455
85	0xb9a38376	-0.0003118773
86	0xbc07fee4	-0.008300517
87	0xbbcebd82	-0.006309212
88	0xbd9e05d1	-0.07715953
89	0xbc5ab0ac	-0.013347786
90	0x3c9cc268	0.019135669
91	0x3d468bdc	0.048473224
92	0xbc67fe49	-0.014159747
93	0x3c739c84	0.014868859
94	0xbd098a91	-0.033579413
95	0x3cd879e3	0.026425308
96	0xbd7d5536	-0.06184884
97	0xbbaf6f60	-0.005353853
98	0x3ba7e59c	0.005123807
99	0xbd36cf43	-0.044631254
100	0x3b806f12	0.0039194906
101	0xbca04857	-0.019565744
102	0xbcfb6640	-0.030688405
103	0xbc638bc7	-0.013888306
104	0xbce61d9c	-0.02809029
105	0x3cbd5d56	0.023115795
106	0xbd25b608	-0.0404568
107	0x3c6e071f	0.014528065
108	0x3d319a6c	0.04336016
109	0x3d461fda	0.04837022
110	0xbd6cb8c5	-0.057793397
111	0x3d744091	0.059631888
112	0xbcfecb12	-0.03110269
113	0xbca4f4ef	-0.020136325
114	0xbdb2bbf4	-0.087272555
115	0xbbbfb22f	-0.0058500986
116	0xbd830a3a	-0.06398435
117	0xbcae128a	-0.021249074
118	0xbd598eba	-0.05311463
119	0x3d50c8fe	0.05097293
120	0x3d2730a7	0.040817883
121	0x3c8a2e3e	0.016867753
122	0xbd2b7c0e	-0.041866355
123	0x3bde86fd	0.006790994
124	0xbc98caa3	-0.018651312
125	0xbd9c2e7a	-0.07626052
126	0x3d425260	0.04744184
127	0xbb3030f1	-0.002688464
128	0xbbfebada	-0.0077737393
129	0xbc78452e	-0.0151532125
130	0x3d44b94f	0.048028287
131	0xbd6d70cd	-0.057968903
132	0x3a8e5256	0.0010858278
133	0x3cf6baf2	0.03011844
134	0x3d147f86	0.03625443
135	0xbaf13b4b	-0.0018404512
136	0xbd1d1c4f	-0.038357075
137	0xbc462440	-0.012093604
138	0xbce9c552	-0.028536472
139	0xbccbfc96	-0.024900716
140	0xbbf127c6	-0.0073594777
141	0x3a7d3031	0.0009658365
142	0x3ca2a7d9	0.019855427
143	0xbd1124f4	-0.035435632
144	0xbc9501bf	-0.01818931
145	0xbca59ba8	-0.020215824
146	0xbb7c5929	-0.0038505292
147	0x3caff455	0.021478811
148	0x3b3f0a60	0.002915047
149	0xbca22ed8	-0.019797727
150	0x3d0076ff	0.031363484
151	0xbcedc59c	-0.029024892
152	0x3b9ed070	0.004846625
153	0xbca73bff	-0.02041435
154	0x3ba37c9f	0.004989221
155	0x3c29eea7	0.010371841
156	0x3c8682b3	0.016419744
157	0xbd83dded	-0.06438813
158	0xbc64ce47	-0.013965196
159	0xbc63fdc4	-0.013915483
160	0x3d034301	0.03204632
161	0x3c098c52	0.008395271
162	0x3d23baa6	0.039972924
163	0xbd81b9cd	-0.06334267
164	0xbd623438	-0.05522558
165	0x3cad4904	0.02115298
166	0xbcd5d770	-0.026103705
167	0xbd0bd5bc	-0.03413938
168	0x3d4868ea	0.04892818
169	0xbc637491	-0.013882772
170	0x3ce4cbbe	0.027929183
171	0xbd8de28e	-0.069279775
172	0xbda87bc9	-0.08226735
173	0xbd463447	-0.0483897
174	0xbd890dd2	-0.06692089
175	0xbd8e0971	-0.069353946
176	0xbd2f578b	-0.042808097
177	0x3d06a056	0.032867752
178	0xbb9c47c1	-0.004769296
179	0xbd18d6fc	-0.0373144
180	0x3bac4057	0.0052566933
181	0x3c1e995f	0.009680121
182	0xba994abe	-0.0011695249
183	0x3ce081fd	0.027405733
184	0x399db481	0.0003007986
185	0x3c852c32	0.016256426
186	0xbd971f2d	-0.07378993
187	0xbcd9053f	-0.02649176
188	0x3c9fcdd1	0.01950732
189	0xbca99f78	-0.020705923
190	0x3c4130c3	0.011791411
191	0xbcf0e8e2	-0.029407922
192	0xbd817d7f	-0.063227646
193	0x3d11c62a	0.035589375
194	0xbc88e7b5	-0.016712049
195	0x3ca0132e	0.019540396
196	0xbb4cb7cf	-0.0031237488
197	0xbd6af179	-0.057359193
198	0x3d08c021	0.033386353
199	0xbcbe59d9	-0.023236202
200	0xbda6f7b7	-0.081527166
201	0x3cb1d323	0.021707123
202	0x3c92ff5c	0.01794403
203	0xbd728b36	-0.059214793
204	0xbd914c70	-0.070946574
205	0x3ca3f167	0.02001257
206	0xbd020009	-0.031738315
207	0x3ceb1d3a	0.02870046
208	0x3c181479	0.009282225
209	0xbd71ce18	-0.059034437
210	0xbc96a146	-0.018387448
211	0x3cee590d	0.029095197
212	0x3c52743f	0.012845098
213	0xbd961db0	-0.07329881
214	0xbd5131ee	-0.051073007
215	0xbd428f26	-0.0474998
216	0x3cf486c3	0.029849416
217	0xbb6391b4	-0.0034724297
218	0xbd3f9737	-0.04677507
219	0xbca744da	-0.020418573
220	0xbd671968	-0.056420714
221	0xbcf75f2a	-0.030196745
222	0xbc841a2b	-0.01612576
223	0xbd629c95	-0.05532511
224	0x3c8a5d93	0.016890323
225	0xbd6a4eb4	-0.057203963
226	0xbd313c66	-0.04327049
227	0xbc57ea2a	-0.013178388
228	0x3cf55f6d	0.02995273
229	0xbd6ae51b	-0.0573474
230	0xbc7eb552	-0.01554616
231	0x3d142ad6	0.036173664
232	0xbd2ae8c4	-0.04172589
233	0xbd1ebc77	-0.038753953
234	0xbcd224a4	-0.025652237
235	0x3d0c2540	0.034215212
236	0xbd8e17dd	-0.06938145
237	0x3cd65e62	0.026168052
238	0xbd7fbf8e	-0.06243854
239	0xbda6fde9	-0.08153898
240	0x3c9fe985	0.01952053
241	0xbcc3e518	-0.023912951
242	0x3cda674c	0.026660584
243	0xbd71ca00	-0.059030533
244	0xbba00cca	-0.004884337
245	0xbc1705cd	-0.009217692
246	0xbd69f47d	-0.057117928
247	0xbc769095	-0.0150491195
248	0xbd84df7a	-0.06487937
249	0x3cb719b4	0.022351123
250	0x3d50e431	0.05099887
251	0xbd5d2ed2	-0.05399973
252	0xbd741aa8	-0.059595734
253	0xbcece780	-0.028918982
254	0xbc031600	-0.008000851
255	0x3d1af90b	0.037835162

2.bias f4 [256]
0	0x3c993ec4	0.018706687
1	0xbd879970	-0.06621063
2	0xbd7648b0	-0.060127914
3	0xbc63867c	-0.013887044
4	0xbd2c4237	-0.042055335
5	0xbc5a42ad	-0.013321561
6	0x3cdb848e	0.026796605
7	0xbc927d44	-0.017881997
8	0xbd2b59bf	-0.041833635
9	0xbbb0952e	-0.0053888774
10	0xbd174478	-0.03693053
11	0x3b294d83	0.0025833554
12	0x3d241840	0.04006219
13	0xbd8ee159	-0.069765754
14	0xbcfba2ad	-0.030717218
15	0x3d0396e3	0.03212632
16	0xbcbfe6f3	-0.023425555
17	0xbd9907a6	-0.07472162
18	0xbd4544f3	-0.04816146
19	0x3cb39272	0.021920417
20	0x3d10fb88	0.03539613
21	0x3d90a359	0.07062406
22	0xbd954e41	-0.072903164
23	0x3d2e5d97	0.042569723
24	0xbcc23f20	-0.023711741
25	0x3ba0c08f	0.0049057673
26	0xbc8b95ea	-0.017039258
27	0xbccf7560	-0.025324523
28	0xbe372d0d	-0.1788828
29	0x3938e60e	0.0001763331
30	0xbbd4e92c	-0.006497523
31	0xbbddc73e	-0.0067681363
32	0xbe12f21e	-0.14350173
33	0x3c870d11	0.016485723
34	0x3d36dccd	0.044644166
35	0x3cd28572	0.025698397
36	0xbd516a3f	-0.051126715
37	0x3bb7de56	0.0056112213
38	0xbd1174de	-0.035511844
39	0xbd26fc49	-0.04076794
40	0x3cecad09	0.028891103
41	0xbd18893d	-0.037240256
42	0xbd1a57b3	-0.037681293
43	0xbd22bb33	-0.03972931
44	0xbc282b86	-0.010264283
45	0x3c56e59f	0.013116269
46	0x3bc8b35d	0.0061248974
47	0xbd2ff735	-0.042960364
48	0xbc5794a5	-0.013157998
49	0xbd6c11f1	-0.057634298
50	0x3d4b571a	0.049643613
51	0x3d449f62	0.04800356
52	0xbd90fe7f	-0.07079791
53	0xbc3a2a6c	-0.011362653
54	0xbd226eba	-0.03965638
55	0xbdca6206	-0.09881978
56	0xbc4fbcc3	-0.012679282
57	0xbe0d1ab2	-0.13779715
58	0xbd8bdb01	-0.06828881
59	0xbc66aa5a	-0.014078701
60	0x3c8f0d8a	0.01746251
61	0xbdcb62ab	-0.09930929
62	0x3b535ff5	0.003225324
63	0xbc4dfce0	-0.012572497
64	0x3c100d8c	0.008792292
65	0xbd6ab7f8	-0.057304353
66	0xbc652e59	-0.013988101
67	0x3d0ea3a8	0.034824044
68	0xbd76c434	-0.060245708
69	0x3d8ad3a7	0.06778651
70	0x3d4730c4	0.04863049
71	0x3c9736e8	0.018458799
72	0x3d7273a4	0.059192315
73	0x3c19f815	0.009397526
74	0xbcc78ab9	-0.02435814
75	0xbd75ab88	-0.059978038
76	0xbd0f05c9	-0.034917627
77	0x3d109e8b	0.03530745
78	0x3bbac50e	0.0056997603
79	0xbd635674	-0.05550237
80	0x3b9bb332	0.0047515864
81	0xbcf45719	-0.029826688
82	0x3cab2d50	0.02089563
83	0xbcd9be49	-0.026579993
84	0x3c940175	0.018067101
85	0x3d6bd5eb	0.057577055
86	0x3daf838d	0.08570013
87	0x3cf56167	0.029953672
88	0xbd34ae9e	-0.04411184
89	0xbd4d7733	-0.050162505
90	0x3d1de9a3	0.03855289
91	0x3c4d173a	0.012517745
92	0xbd4abe4d	-0.04949789
93	0x3c5b03d2	0.01336761
94	0xbc2fe493	-0.010735649
95	0xbd8f631f	-0.07001328
96	0xbcaa39ff	-0.020779608
97	0x3d3704be	0.044682257
98	0xbdd86688	-0.10566431
99	0xbc563bdb	-0.013075794
100	0x389c82c2	7.463015e-05
101	0x3d01ea8b	0.03171782
102	0xbd32d36d	-0.043658663
103	0x3bb5a190	0.0055429414
104	0xbe8c9d65	-0.27463832
105	0xbd538dcc	-0.0516489
106	0x3aa11649	0.0012289967
107	0xbd651ce9	-0.055935774
108	0xbcdde3a7	-0.027086092
109	0xbbcd4c19	-0.006265175
110	0xbd47fa04	-0.048822418
111	0xbd545623	-0.05183996
112	0xbd6e0f2e	-0.058119945
113	0x3c9cb714	0.019130267
114	0xbc95e457	-0.018297357
115	0xbd9d0692	-0.07667269
116	0xbcdda6a8	-0.027057007
117	0xbd849dfd	-0.064754464
118	0x3c912aed	0.017720664
119	0xbd42857a	-0.047490574
120	0xbb8ac940	-0.0042354167
121	0x3c9af885	0.018917331
122	0xbcfa8e04	-0.030585296
123	0xbd95e966	-0.07319908
124	0x3b9840d7	0.0046464014
125	0x3c48f957	0.0122664785
126	0xbd355683	-0.044271957
127	0xbd82b780	-0.06382656
128	0xbda4a31b	-0.080389224
129	0xbd915220	-0.07095742
130	0xbc5759a8	-0.013143934
131	0xbd2d8a96	-0.042368494
132	0xbdc1ad5e	-0.09456895
133	0xbcd1d8e8	-0.025616124
134	0x3d1afc90	0.03783852
135	0xbc4296d6	-0.011876782
136	0x3d20228a	0.03909544
137	0xbc9d816d	-0.019226754
138	0xbd2a432f	-0.041567978
139	0xbd378c20	-0.044811368
140	0xbcda4ae8	-0.026647046
141	0x3c2f0df4	0.010684479
142	0xbd8751af	-0.06607377
143	0xbcf93274	-0.030419566
144	0xbc44ca00	-0.012011051
145	0xbcc629fa	-0.024189938
146	0x3d00fd17	0.031491365
147	0xbd2ecd28	-0.04267612
148	0xbdb28b35	-0.08717958
149	0xbcaa07fe	-0.020755764
150	0xbae69fae	-0.0017595196
151	0xbd8d4305	-0.068975486
152	0xbcd09d6a	-0.025465686
153	0x3d1ecc33	0.03876896
154	0xbd0bf07d	-0.034164894
155	0xbcd24879	-0.025669323
156	0xbd267872	-0.04064221
157	0x3a93e3e4	0.0011283127
158	0xbda9ec91	-0.082970746
159	0xbd7a2937	-0.06107446
160	0xbd8efeca	-0.06982191
161	0xbd4df883	-0.050285827
162	0xbb88b3e4	-0.0041718353
163	0x3d3d58db	0.046227317
164	0x3d379b73	0.044825982
165	0x3c7ce4ad	0.01543538
166	0xbd294b28	-0.04133144
167	0xbe224875	-0.15847953
168	0xbd85ccff	-0.065332405
169	0x3b78886a	0.0037923106
170	0x3d82c3af	0.0638498
171	0x3c6d3c74	0.014479745
172	0x3c9b580d	0.018962884
173	0x3c5785ac	0.013154428
174	0x3baf04a0	0.0053411275
175	0xbba805e0	-0.0051276535
176	0xbc515496	-0.0127765145
177	0x3d12268e	0.0356813
178	0xbd3e8889	-0.04651693
179	0x3cec2fc5	0.028831372
180	0xbd8db41d	-0.069191195
181	0xbcc72661	-0.024310293
182	0x3c4f1c35	0.012641002
183	0x3d0be4f1	0.034153882
184	0x3cafd3c9	0.021463292
185	0xbc942524	-0.018084116
186	0x3c47532f	0.012165829
187	0x3c03d20b	0.008045684
188	0x3c4162bc	0.011803325
189	0x3a31a157	0.00067760557
190	0xbc80cae9	-0.015721755
191	0x3c9d0319	0.019166516
192	0x3ccf38d2	0.025295649
193	0xbc0872c6	-0.008328145
194	0xbd2677f2	-0.040641733
195	0xbdf61f5b	-0.12017699
196	0xbd4bd32d	-0.04976194
197	0xbd8bfc98	-0.06835288
198	0xbb6c7bec	-0.0036084605
199	0xbd584710	-0.052802145
200	0xbd431930	-0.047631443
201	0xba74b1b7	-0.0009334343
202	0x3c37cd1f	0.011218338
203	0xbd4ea00f	-0.050445613
204	0xbd2e98d6	-0.042626224
205	0x3d297293	0.041369032
206	0xbd5d7995	-0.054071028
207	0xbc756d68	-0.014979698
208	0x3d5824ca	0.05276946
209	0xbcd86ca8	-0.026418999
210	0xb9afbc56	-0.00033518922
211	0x3c0e12ce	0.008671476
212	0x3c3e35fa	0.011609549
213	0x3c7d9fda	0.015480006
214	0xbdb8617b	-0.09002968
215	0x3c702751	0.014657811
216	0xbd272686	-0.040808223
217	0xbd878de4	-0.0661886
218	0x3cbdf98e	0.023190286
219	0xbd8ebce0	-0.06969619
220	0xbe00b533	-0.12569122
221	0x3ce7e43c	0.028307073
222	0x3a5898af	0.0008262498
223	0xbc2e6b77	-0.010645739
224	0xbd047929	-0.03234211
225	0x3cd21565	0.025644967
226	0xbc0a89c0	-0.008455694
227	0xbd0c2ecc	-0.034224316
228	0xbcb61bc3	-0.022230035
229	0x3d008189	0.031373534
230	0xbd2aebc9	-0.04172877
231	0x3d90f96f	0.07078826
232	0xbd3cac08	-0.0460625
233	0x3d38510a	0.04499916
234	0x3cbd2fcb	0.023094079
235	0xbc65b474	-0.014020074
236	0xbcb83a4f	-0.022488741
237	0xbcf0f3dc	-0.029413156
238	0x3d2e0d4d	0.042493153
239	0xbd220c14	-0.0395623
240	0x3cdce279	0.02696346
241	0xbba23bcf	-0.0049509774
242	0xbd6c2a71	-0.057657663
243	0xbd968732	-0.07350005
244	0xbd0dd6ec	-0.034628794
245	0xbcc9662c	-0.024584852
246	0x3ba8530b	0.0051368526
247	0x3d0baacc	0.03409843
248	0x3bed2126	0.0072366176
249	0xbc4bbe00	-0.012435436
250	0xbd093a50	-0.033502877
251	0x3cc5709d	0.02410155
252	0x3ce664d0	0.028124243
253	0xbd50a614	-0.050939634
254	0xbd575da2	-0.05257953
255	0xba838406	-0.0010033853

4.weight f4 [256, 256]
0	0xbc945c0c	-0.018110298
1	0xbd4b3d93	-0.04961927
2	0xbf55e0e8	-0.83546305
3	0xbd4fd7cc	-0.05074291
4	0x3cbe0904	0.023197658
5	0xbc010a22	-0.007875951
6	0xbe2691f0	-0.16266608
7	0xbd396cbf	-0.045269724
8	0x3e014007	0.1262208
9	0x3cca8ea6	0.024726223
10	0xbcbaf104	-0.022820003
11	0xbd375b24	-0.044764653
12	0x3dd2947b	0.10282227
13	0xbd2eadf0	-0.04264635
14	0x3c9ce30c	0.019151233
15	0xbd2598cb	-0.040428918
16	0x3d14ff66	0.03637638
17	0xbd1efbcc	-0.03881435
18	0x3b7c7e8d	0.0038527579
19	0x3ca6460b	0.020297071
20	0x3de6212b	0.11236795
21	0xbef42fbd	-0.4769267
22	0xbd94ef47	-0.07272201
23	0x3f0b65df	0.5445232
24	0xbd6a8480	-0.057255268
25	0x3c9d01eb	0.019165954
26	0xbd586fa0	-0.05284083
27	0x3e3fd046	0.18731794
28	0xbd401d9c	-0.046903238
29	0x3c66f396	0.014096161
30	0xbcd5b94c	-0.026089333
31	0x3d6f3305	0.058398265
32	0x3dfc4614	0.12318054
33	0x3c6b23f9	0.014351838
34	0x3e836830	0.25665426
35	0x3cbad4be	0.022806522
36	0x3e96cc62	0.29452807
37	0x3e7bf353	0.2460454
38	0x3d5bc90a	0.053658523
39	0xbe2baaa0	-0.16764307
40	0x3caa3662	0.020777885
41	0xbc9b537a	-0.018960703
42	0xbd2b55e0	-0.041829944
43	0x3ebed76e	0.37273735
44	0xbde8196b	-0.11332973
45	0xbe81b242	-0.25331312
46	0xbcf9f212	-0.030510936
47	0x3e817d34	0.25290835
48	0xbcabc653	-0.020968592
49	0x3c518146	0.012787169
50	0xbe426eab	-0.18987529
51	0x3c8b1cf6	0.016981583
52	0xbd216d98	-0.039411157
53	0x3d25bafe	0.040461533
54	0xbc31dfea	-0.010856608
55	0x3def9848	0.11698967
56	0xbd3d1f0c	-0.046172187
57	0x3f08a100	0.53370667
58	0xbe37f975	-0.17966254
59	0x3d8dac7d	0.06917665
60	0xbc399a59	-0.011328303
61	0xbe8ab439	-0.27090624
62	0x3d8f92eb	0.07010444
63	0xbcc038c9	-0.023464577
64	0xbde4389b	-0.11143609
65	0x3ce614d2	0.0280861
66	0x3ea585ce	0.32328647
67	0xbeeb637a	-0.45974332
68	0xbf5e38f7	-0.8680567
69	0xbdb62aef	-0.08894908
70	0x3e8edee4	0.27904427
71	0xbcaa0690	-0.020755082
72	0xbe164b7c	-0.14677233
73	0x3ca26528	0.019823626
74	0xbd674259	-0.05645976
75	0xbdd71044	-0.10501149
76	0xbd2cbc02	-0.042171486
77	0xbd3beca7	-0.045879986
78	0x3d5ad34b	0.05342416
79	0x3bd8652b	0.006603857
80	0x3eba3a12	0.3637243
81	0x3bb0668a	0.0053833174
82	0x3b759c44	0.0037477175
83	0x3cd50906	0.02600528
84	0x3b3002e1	0.0026857185
85	0xbd90258a	-0.0703841
86	0x3e52bc39	0.20579614
87	0x3e147674	0.14498311
88	0xbd025e27	-0.031828072
89	0x3d83626c	0.06415257
90	0x3d7f71f4	0.062364534
91	0x3e35a50a	0.17738739
92	0xbc954125	-0.01821954
93	0xbe3e4d7f	-0.1858425
94	0x3e714e76	0.23565087
95	0xbcc33238	-0.023827657
96	0x3abe2141	0.001450576
97	0xbf31192b	-0.6917903
98	0x3e1ab1fa	0.15106955
99	0x3a1773be	0.000577744
100	0xbcfd406c	-0.030914508
101	0xbd14ae3f	-0.036298987
102	0xbec6e08e	-0.38843197
103	0xbd32dd26	-0.043667935
104	0x3f1e8b91	0.6193171
105	0xbcde33c9	-0.027124302
106	0x3d213e60	0.039366126
107	0xbf1259d2	-0.57168305
108	0x3c9ebc8a	0.019377012
109	0x3be07c60	0.006850764
110	0x3ca89fa8	0.020583943
111	0xbd16fcd5	-0.036862213
112	0x3d4ac6bd	0.049505938
113	0xbd35781a	-0.04430399
114	0x3ecd68f7	0.40119144
115	0x3d3c699a	0.045999147
116	0xbd69d2bc	-0.057085738
117	0xbc4b3466	-0.0124026295
118	0x3edeefa0	0.43542194
119	0xbca630bb	-0.020286908
120	0xbd6c0949	-0.057626043
121	0xbc5307b0	-0.012880251
122	0xbe0e9437	-0.13923727
123	0xbd88b809	-0.06675727
124	0xbe11819a	-0.14209595
125	0x3d290c90	0.041271746
126	0xbcc76d8c	-0.024344228
127	0x3c285b72	0.0102757085
128	0xbe49933f	-0.19685076
129	0x3ce2798b	0.027645847
130	0x3d4d1e7e	0.050077908
131	0x3ee00f0a	0.43761474
132	0xbee0fd8e	-0.43943447
133	0x3c739067	0.014865971
134	0x3e769b17	0.240826
135	0xbb0a6a71	-0.0021120573
136	0x3f0f1288	0.5588765
137	0xbd08b3ef	-0.033374723
138	0xbcd75aad	-0.026288355
139	0x3ca810cc	0.020515822
140	0xbd005b61	-0.031337146
141	0x3d98ee97	0.074673824
142	0x3d2f0757	0.04273161
143	0x3d648f9c	0.05580102
144	0xbd028d52	-0.031873055
145	0x3b965f25	0.004588979
146	0x3e07796f	0.13229917
147	0xbddb6046	-0.10711722
148	0xbd79e88c	-0.06101279
149	0x3d02ea59	0.031961773
150	0xbd69a2cf	-0.057040032
151	0xbca374c8	-0.019953147
152	0xbcc7ab30	-0.02437362
153	0xbe8fd112	-0.28089195
154	0xbc882386	-0.016618501
155	0xbd30ef53	-0.043196987
156	0xbd2a94a1	-0.04164565
157	0x3bbf6ece	0.0058420664
158	0x3c0bb149	0.008526155
159	0x3d702325	0.058627266
160	0xbd034795	-0.032050688
161	0xbd11dcbb	-0.035610896
162	0x3c8a08a7	0.016849829
163	0x3d4bc115	0.049744684
164	0x3d99b947	0.07506042
165	0x3c8bec5d	0.01708048
166	0xbbf74c58	-0.0075469427
167	0xbeb1efad	-0.3475317
168	0x3ea5e081	0.32397845
169	0xbd601a84	-0.054712787
170	0x3e80d211	0.25160268
171	0xbd71dff4	-0.05905147
172	0xbd8a90bc	-0.06765887
173	0xbe83da0c	-0.25752294
174	0x3d094660	0.03351438
175	0xbbb862d2	-0.0056270147
176	0xbe50ceb5	-0.20391352
177	0x3e094d57	0.13408409
178	0xbcdca7f4	-0.026935555
179	0x3cc06932	0.023487661
180	0x3d4401e1	0.047853354
181	0x3c025f17	0.0079572415
182	0x3df15d97	0.11785429
183	0xbcc0db1c	-0.02354198
184	0xbd3b31ca	-0.04570178
185	0xbc26ddbc	-0.0101847015
186	0x3d51002b	0.05102555
187	0xbee86cae	-0.45395416
188	0xbbd2694c	-0.006421244
189	0xbef8cdf7	-0.4859464
190	0x3ad79ec2	0.0016450512
191	0xbd95768b	-0.07298001
192	0x3d233390	0.039844096
193	0x3d60d993	0.054894995
194	0x3d3c2970	0.045937955
195	0xbed91305	-0.42397323
196	0x3cac3698	0.021022126
197	0xbc0f3e7c	-0.008742925
198	0xbe8c9dc6	-0.27464122
199	0xbd3370b2	-0.043808647
200	0x3d4c15d7	0.049825516
201	0xbefa82dd	-0.48927966
202	0xbdb95379	-0.09049124
203	0x3ad96063	0.0016584512
204	0xbe3d8de7	-0.18511163
205	0xbd8a0fcd	-0.06741295
206	0x3d3093f5	0.043109853
207	0x3bb90c35	0.005647207
208	0x3cd3f244	0.025872357
209	0xbf7b519e	-0.9817141
210	0x3ebdd098	0.37073207
211	0x3bbab8b3	0.0056982874
212	0xbd3f1bdb	-0.046657424
213	0x3dc676a8	0.09690601
214	0xbcf9131a	-0.030404616
215	0xbddec7c8	-0.10877949
216	0xbc76e97a	-0.015070314
217	0xbaa22ed2	-0.0012373573
218	0x3d85c540	0.06531763
219	0xbcf367d8	-0.029712602
220	0x3e9d75af	0.30753848
221	0xbd48bd54	-0.049008682
222	0xbe5d7e92	-0.21630314
223	0xbc3d17c7	-0.0115413135
224	0xbf0536d0	-0.5203676
225	0x3e916fe6	0.28405684
226	0x3c804969	0.015660005
227	0xbc1e4d76	-0.009662023
228	0xbd5735d3	-0.052541565
229	0xbd421288	-0.047380954
230	0xbf96399f	-1.1736335
231	0x3d685d36	0.056729518
232	0x3f0399b1	0.5140639
233	0xbe53dbe4	-0.2068935
234	0xbcc93fe9	-0.024566608
235	0x3d99a821	0.07502771
236	0xbbd15ae9	-0.006389011
237	0xbaa2d7d7	-0.0012423944
238	0xbe3c7d97	-0.18407284
239	0xbbcf4d77	-0.006326373
240	0xbcc7b3b4	-0.024377681
241	0xbd77c28b	-0.060488265
242	0x3d6a2659	0.057165477
243	0x3d20fa48	0.039301187
244	0xbc27ee42	-0.010249676
245	0xbd413115	-0.04716595
246	0xbd1bb48f	-0.03801399
247	0xbec8bef1	-0.39208177
248	0x3cd115bc	0.02552306
249	0xbd1a5624	-0.037679806
250	0x3df51e51	0.11968673
251	0xbd1c0238	-0.038088053
252	0x3da8403f	0.08215379
253	0x3b931c6b	0.0044894717
254	0x3c8798ce	0.016552355
255	0x3cfeb4e6	0.031092118

4.bias f4 [256]
0	0xbc6b42f3	-0.014359224
1	0x3d235e7b	0.039885025
2	0xbe91174a	-0.2833808
3	0xbd701e33	-0.05862255
4	0x3c9657ef	0.018352477
5	0xbca2d3b8	-0.019876346
6	0x3d9c1455	0.076210655
7	0xbc00c587	-0.007859594
8	0xbd96f678	-0.07371229
9	0x3ddf366b	0.10899051
10	0x3df59e70	0.1199311
11	0xbbd19c1a	-0.0063967826
12	0x3c38efdf	0.0112876585
13	0x3dfa85eb	0.12232574
14	0xbd6e6eb2	-0.058211036
15	0x3af75c7b	0.0018872166
16	0xbd6bd76b	-0.057578485
17	0x3d1b5195	0.0379196
18	0xbd04f46f	-0.032459673
19	0xbd9c8be1	-0.07643867
20	0xbd23d98c	-0.04000239
21	0xbc4937e3	-0.012281391
22	0x3e40de9e	0.18834922
23	0x3e0c402b	0.13696353
24	0xbdb83433	-0.08994331
25	0x3e173141	0.14764883
26	0xbba0f934	-0.00491252
27	0x3d6b7abc	0.057490095
28	0xbd4fbce6	-0.050717257
29	0x3d746663	0.059667956
30	0x3d87014d	0.06592045
31	0x3bdce9ad	0.0067417235
32	0xbc9da18d	-0.019242072
33	0xbc8e1f1a	-0.017348815
34	0x3d4d7188	0.0501571
35	0xbd90187f	-0.07035922
36	0xbd1a2ae2	-0.037638552
37	0x3ce67c30	0.02813539
38	0x3d174820	0.036934018
39	0x3d14260f	0.036169108
40	0x3e0df77b	0.13863938
41	0xbd37b488	-0.044849902
42	0x3cd8dc10	0.026472121
43	0xbd978e20	-0.07400155
44	0x3d2f2243	0.042757284
45	0x3daf0a0a	0.08546837
46	0x3ce1c14d	0.027557993
47	0xbda057bc	-0.07829234
48	0x3de44df3	0.1114768
49	0x3d357bcb	0.04430751
50	0x3d3bafc8	0.045821935
51	0xbd199dd6	-0.03750404
52	0xbd187d40	-0.037228823
53	0xbcec8491	-0.028871806
54	0xbced0a31	-0.028935524
55	0x3d970572	0.073740855
56	0x3e7860eb	0.24255721
57	0x3d531de0	0.051542163
58	0x3d7c5ed4	0.061613873
59	0x3d43fbea	0.047847666
60	0xbd69ef59	-0.057113025
61	0xbd382940	-0.044961214
62	0x3c5e6c6f	0.013575657
63	0x3d1fd487	0.03902104
64	0xbdef684d	-0.11689816
65	0xbd40c30b	-0.047061007
66	0x3de321b7	0.11090415
67	0xbd48cabb	-0.049021464
68	0x3daac2cb	0.08337935
69	0x3cd07be6	0.025449704
70	0x3d3805be	0.04492735
71	0x3bbd629c	0.0057795774
72	0x3c787827	0.015165365
73	0xbd60c5ae	-0.054876022
74	0x3d821fab	0.063536964
75	0xbd4a286c	-0.049354956
76	0xbd944bbe	-0.07241009
77	0xbd01e81a	-0.03171549
78	0xbdf01c01	-0.11724091
79	0x3cb2e342	0.02183688
80	0x3d43398f	0.047662314
81	0x3d434265	0.04767074
82	0xbdf61ac5	-0.12016825
83	0x3ccfd3c8	0.02536954
84	0xbcbe7e84	-0.023253687
85	0xbba1f318	-0.004942309
86	0xbd856d93	-0.0651504
87	0xbd7b2d85	-0.061322708
88	0xbc60a8c4	-0.013712112
89	0xbccf2a7c	-0.025288813
90	0xbc564a75	-0.013079275
91	0x3dbc75e1	0.09202171
92	0x3dbed77e	0.093184456
93	0x3c5846ad	0.013200444
94	0xbd2ae04c	-0.041717812
95	0xbcc52aeb	-0.024068316
96	0x3def75e5	0.116924085
97	0xbd81f67e	-0.06345843
98	0x3d183d52	0.037167855
99	0xbddcdfd7	-0.107848816
100	0xbdbf9fec	-0.093566746
101	0xbd9e307b	-0.07724091
102	0x3d6771e6	0.056505106
103	0x3d9ebf23	0.077513
104	0x3dbc580b	0.0919648
105	0x3d2e742e	0.042591266
106	0x3cd44800	0.025913239
107	0x3cd0f1b1	0.025505872
108	0xbdc32ef8	-0.09530443
109	0xbe10c532	-0.14137724
110	0xbccc39b8	-0.024929866
111	0xbd036f8b	-0.032088798
112	0xbcb4666a	-0.022021491
113	0xbe52216c	-0.20520562
114	0x3d29e4d2	0.041477986
115	0xbd9b3627	-0.07578688
116	0xbce8b117	-0.028404756
117	0xbc4f62ac	-0.012657803
118	0xbd9cb61a	-0.076519206
119	0xbe316356	-0.1732305
120	0x3d562de0	0.052289844
121	0x3cca97f6	0.024730664
122	0x3c2a265d	0.010385123
123	0xbdb21ab0	-0.086964965
124	0xbd422902	-0.04740239
125	0xbe006cc8	-0.12541497
126	0xbbf253e8	-0.0073952563
127	0xbd1c3431	-0.03813571
128	0x3d687e72	0.056761213
129	0xbd8294ac	-0.06376013
130	0xbd19d334	-0.037554935
131	0x3a35a121	0.0006928612
132	0xbcbf7b29	-0.023374157
133	0x3aac174c	0.0013129502
134	0xbe29d378	-0.16584575
135	0x3e01f4d1	0.12691046
136	0xbdcc142c	-0.09964785
137	0x3dc1eec6	0.094693705
138	0xbc6ff7f8	-0.014646523
139	0xbe143f28	-0.14477217
140	0xbd8f964b	-0.07011088
141	0xbd556c1b	-0.05210505
142	0x3c98dc1e	0.018659648
143	0x3bc5a50e	0.006031639
144	0xbdaab25d	-0.08334801
145	0x3e14eee1	0.1454425
146	0xbd4a433a	-0.04938052
147	0x3d98b531	0.074564345
148	0x3cc38af7	0.023869975
149	0xbc9c3e51	-0.019072684
150	0xbd958f4c	-0.07302722
151	0xbd559199	-0.052140806
152	0xbc375079	-0.01118862
153	0xbdf86fda	-0.12130709
154	0xbd90f494	-0.070778996
155	0xbc81c101	-0.015839102
156	0xbd9e6202	-0.07733537
157	0xbc917b87	-0.017759098
158	0xbbb39448	-0.005480323
159	0xbc873453	-0.016504442
160	0x3dbee3f8	0.09320825
161	0xbd5b70cf	-0.05357438
162	0xbdbb7149	-0.09152467
163	0x3d9a4f35	0.07534639
164	0x3d8ecb80	0.06972408
165	0x3d4a8212	0.04944045
166	0xbd8ccacc	-0.06874618
167	0xbdd336b3	-0.103131674
168	0xbcff8be7	-0.03119464
169	0x3cf7e147	0.030258788
170	0xbab09087	-0.0013470807
171	0xbd1fd59a	-0.039022066
172	0xbc210e12	-0.009830015
173	0xbd9cdfc8	-0.076598704
174	0xbcffdb57	-0.03123252
175	0xbcc71080	-0.02429986
176	0xbc3fc7d9	-0.011705362
177	0xbda7f25d	-0.08200524
178	0x3cbb7a21	0.022885384
179	0xbd9b507e	-0.07583712
180	0xbd7b53bc	-0.061359152
181	0xbda0f569	-0.07859308
182	0x3cbc8531	0.02301273
183	0xbd05eb17	-0.032694902
184	0x3df3b2aa	0.11899312
185	0xbd0a496f	-0.033761438
186	0xbe08856e	-0.1333215
187	0x3d6df98b	0.05809931
188	0xbc3f813d	-0.011688528
189	0x3d137797	0.03600272
190	0xbca1ad6a	-0.01973601
191	0x3dc8edd8	0.0981099
192	0xbdabfc64	-0.08397749
193	0x3dfdf5ef	0.12400424
194	0xbd7057af	-0.05867737
195	0xbe803994	-0.2504393
196	0xbd0e5972	-0.03475327
197	0x3dd2aee4	0.10287264
198	0xbd155f30	-0.03646773
199	0x3dc9bc78	0.09850401
200	0x3de88eab	0.11355337
201	0x3d84b9a3	0.0648072
202	0x3d3cdcd9	0.046109054
203	0x3c141b08	0.009039648
204	0xbd8009cf	-0.06251871
205	0x3e11a93f	0.14224719
206	0xbdbe764c	-0.09299907
207	0xbce42823	-0.02785117
208	0x3d97c2d7	0.074102096
209	0x3c932415	0.017961541
210	0x3dafa746	0.08576827
211	0xbd1145a3	-0.0354668
212	0x3e123779	0.14278974
213	0xbd3551ae	-0.04426735
214	0x3d231b47	0.039820936
215	0xbd419c5f	-0.047268268
216	0xba800ea7	-0.0009769992
217	0x3c1c2fa8	0.0095328465
218	0xbd8010b7	-0.06253188
219	0xbd8387d6	-0.06422393
220	0xbb25baa5	-0.002528825
221	0xbd80a26a	-0.06280978
222	0xbbf63c38	-0.007514503
223	0xbdff7aad	-0.124745704
224	0x3da6a98b	0.081378065
225	0x3d871e08	0.06597525
226	0xbd015d19	-0.031582925
227	0x3db6843b	0.0891194
228	0x3e22a27d	0.15882297
229	0xbc20bb60	-0.009810299
230	0xbc86d91e	-0.016460951
231	0xbc19b0d9	-0.009380543
232	0x3da07b17	0.078359775
233	0xbe134a18	-0.14383733
234	0xbe24b448	-0.16084397
235	0xbd3eac9f	-0.046551343
236	0xbd2b56c1	-0.04183078
237	0xbd97be49	-0.07409341
238	0xbb2199df	-0.0024658365
239	0xbce3a847	-0.027790202
240	0x3d238f63	0.039931666
241	0x3d006a0d	0.031351138
242	0xbdc38936	-0.09547655
243	0x3dd08278	0.10181135
244	0x3de80f4d	0.113310434
245	0x3d8af056	0.06784122
246	0x3d3a81e9	0.04553405
247	0x3de1cb27	0.11025076
248	0x3ccb25aa	0.024798233
249	0xbd61c29e	-0.055117242
250	0xbd8c9e49	-0.06866128
251	0xbd84ddfd	-0.064876534
252	0xbcf85b2d	-0.030316914
253	0x3d29f1b1	0.04149026
254	0xbb99e370	-0.004696302
255	0xbd08f57a	-0.03343723

6.weight f4 [4, 256]
0	0xbe012733	-0.1261261
1	0x3cab01b4	0.020874836
2	0xbdae4f5c	-0.0851123
3	0xbd17449a	-0.036930658
4	0x3d953455	0.07285372
5	0xbda13539	-0.078714795
6	0x3d022709	0.031775508
7	0x3c7ac7c5	0.015306418
8	0xbd9a18d0	-0.07524264
9	0x3c988002	0.018615726
10	0x3e06057a	0.13088027
11	0x3b113de3	0.0022162131
12	0x3d0cf8b6	0.034416877
13	0x3e0746dd	0.13210626
14	0x3b296106	0.0025845184
15	0xbde8c024	-0.11364773
16	0xbc59ae28	-0.013286151
17	0x3d9c3952	0.076281205
18	0xbcede773	-0.029041028
19	0xbd0c2896	-0.034218393
20	0xbd17226e	-0.03689807
21	0xbd0944a7	-0.033512738
22	0xbbe2a372	-0.006916457
23	0x3c66d187	0.014088041
24	0xbd02ce47	-0.031935003
25	0x3d929974	0.07158175
26	0xbe031f63	-0.12804942
27	0x3e442f91	0.1915877
28	0x3ceacbdf	0.028661666
29	0xbe9200dd	-0.28516284
30	0x3dcb134f	0.09915792
31	0xbd7bd9ae	-0.061486892
32	0x3c8a1019	0.01685338
33	0x3c9874c0	0.018610358
34	0x3e3ea604	0.18618017
35	0x3c53e297	0.012932441
36	0xbc8bdfc9	-0.017074483
37	0xbd7bb3c9	-0.061450753
38	0xbd6a62d8	-0.05722317
39	0xbc7c71e4	-0.015408013
40	0xbd8a334d	-0.06748066
41	0xbe957cb4	-0.29196703
42	0xbd2f25f2	-0.042760797
43	0x3cf84808	0.030307785
44	0x3e0f6c55	0.14006169
45	0x3cdd5c62	0.02702159
46	0xbd09d09d	-0.033646215
47	0xbd21639b	-0.03940163
48	0xbf263a7e	-0.64933
49	0x3d5a154a	0.05324296
50	0xbccf0a7e	-0.025273558
51	0x3ed88ad2	0.42293411
52	0x3e0f291f	0.1398053
53	0xbdfb72a3	-0.122777246
54	0x3c71e1a4	0.01476327
55	0xbd92aaaa	-0.07161458
56	0x3d5e2de6	0.05424299
57	0xbdc988fe	-0.09840582
58	0xbbc6391d	-0.006049289
59	0xbe013569	-0.1261803
60	0xbe027cd2	-0.12742928
61	0xbccb3251	-0.024804266
62	0x3d1c1d55	0.03811391
63	0xbda61a40	-0.081104755
64	0xbd1f4763	-0.03888644
65	0x3d0ed51a	0.0348712
66	0xbd6c3d38	-0.05767557
67	0x3c304ecf	0.010760977
68	0x3ded0b06	0.11574368
69	0xbe13fe18	-0.14452398
70	0xbc7ff25b	-0.015621747
71	0xbdd4de42	-0.10393955
72	0xbd6623f8	-0.056186646
73	0xbc998ec0	-0.018744826
74	0xbdfd22fd	-0.12360189
75	0xbd02e3ed	-0.03195565
76	0x3b2aee33	0.002608192
77	0xb9b54ae2	-0.00034578802
78	0x3dd267a4	0.10273674
79	0xbbb184e2	-0.005417452
80	0xbd9d6d33	-0.07686844
81	0x3e0306f4	0.12795621
82	0x3cb8e29a	0.02256899
83	0xbdbc142a	-0.091835335
84	0xbde1e740	-0.110304356
85	0xbd67ad7f	-0.056561943
86	0xbc76472a	-0.015031615
87	0x3c8802ac	0.016602837
88	0xbdace896	-0.084428
89	0x3d431876	0.04763075
90	0xbcfc7e53	-0.030821955
91	0xbd806670	-0.062695384
92	0x3d54148b	0.051777404
93	0xbddcb6cd	-0.10777054
94	0xbc835667	-0.01603241
95	0xbe6cbb83	-0.23118405
96	0x3d6f43c9	0.058414254
97	0x3b517f0c	0.0031966595
98	0xbd837ff4	-0.064208895
99	0xbdd66d18	-0.10470027
100	0x3e074b05	0.13212211
101	0xbd0f6f15	-0.035018045
102	0xbca5bde0	-0.020232141
103	0x3b8754ec	0.0041299965
104	0x3e568148	0.20947754
105	0x3d81fda4	0.06347206
106	0x3db62648	0.0889402
107	0xbcbe4525	-0.02322633
108	0x3c88ade9	0.01668449
109	0x3e2fc258	0.1716398
110	0x3d806eaa	0.062711075
111	0xbd2ad42d	-0.041706253
112	0xbdea1b83	-0.11431029
113	0xbe07fac4	-0.13279253
114	0x3cca9bcf	0.024732498
115	0xbc8e0357	-0.017335577
116	0x3d79a98a	0.0609527
117	0xbc9bb8b4	-0.019008972
118	0x3c430f41	0.011905492
119	0x3e7727c9	0.2413627
120	0xbd6cdb4d	-0.05782633
121	0xbc0688f0	-0.008211359
122	0xbdc931e4	-0.09823969
123	0x3c01cf6b	0.007922987
124	0x3d23526c	0.039873526
125	0xbedcd0e0	-0.4312811
126	0x3c0e92fa	0.008702034
127	0xbc9b5f97	-0.01896648
128	0xbdfa0c42	-0.12209369
129	0x3d77eed0	0.060530484
130	0x3e189459	0.1490034
131	0xbe004817	-0.125275
132	0xbcf35465	-0.029703328
133	0xbc055b67	-0.008139468
134	0xbefc4bf9	-0.49276713
135	0x3d80c8c7	0.06288295
136	0xbaa10541	-0.0012284891
137	0x3e1b8138	0.15186012
138	0xbdd24a0d	-0.1026803
139	0x3e13f965	0.14450605
140	0xbd402c4d	-0.04691725
141	0xbea4844c	-0.32132185
142	0x3de099b3	0.10966816
143	0x3dc07563	0.0939739
144	0xbc72ce89	-0.01481975
145	0x3c8d9f6f	0.017287938
146	0xbdb3cbdb	-0.08779117
147	0xbe1a3477	-0.15059076
148	0xbda842a6	-0.08215837
149	0x3b878eda	0.0041369023
150	0x3ca69949	0.020336764
151	0xbd1534cf	-0.036427315
152	0x3e30eb32	0.1727722
153	0xbe677b18	-0.2260555
154	0xbced66cf	-0.028979687
155	0xbd0d987c	-0.03456925
156	0xbc98879b	-0.01861935
157	0x3e1d2ed1	0.1534989
158	0xbca96529	-0.02067812
159	0x3cdcae2f	0.026938526
160	0x3ddebde5	0.10876063
161	0xbd594d8c	-0.05305247
162	0xbea6ecc6	-0.3260252
163	0xbc5618b0	-0.013067409
164	0xbd0d80eb	-0.034546774
165	0xbe34093f	-0.17581652
166	0x3b630f93	0.0034646734
167	0xbe0a34f1	-0.13496758
168	0x3cab39d1	0.020901592
169	0xbdcc0a10	-0.09962857
170	0x3de2c1bd	0.11072109
171	0xbca7d9a7	-0.020489527
172	0x3da05904	0.078294784
173	0xbd2a96eb	-0.041647833
174	0x3c1f0cd2	0.009707646
175	0x3949bb13	0.00019238544
176	0x3d9cedc8	0.07662541
177	0xbd098e51	-0.03358299
178	0x3e250f4a	0.16119114
179	0x3b887851	0.0041647335
180	0xbca16a9a	-0.019704152
181	0xbdfd8424	-0.123787194
182	0x3dc6e2fa	0.09711261
183	0xbe8d62f1	-0.2761455
184	0xbdac6103	-0.08416941
185	0xbb818f7e	-0.003953873
186	0x3e063008	0.1310426
187	0xbd884ba8	-0.06655055
188	0xbe6636eb	-0.22481887
189	0x3dcf49c5	0.10121492
190	0xbcf93831	-0.030422302
191	0x3ce4f448	0.027948514
192	0xbcbdf6c8	-0.023188964
193	0xbd134c21	-0.035961274
194	0xbe1eb278	-0.15497768
195	0x3e8078f6	0.25092286
196	0xbbc80b4d	-0.006104863
197	0xbdaa69e4	-0.08320978
198	0xbc094f3d	-0.008380708
199	0xbda97d9b	-0.082759105
200	0xbd205320	-0.039141774
201	0xbc2b6376	-0.010460725
202	0xbd9e959d	-0.0774338
203	0xbdb0adfb	-0.08626934
204	0xbd081009	-0.033218417
205	0x3d500929	0.050789986
206	0xbec40937	-0.3828828
207	0x3d5a3015	0.05326851
208	0xbe1d1ade	-0.1534228
209	0xbcab31e6	-0.020897817
210	0xbd374920	-0.04474747
211	0x3d0d0d93	0.034436774
212	0x3c9b7f31	0.018981548
213	0x3eb14498	0.34622645
214	0x3d8b0cd4	0.06789556
215	0xbd154bf7	-0.0364494
216	0xbbabc754	-0.0052422676
217	0xbb4a3c2b	-0.0030858617
218	0x3e1badc9	0.15203013
219	0x3d1fb81d	0.038993943
220	0xbe67b30c	-0.22626895
221	0xbd4afedb	-0.049559455
222	0xbd027bac	-0.031856224
223	0xbe9650ba	-0.29358464
224	0xbe0282fb	-0.12745278
225	0x3d6c04f2	0.057621904
226	0x3e5b4776	0.21413979
227	0x3d801f3d	0.06255958
228	0x3d32f9bd	0.0436952
229	0x3c182dae	0.009288235
230	0x3dad0450	0.08448088
231	0xbd165312	-0.036700316
232	0x3d61081b	0.05493937
233	0xbdc30a64	-0.09523466
234	0xbe79647d	-0.2435474
235	0x3cf71947	0.03016342
236	0xbd17ef3d	-0.03709339
237	0x3dcdceb7	0.10049193
238	0xbd9991e4	-0.074985296
239	0x3d6bce67	0.057569887
240	0xbd9068b9	-0.07051224
241	0xbe21c5d7	-0.15798126
242	0x3d0bb8f0	0.034111917
243	0x3d2a2304	0.0415373
244	0xbe4407b8	-0.1914357
245	0x3d7e4f85	0.062087554
246	0xbc22999e	-0.0099243205
247	0x3e2d2802	0.16909793
248	0x3e8dfd80	0.27732468
249	0xbca0186d	-0.019542897
250	0xb9bbddd0	-0.00035832683
251	0x3ebf99b0	0.37421942
252	0xbcaa88ad	-0.020817125
253	0xbc8d4414	-0.017244376
254	0x3d48c27f	0.04901361
255	0xbca01a2d	-0.019543732

6.bias f4 [4]
0	0x3d0963a2	0.033542283
1	0x3e5b2ae4	0.2140308
2	0xbe077c82	-0.1323109
3	0x3e597a97	0.2123817
