models/Reach/rl/4/20-57-15_Reach_Panda_JOINT_VELOCITY_TD3/models/step_0860000/obs_enc.pt (torch, 549005 bytes, 8 tensors)

0.weight f4 [256, 14]
0.33595112 -0.07860494 -0.024355339 0.049952913 0.11662207 0.582894 -0.29253516 0.15227512
0.16557188 0.6257968 -0.15797143 -0.30089208 0.088032454 -0.27364275 -0.066924155 -0.77173966
-0.34161392 0.26281947 -0.42241624 0.48869914 -0.010247266 0.8867442 0.33110195 -0.03836833
-0.07815115 -0.087002575 -0.23526895 -0.7491676 -0.050806064 0.1260255 -0.17519766 -0.10625927
0.011292779 0.17929982 0.11655377 0.03508528 -0.5816173 0.5793337 1.224081 -0.47358865
0.49887335 -0.27000538 -0.32137823 0.15710808 -0.44604632 -0.26390073 0.031749964 -0.33968046
0.22026569 0.67887133 -0.3431397 0.41437945 0.20524676 0.47301647 0.49023792 -0.06694639
-0.0059194225 -0.089400545 -0.032060936 0.63197273 0.07546782 -0.2316799 0.40942454 -0.1872394
-0.07636673 -0.017219028 0.49480188 0.31920812 -0.37677586 0.048309278 0.26550004 0.2817523
-0.22785753 -0.08987199 0.2861754 -0.105029106 -0.010078174 0.21260701 -0.015770514 -0.37183297
-0.21627082 -0.08755916 0.17533344 -0.48654917 0.15310782 0.112069316 -0.16681229 -0.15913273
0.34327853 -0.18888217 -0.66729283 0.005165448 0.19797815 -0.05777487 -0.06549757 -0.10412397
0.1055136 0.036289413 0.33417043 0.024970647 -0.20201251 -0.44589546 -0.86340535 0.062052816
-0.014137932 -0.20617656 -0.15821847 -0.74752134 0.2835468 0.10780983 0.32904643 0.026893537
-0.029536717 -0.17011437 0.24887002 -0.3677612 0.300066 -0.07790037 -0.3697075 -0.6203113
-0.013698939 -0.38186654 0.31427276 0.7809484 -0.07296332 0.293735 -0.2529869 0.08698541
0.16772428 0.12517828 0.05673835 0.56254953 -0.09961784 0.46976218 0.11211095 -0.063497365
0.289082 -0.37367815 0.45349583 0.15144348 0.12259847 -0.0073297075 0.23972028 -0.11417695
0.039604582 0.13400431 -0.012352604 0.112252764 -0.32629544 -0.21965262 0.22707817 -0.064434774
0.052351724 -0.2001517 -0.16503626 0.15685648 -0.052342057 0.22985573 0.22850952 0.58552176
0.423933 0.18702677 -0.11803959 -0.71216387 0.15042156 0.09696752 0.012377882 -0.34652728
-0.14651242 0.14294842 0.19989553 -0.21642426 0.05687106 -0.06706379 -0.341519 -0.430754
0.26951405 0.43658322 -0.08903968 -0.22754416 -0.3374249 0.1772682 -0.2863308 0.044131137
0.07201913 0.40005764 -0.06685522 0.32376516 0.22480024 -0.4350237 -0.07074821 -0.57476634
0.024045374 -0.43947268 0.2643886 -0.13528252 0.26584882 0.2702452 -0.53233695 0.16047333
-0.14331788 0.24918458 0.15753864 0.29555944 -0.06380682 0.8908495 0.5845048 -0.79970413
-0.081793554 0.06643402 -0.051541824 0.37940648 -0.12398621 -0.13492224 0.1716081 -0.0246504
-0.19519834 0.6797413 0.21466665 -0.060641907 0.0038801553 0.09470058 -0.1691578 0.27716455
-0.15502457 0.33203647 -0.07846127 -0.5101542 -0.19103236 0.4188271 0.03264521 0.7865906
-0.10633005 0.6097202 0.75902027 0.61179906 -0.1582581 0.061372656 -0.2684034 -1.7911665
-0.21559432 0.65025663 0.16268535 -0.17728297 -0.13288485 0.15737858 0.088989966 0.50017285
0.4262197 -0.033755653 -0.2488043 -0.5125517 0.04608217 0.025736492 -0.06586224 0.41857412
00000000: c901 ac3e a0fb a0bd d984 c7bc 6d9b 4c3d
00000010: 8dd7 ee3d 8b38 153f 2bc7 95be 02ee 1b3e
00000020: ad8b 293e 3834 203f 43c3 21be 870e 9abe
00000030: 5c4a b43d e71a 8cbe 880f 89bd bb90 45bf
00000040: 05e8 aebe 4690 863e f146 d8be c636 fa3e
00000050: 26e4 27bc ab01 633f 3286 a93e 1c28 1dbd
00000060: b60d a0bd 682e b2bd 58ea 70be 73c9 3fbf
00000070: 051a 50bd d40c 013e 0467 33be 769e d9bd
00000080: 5905 393c 5f9a 373e beb3 ee3d 95b5 0f3d
00000090: dfe4 14bf 374f 143f b0ae 9c3f 367a f2be
000000a0: 546c ff3e 253e 8abe b08b a4be f1e0 203e
000000b0: 2f60 e4be ff1d 87be 400c 023d 99ea adbe
000000c0: 548d 613e 83ca 2d3f 02b0 afbe 8b29 d43e
000000d0: 352c 523e 372f f23e 7700 fb3e 301b 89bd
000000e0: b7f7 c1bb a217 b7bd 5452 03bd f7c8 213f
000000f0: df8e 9a3d 7f3d 6dbe 18a0 d13e afbb 3fbe
00000100: 2966 9cbd eb0e 8dbc ac56 fd3e 3f6f a33e
00000110: c4e8 c0be f3df 453d 9fef 873e d641 903e
00000120: 7c53 69be ce0e b8bd 9585 923e 8019 d7bd
00000130: ed1e 25bc a7b5 593e 2a31 81bc e460 bebe
00000140: 1976 5dbe 3852 b3bd 9c8a 333e f91c f9be
00000150: 4cc8 1c3e 9984 e53d d7d0 2abe b1f3 22be
00000160: 34c2 af3e 546a 41be b4d3 2abf eb42 a93b
00000170: c9ba 4a3e 58a5 6cbd 9723 86bd f33e d5bd
00000180: 8417 d83d 35a4 143d 6318 ab3e 3e8f cc3c
00000190: 5edc 4ebe 694c e4be 2208 5dbf 182b 7e3d
000001a0: c9a2 67bc f31f 53be 0604 22be 8f5d 3fbf
000001b0: 0c2d 913e 66cb dc3d c678 a83e d64f dc3c
000001c0: fcf6 f1bc 7632 2ebe c8d7 7e3e 324b bcbe
000001d0: 40a2 993e 3b8a 9fbd 4d4a bdbe b9cc 1ebf
000001e0: 8471 60bc 0384 c3be 5ce8 a03e 3cec 473f
000001f0: cb6d 95bd 6f64 963e 8087 81be 6825 b23d
00000200: eabf 2b3e bc2e 003e 7966 683d 3f03 103f
00000210: 7004 ccbd ab84 f03e 6d9a e53d e80a 82bd
00000220: 8e02 943e be52 bfbe 9b30 e83e 0014 1b3e
00000230: e814 fb3d 0b2e f0bb 3c79 753e 9bd5 e9bd
00000240: 6a38 223d 6d38 093e 9462 4abc c7e4 e53d
00000250: 3210 a7be 9eec 60be 2e87 683e 61f6 83bd
00000260: c36e 563d 91f4 4cbe 44ff 28be fc9e 203e
00000270: a064 56bd 4d5f 6b3e 66fe 693e c1e4 153f
00000280: bf0d d93e f283 3f3e bebe f1bd 5f50 36bf
00000290: 1c08 1a3e e896 c63d 9acc 4a3c 066c b1be
000002a0: 5a07 16be 1261 123e 6ab1 4c3e 529e 5dbe
000002b0: a1f1 683d be58 89bd 94db aebe ca8b dcbe
000002c0: bffd 893e d687 df3e 705a b6bd 5601 69be
000002d0: f5c2 acbe cc85 353e f399 92be dac2 343d
000002e0: c47e 933d 5bd4 cc3e 64eb 88bd 8cc4 a53e
000002f0: 0932 663e 6dbb debe 70e4 90bd e323 13bf
00000300: cefa c43c 9002 e1be f15d 873e 8087 0abe
00000310: 561d 883e 945d 8a3e 3c47 08bf 1f53 243e
00000320: ecc1 12be 3e2a 7f3e cf51 213e 9153 973e
00000330: 26ad 82bd b60e 643f 1ba2 153f 69b9 4cbf
00000340: 6183 a7bd 8f0e 883d 851d 53bd 9141 c23e
00000350: 7bec fdbd 0e29 0abe 09ba 2f3e a3ef c9bc
00000360: 13e2 47be 8703 2e3f 93d1 5b3e a663 78bd
00000370: 344a 7e3b 61f2 c13d b437 2dbe 83e8 8d3e
00000380: c3be 1ebe af00 aa3e 4db0 a0bd 7799 02bf
00000390: fd9d 43be 8170 d63e fcb6 053d 005e 493f
000003a0: 92c3 d9bd 9f16 1c3f 274f 423f dd9e 1c3f
000003b0: 690e 22be e561 7b3d 2c6c 89be f244 e5bf
000003c0: c2c4 5cbe 3877 263f fd96 263e ab89 35be
000003d0: f712 08be da27 213e 5f40 b63d 540b 003f
000003e0: 7839 da3e 5e43 0abd 8ec6 7ebe 9736 03bf
000003f0: a8c0 3c3d 56d5 d23c c8e2 86bd 594f d63e

0.bias f4 [256]
-0.20006347 0.09229943 0.35039416 -0.20861863 -0.06296643 -0.3595864 -0.46414992 0.047403343
-0.22157113 -0.030943545 -0.06326748 0.02231908 -0.4082972 0.286166 -0.09232683 0.12123081
0.15619214 -0.26239744 0.1796504 -0.10712094 0.47003332 0.08479024 -0.263222 0.2814034
-0.35315785 0.03825275 -0.33997843 -0.38166112 -0.27730498 0.18539137 -0.23554246 -0.0067781056
0.14006706 -0.12906237 0.11713967 -0.31099615 0.039737135 0.22609678 0.12475861 -0.20246552
0.06847433 0.4288099 -0.052880734 0.0889727 0.23235203 -0.057932556 0.07131933 -0.3505297
0.0395316 -0.19305332 0.012362138 -0.49637204 0.0012274202 0.18083186 0.16263424 -0.12686606
0.15802258 0.069489144 -0.17778157 -0.23517103 -0.16098145 -0.07843182 -0.01810385 -0.02038164
0.2947071 -0.24002714 0.0009373567 -0.37161297 -0.27816886 -0.007152817 -0.11183525 -0.24613106
-0.29993615 -0.018574854 0.030022098 -0.24829774 -0.12677425 -0.13781798 -0.047987465 -0.09797675
-0.017517114 -0.050417293 0.007782424 -0.05159811 -0.23210432 -0.1574861 -0.072337635 -0.35432112
0.19509718 -0.05166165 -0.30384412 -0.29190078 -0.4089639 0.030717688 -0.034745745 -0.099145204
-0.0009751488 0.06830897 0.0611229 0.33556917 0.27119833 -0.04694891 -0.34701642 -0.044316687
-0.08090247 0.13109647 -0.38917515 -0.2666479 -0.027646236 -0.14426194 -0.009382871 -0.41445255
-0.122907236 -0.26735264 0.2213985 -0.15291469 0.06866004 -0.029298963 -0.22709271 -0.44773352
-0.09500654 -0.084593065 0.051822763 -0.035396922 -0.12347226 -0.09706417 0.10618095 -0.33659685
-0.18136427 -0.075550675 -0.5033142 0.09647284 -0.09099569 -0.3075514 -0.1317911 0.14869067
-0.08779119 -0.027318735 -0.009010022 0.18589745 -0.30656388 0.0098429425 -0.5430089 -0.12064788
-0.13606775 -0.16216768 -0.0813682 0.14458333 -0.15194857 -0.29006162 -0.3609399 -0.17641155
0.41422993 -0.14406599 -0.31088752 -0.15399379 -0.19586794 0.17787604 -0.11241609 0.037502322
-0.10639717 0.1444612 -0.054611947 -0.19869192 0.016712008 0.03521724 -0.018357871 0.09328864
0.07986113 0.022141881 -0.07885632 -0.00028547097 -0.28386348 -0.10325269 0.3914781 -0.01059539
0.07527377 -0.2099224 -0.18760985 0.26328114 -0.23098388 -0.07932114 -0.026013635 0.05112388
-5.1785006e-05 0.17775767 -0.142519 -0.16472413 0.12791847 -0.24866214 -0.07127266 0.10282642
-0.030969406 0.39543188 -0.08183948 0.11218874 0.17567912 0.2597153 -0.11345305 -0.3656588
-0.42889157 -0.26693174 -0.094830275 -0.37770575 -0.091185264 -0.03540613 0.06860431 -0.38786447
0.12078885 0.009460356 -0.45636854 -0.07624748 0.035130292 -0.041330464 0.23294541 -0.13648075
-0.083068855 -0.169955 -0.26029614 -0.3684864 0.1556452 -0.05533745 0.024387386 0.19992363
0.05277038 -0.1377891 -0.11216871 -0.022426723 -0.050835054 -0.04136164 -0.15043381 -0.21142644
0.044466995 -0.0846868 -0.41298002 -0.061193127 0.03419495 -0.34698787 0.06526567 0.11194051
-0.0064675417 0.051967617 -0.19613077 -0.07629052 -0.08954637 -0.07944984 -0.14874353 -0.25693414
0.18697222 -0.0461803 -0.1729629 0.11024409 0.10119294 -0.017974852 -0.14941205 0.27576837
00000000: 70dd 4cbe 7c07 bd3d dd66 b33e 1fa0 55be
00000010: 8bf4 80bd b51b b8be 0fa5 edbe 022a 423d
00000020: 8be3 62be 517d fdbc 6192 81bd 81d6 b63c
00000030: 550c d1be 5a84 923e d915 bdbd dc47 f83d
00000040: d5f0 1f3e f558 86be 46f6 373e 3962 dbbd
00000050: 35a8 f03e 81a6 ad3d 09c5 86be 1b14 903e
00000060: 1bd1 b4be eaae 1c3d a711 aebe 1669 c3be
00000070: ebfa 8dbe 3cd7 3d3e 0b32 71be df1a debb
00000080: bd6d 0f3e ed28 04be ece6 ef3d e33a 9fbe
00000090: 68c3 223d ea85 673e 7181 ff3d 1f53 4fbe
000000a0: 453c 8c3d f98c db3e 7899 58bd 5237 b63d
000000b0: b1ed 6d3e b04a 6dbd de0f 923d a178 b3be
000000c0: e3eb 213d c5af 45be 918a 4a3c 7a24 febe
000000d0: 63e1 a03a fd2b 393e 9789 263e 2de9 01be
000000e0: acd0 213e 5350 8e3d 5f0c 36be add0 70be
000000f0: 52d8 24be dda0 a0bd 864e 94bc 66f7 a6bc
00000100: d9e3 963e adc9 75be f1b8 753a 0e44 bebe
00000110: 266c 8ebe 2e62 eabb e109 e5bd c809 7cbe
00000120: 3b91 99be 4b2a 98bc e7f0 f53c c341 7ebe
00000130: 1cd1 01be 2820 0dbe 818e 44bd 09a8 c8bd
00000140: 0d80 8fbc 5d82 4ebd b403 ff3b 8a58 53bd
00000150: c1ac 6dbe 0944 21be c125 94bd 9469 b5be
00000160: 8ec7 473e 2b9b 53bd 7591 9bbe 0574 95be
00000170: b763 d1be a9a3 fb3c 8e51 0ebd a40c cbbd
00000180: 21a1 7fba 93e5 8b3d 025c 7a3d b9cf ab3e
00000190: 82da 8a3e 804d 40bd 23ac b1be 6a85 35bd
000001a0: 32b0 a5bd 273e 063e f741 c7be 1386 88be
000001b0: 5c7a e2bc 67b9 13be 9dba 19bc 2033 d4be
000001c0: cab6 fbbd 72e2 88be 4ab6 623e ab95 1cbe
000001d0: a39d 8c3d 6104 f0bc fe8a 68be 543d e5be
000001e0: ca92 c2bd 213f adbd 1b44 543d 5dfc 10bd
000001f0: 06df fcbd 94c9 c6bd 6675 d93d 6c56 acbe
00000200: 8eb7 39be 50ba 9abd 33d9 00bf 8d93 c53d
00000210: f35b babd 6177 9dbe 3ff4 06be 5e42 183e
00000220: decb b3bd 8acb dfbc c59e 13bc e75b 3e3e
00000230: f1f5 9cbe 4b44 213c a202 0bbf 3c16 f7bd
00000240: 5855 0bbe 490f 26be 5fa4 a6bd a70d 143e
00000250: 6898 1bbe f582 94be 1dcd b8be 3ba5 34be
00000260: f215 d43e 0986 13be a62c 9fbe 8cb0 1dbe
00000270: 9b91 48be 2325 363e 683a e6bd 099c 193d
00000280: c2e6 d9bd a3ed 133e c7b0 5fbd e575 4bbe
00000290: 9fe7 883c f43f 103d 3f63 96bc 1d0e bf3d
000002a0: 3b8e a33d e462 b53c 6c7f a1bd 44ab 95b9
000002b0: 8e56 91be 2576 d3bd d16f c83e 4998 2dbc
000002c0: 2229 9a3d e6f5 56be cc1c 40be c9cc 863e
000002d0: 0a87 6cbe 1f73 a2bd 8c1a d5bc 4667 513d
000002e0: ba33 59b8 1b06 363e 80f0 11be 71ad 28be
000002f0: 0ffd 023e 4aa1 7ebe 66f7 91bd a896 d23d
00000300: 8db3 fdbc 0c76 ca3e 759b a7bd 36c3 e53d
00000310: 3ae5 333e 67f9 843e 135a e8bd a137 bbbe
00000320: ad97 dbbe 47ab 88be 6036 c2bd a662 c1be
00000330: 57bf babd 0506 11bd 6b80 8c3d 2c96 c6be
00000340: 2560 f73d 9cff 1a3c 23a9 e9be a427 9cbd
00000350: c8e4 0f3d 224a 29bd 3e89 6e3e 9cc1 0bbe
00000360: 0120 aabd af08 2ebe 8945 85be 40aa bcbe
00000370: 7561 1f3e 86a9 62bd 0ec8 c73c c8b8 4c3e
00000380: c125 583d 9618 0dbe b5b8 e5bd 3fb8 b7bc
00000390: 6b38 50bd d36a 29bd 520b 1abe 2c80 58be
000003a0: 0623 363d 4670 adbd 1e72 d3be a5a5 7abd
000003b0: 0110 0c3d 65a8 b1be 02aa 853d 1141 e53d
000003c0: aced d3bb ffdb 543d 81d6 48be 343e 9cbd
000003d0: 1664 b7bd 99b6 a2bd 3950 18be df8c 83be
000003e0: a575 3f3e 8e27 3dbd 301d 31be a7c7 e13d
000003f0: 3e3e cf3d ff3f 93bc 79ff 18be 8331 8d3e

2.weight f4 [256, 256]
-0.4252188 -0.2998571 0.027170936 -0.021494932 -0.026835479 -0.28442338 -0.05609277 -0.47904983
-0.07294535 0.30310616 0.07468655 -1.0755947 0.47602436 -0.6643361 0.37439778 -0.16967903
0.2940899 0.5151656 0.15899386 -0.2307482 -0.17781606 0.16895325 -0.3943853 0.11207889
0.020662628 0.1960825 0.31112492 0.8421715 -0.26504117 0.29298303 -0.24798602 -0.42374858
0.0021690975 -0.5729859 -0.47802025 -0.1347203 0.15798526 0.06683067 0.047691148 0.1309307
-0.09064954 -0.33056694 -0.2708213 -0.1301011 -1.0071266 -0.32608098 -0.29552332 0.1852549
-0.5709468 0.17855649 0.52410066 -0.31565252 -1.3363327 0.059258115 -0.04429552 0.05326617
0.14399743 0.04168829 -1.0149896 -0.042916574 0.7511398 -0.18530966 0.2642399 0.47765127
-0.018158427 -0.06714285 -0.3608255 0.12906481 -0.058890585 -0.04745786 -0.29777688 0.10390514
0.1568351 0.4245724 0.07601027 -0.029210227 -0.7504797 -0.8036536 -0.2116052 0.19893952
0.15910706 -0.9763727 -0.3924875 -0.47812465 -0.14862263 0.28339303 -0.40054315 -0.12618898
-0.64078665 -0.011539388 0.059895422 0.18986073 -0.041239418 0.208049 -0.0051620957 -0.09373883
-0.09712679 0.46266043 -0.27402648 -0.38063288 0.062256165 -0.4264921 0.23609155 0.031001914
-0.018056728 -0.3022447 -0.8499942 0.0031044947 -0.5031765 0.1443832 -0.8131049 -0.068876326
0.023302909 -0.44118935 0.05857704 -0.6121387 -0.165937 0.10060898 -0.31502807 -0.6958362
-0.18468957 -0.17127073 -0.24916513 -0.059450567 -0.075369366 -1.0576224 -0.077995785 0.7576605
0.28437883 0.24951747 -0.06885254 -0.3370485 -0.0501947 0.289917 0.035438947 -0.28077212
0.98866564 -0.12605101 -0.035211362 0.45841688 0.25741163 -0.38704893 0.07260541 -0.2693816
0.014768687 -0.09023262 -0.85156596 0.08977052 -1.0380218 0.15778798 -0.28023338 0.614634
-0.42497513 0.25289634 0.24533617 0.18017551 0.0031430298 -0.004032609 0.07198039 -0.58904886
-0.016402865 -0.025820391 0.12723798 -0.17896767 0.13159068 -0.052392 -0.61832947 -0.5318904
0.18462503 0.2465651 -0.0102472305 -0.40199092 0.08189507 0.18513098 0.43489414 0.20522426
0.457658 -0.15779811 0.40125728 0.30494332 -0.44702798 0.2787498 -1.1716871 -0.15025415
-1.0314666 -0.053989697 0.3344702 0.25340116 -0.07088655 -0.34647876 -0.2606668 0.14276487
-1.1761266 0.02242515 0.15214889 0.044535693 -0.059513155 -0.049946092 -0.29932126 -0.13714305
-0.38637984 0.27782568 -0.04834713 0.11894427 0.011488678 0.27226564 0.08964858 0.5891187
0.28764445 0.21338983 -0.91461784 0.07272039 0.43978518 0.105586566 -0.035613026 0.14230052
0.23879978 0.05161652 0.123689905 0.011119712 -0.13585071 -0.06533137 -0.19488317 -0.43982992
0.007899528 0.14533554 -0.052306987 -0.034568645 -0.3171007 -0.26810464 0.06988741 0.32907757
-0.57760435 -0.4976337 0.15919961 0.24286647 0.3870557 0.043814905 0.25804573 -0.6913706
0.06943329 1.439725 0.39391065 -1.2310752 -0.6392293 -0.41289452 -0.15261424 -0.13618411
0.06411562 0.3757925 0.10776098 -0.45930567 0.17596057 -0.20977488 -0.35028598 -0.3504228
00000000: 47b6 d9be df86 99be 9595 de3c 2416 b0bc
00000010: 14d6 dbbc f19f 91be 88c1 65bd 0546 f5be
00000020: 5f64 95bd bb30 9b3e 43f5 983d 16ad 89bf
00000030: 77b9 f33e ee11 2abf 11b1 bf3e 57c0 2dbe
00000040: f492 963e e5e1 033f 49cf 223e 4249 6cbe
00000050: 6a15 36be 1502 2d3e dfec c9be 9e89 e53d
00000060: ac44 a93c dac9 483e c44b 9f3e 8d98 573f
00000070: 7ab3 87be df01 963e 0cf0 7dbe 93f5 d8be
00000080: 6b27 0e3b 34af 12bf 12bf f4be 1ef4 09be
00000090: e3c6 213e 85de 883d cb57 433d b312 063e
000000a0: 77a6 b9bd 1240 a9be 17a9 8abe 3939 05be
000000b0: 86e9 80bf 16f4 a6be d54e 97be 76b3 3d3e
000000c0: 9229 12bf 83d7 363e 762b 063f 359d a1be
000000d0: f30c abbf a3b8 723d 386f 35bd a12d 5a3d
000000e0: 1074 133e 57c1 2a3d 2eeb 81bf 4ac9 2fbd
000000f0: b34a 403f d1c1 3dbe 744a 873e b58e f43e
00000100: fbc0 94bc 3182 89bd 1fbe b8be 9129 043e
00000110: 4137 71bd 2c63 42bd 3676 98be 38cc d43d
00000120: 6199 203e 8e61 d93e 46ab 9b3d 494a efbc
00000130: 701f 40bf 3ebc 4dbf 09af 58be cdb6 4b3e
00000140: f6ec 223e 90f3 79bf 1ff4 c8be c1cc f4be
00000150: 8830 18be e418 913e fe13 cdbe af37 01be
00000160: 980a 24bf b40f 3dbc e754 753d da6a 423e
00000170: aaea 28bd cc0a 553e cc26 a9bb 25fa bfbd
00000180: 69ea c6bd d4e1 ec3e 334d 8cbe 50e2 c2be
00000190: 5200 7f3d 2c5d dabe fcc1 713e baf7 fd3c
000001a0: b4eb 93bc d1bf 9abe 3899 59bf c774 4b3b
000001b0: 2dd0 00bf 31d9 133e a527 50bf 080f 8dbd
000001c0: bee5 be3c 92e3 e1be 7aee 6f3d 1fb5 1cbf
000001d0: 64eb 29be 150c ce3d 5c4b a1be 5222 32bf
000001e0: 431f 3dbe 9861 2fbe 2525 7fbe 7082 73bd
000001f0: 415b 9abd 2c60 87bf 41bc 9fbd 0af6 413f
00000200: 1a9a 913e 8281 7f3e 8f02 8dbd 9f91 acbe
00000210: f598 4dbd 0070 943e 6e28 113d 5dc1 8fbe
00000220: 3119 7d3f 8413 01be ca39 10bd 9eb5 ea3e
00000230: 75cb 833e 472b c6be 25b2 943d 63ec 89be
00000240: 5df8 713c e1cb b8bd 3a00 5abf 9bd9 b73d
00000250: e6dd 84bf 2c93 213e c07a 8fbe a758 1d3f
00000260: 5796 d9be a17b 813e 6839 7b3e ee7f 383e
00000270: 4afb 4d3b fa23 84bb 746a 933d e8cb 16bf
00000280: 4d5f 86bc 4985 d3bc ac4a 023e 4d43 37be
00000290: b5bf 063e fe98 56bd d74a 1ebf f829 08bf
000002a0: 580e 3d3e 907b 7c3e 00e4 27bc c1d1 cdbe
000002b0: 9ab8 a73d fa92 3d3e 72aa de3e 4f26 523e
000002c0: 2652 ea3e d495 21be 9871 cd3e 8821 9c3e
000002d0: dae0 e4be 4bb8 8e3e d8f9 95bf 39dc 19be
000002e0: 1907 84bf 4d24 5dbd ae3f ab3e ccbd 813e
000002f0: f82c 91bd aa65 b1be 1e76 85be f430 123e
00000300: 518b 96bf f3b4 b73c ebcc 1b3e 0f6b 363d
00000310: 11c4 73bd 4694 4cbd a340 99be 3a6f 0cbe
00000320: 94d3 c5be 2b3f 8e3e a407 46bd 0e99 f33d
00000330: 023b 3c3c 6766 8b3e ad99 b73d 7cd0 163f
00000340: 2246 933e dd82 5a3e 6524 6abf 6eee 943d
00000350: 862b e13e c53d d83d f7de 11bd 3ab7 113e
00000360: ee87 743e d86b 533d 2251 fd3d 742f 363c
00000370: 731c 0bbe 74cc 85bd 748f 47be 6331 e1be
00000380: 066d 013c d7d2 143e da3f 56bd da97 0dbd
00000390: 065b a2be 0345 89be 2121 8f3d db7c a83e
000003a0: e1dd 13bf d8c9 febe 3905 233e fdb1 783e
000003b0: 2a2c c63e 4277 333d 921e 843e aafd 30bf
000003c0: 0a33 8e3d e948 b83f a8ae c93e df93 9dbf
000003d0: 88a4 23bf e966 d3be e846 1cbe d973 0bbe
000003e0: 0d4f 833d e067 c03e cab1 dc3d 1d2a ebbe
000003f0: 022f 343e 3acf 56be af58 b3be 9e6a b3be

2.bias f4 [256]
-0.20185564 -0.4121793 -0.17782898 -0.31481072 -0.43153933 -0.07775276 -0.35123762 0.0767435
-0.0960004 -0.056761593 -0.3472892 -0.034314796 0.028912121 -0.4349054 0.11974515 -0.22709548
-0.035157535 -0.056002304 -0.35255966 -0.2760821 -0.3564872 -0.0735832 -0.06262714 -0.0089048
-0.44385427 0.12132879 0.20064315 -0.050851002 -0.06020529 0.09839708 -0.14105818 -0.39556375
-0.0025004253 -0.04968027 -0.013969564 -0.0047035594 -0.28644466 -0.055607498 -0.16513188 -0.059862327
-0.34905824 0.19056436 -0.17401567 -0.50256646 -0.014295405 -0.20039995 -0.47499758 0.028336007
-0.03698593 -0.19346897 -0.1694304 0.053013973 -0.06313582 0.13740984 -0.31972927 -0.0687136
0.11379622 0.11714602 -0.42937216 -0.05246185 -0.36755687 -0.002193176 -0.078905515 -0.20942609
-0.2726311 -0.15295757 -0.0145568615 -0.38080093 -0.04023803 -0.041450668 -0.4290284 -0.44457796
0.04389447 -0.052609663 -0.100676015 -0.3104837 -0.44671223 -0.37168363 -0.16392311 -0.006498565
-0.09766239 -0.038870737 0.046948243 -0.031153727 -0.28079465 -0.09409188 -0.014290094 -0.39417526
0.13694742 -0.087248415 -0.0048884046 -0.34153354 0.10349772 -0.026760086 -0.49048746 -0.005775039
0.43654522 -0.34954998 -0.411076 -0.15910818 -0.0072320886 -0.05595638 -0.008642342 -0.09546561
-0.009515564 0.12592633 -0.35532892 -0.17873277 0.15124248 -0.05492759 -0.1554452 -0.08688538
0.19317135 -0.17614205 -0.09256284 -0.14138062 0.011056255 -0.1259365 4.6989033e-05 0.035876263
-0.072164014 0.038091213 0.037058357 -0.06460823 -0.41467252 -0.09779075 -0.07622886 -0.34750208
0.02986934 -0.25888422 -0.03117302 -0.18051636 0.0053596217 -0.060434707 -0.06517394 0.22448982
-0.27970746 -0.32481706 0.2958095 -0.1991875 -0.0010671928 0.026149921 -0.046695996 0.23602594
-0.11549785 0.024387835 -0.5111471 -0.33957183 -0.022874266 0.16343507 -0.06361482 -0.094166644
-0.43305522 -0.3938002 -0.07942154 -0.16487968 -0.0230361 -0.43466383 -0.36626804 -0.1717961
-0.13538754 -0.26339075 -0.22313021 -0.03515914 -0.17176615 -0.09733442 -0.15823516 -0.12891634
-0.045906227 -0.44742087 0.090560704 0.023725834 -0.09065401 0.27658358 -0.0406636 -0.15312724
-0.047390312 -0.26221925 -0.051415943 -0.3909048 -0.02137032 -0.31178996 -0.4696673 -0.2999389
-0.09275359 0.057996497 0.21520606 -0.07395512 0.10390786 -0.069304556 -0.6088938 -0.34402743
-0.41085866 -0.24534093 -0.09327851 0.14052401 0.13856436 -0.20398825 -0.20092362 0.15586422
-0.48448128 0.011534031 -0.07774722 -0.1927798 -0.07787624 -0.2572778 -0.08090671 -0.22432257
-0.2608369 -0.20305008 -0.52960384 -0.14320001 -0.5342783 -0.09134513 0.06242129 -0.29950154
-0.04102238 0.064272545 -0.19784863 -0.046547677 -0.22170225 -0.4154935 -0.18114644 -0.5363112
-0.12160042 -0.06255581 -0.043913327 -0.05204319 -0.30866843 -0.16782658 -0.08748695 -0.075381674
-0.22516896 -0.09972332 0.0006924971 -0.24724457 -0.21462272 -0.091815226 -0.36622697 0.0046551195
-0.018662667 -0.023957025 -0.54816735 -0.04496258 -0.22797959 -0.14179815 -0.17874256 -0.022942731
-0.32171842 -0.28415945 -0.32380825 0.123087145 -0.17328559 -0.3649788 0.0068490184 -0.047648776
00000000: 3fb3 4ebe 2a09 d3be cd18 36be df2e a1be
00000010: b9f2 dcbe d73c 9fbd 6bd5 b3be b22b 9d3d
00000020: dc9b c4bd d87e 68bd e4cf b1be ac8d 0cbd
00000030: 1dd9 ec3c ecab debe f23c f53d b88b 68be
00000040: 5901 10bd ac62 65bd b382 b4be a25a 8dbe
00000050: 7e85 b6be cab2 96bd a842 80bd 70e5 11bc
00000060: de40 e3be 3b7b f83d 6675 4d3e 2449 50bd
00000070: d299 76bd 6984 c93d 8e71 10be 5587 cabe
00000080: 2dde 23bb 8a7d 4bbd 99e0 64bc 5120 9abb
00000090: e0a8 92be b0c4 63bd 5518 29be 3332 75bd
000000a0: c3b7 b2be 4e23 433e 2a31 32be 32a8 00bf
000000b0: 4637 6abc a535 4dbe e232 f3be ea20 e83c
000000c0: 8f7e 17bd bb1c 46be 2a7f 2dbe 2e25 593d
000000d0: 5a4d 81bd 2ab5 0c3e 8eb3 a3be b7b9 8cbd
000000e0: fe0d e93d 41ea ef3d abd6 dbbe 3de2 56bd
000000f0: 6a30 bcbe 63bb 0fbb 3799 a1bd cb73 56be
00000100: 4e96 8bbe e9a0 1cbe e77f 6ebc 57f8 c2be
00000110: a2d0 24bd 2dc8 29bd 9ca9 dbbe b99f e3be
00000120: b0ca 333d 3b7d 57bd 3a2f cebd b8f7 9ebe
00000130: 77b7 e4be 514d bebe 76db 27be eaf1 d4bb
00000140: 3803 c8bd ec36 1fbd cd4c 403d 1a36 ffbc
00000150: 51c4 8fbe 3eb3 c0bd 0021 6abc 57d1 c9be
00000160: f23b 0c3e 4caf b2bd e92e a0bb 7cdd aebe
00000170: 9df6 d33d f837 dbbc 2c21 fbbe 8a3c bdbb
00000180: db82 df3e 37f8 b2be 8e78 d2be 41ed 22be
00000190: 28fb ecbb 8432 65bd 9c98 0dbc 7983 c3bd
000001a0: 2be7 1bbc d5f2 003e aced b5be b905 37be
000001b0: 4fdf 1a3e c1fb 60bd 072d 1fbe f6f0 b1bd
000001c0: b6ce 453e 955e 34be 9691 bdbd 15c6 10be
000001d0: 4b25 353c 7ff5 00be 1716 4538 fdf2 123d
000001e0: baca 93bd 8805 1c3d 81ca 173d 5251 84bd
000001f0: f54f d4be 8446 c8bd e01d 9cbd cbeb b1be
00000200: 8cb0 f43c 798c 84be 905e ffbc 48d9 38be
00000210: c49f af3b 628a 77bd ea79 85bd a9e0 653e
00000220: d135 8fbe 6c4e a6be 5874 973e cff7 4bbe
00000230: 0ce1 8bba 5c38 d63c 4d44 3fbd c9b0 713e
00000240: 238a ecbd ffc8 c73c 89da 02bf 5cdc adbe
00000250: d062 bbbc 865b 273e 7d48 82bd 71da c0bd
00000260: 6ab9 ddbe 2ea0 c9be c3a7 a2bd 38d6 28be
00000270: 34b6 bcbc 428c debe 7c87 bbbe 51eb 2fbe
00000280: 08a3 0abe 27db 86be 3f7c 64be 0803 10bd
00000290: 77e3 2fbe 4557 c7bd 6608 22be a502 04be
000002a0: 2b08 3cbd 5914 e5be e477 b93d ae5c c23c
000002b0: cfa8 b9bd 5d9c 8d3e e08e 26bd 63cd 1cbe
000002c0: 581c 42bd 9a41 86be 8699 52bd ad24 c8be
000002d0: cf10 afbc efa2 9fbe 3b78 f0be 9791 99be
000002e0: 98f5 bdbd bc8d 6d3d fa5e 5c3e c875 97bd
000002f0: a5cd d43d 8cef 8dbd 77e0 1bbf 5d24 b0be
00000300: 115c d2be a73a 7bbe ce08 bfbd 87e5 0f3e
00000310: d1e3 0d3e 4ce2 50be ecbe 4dbe df9a 1f3e
00000320: ee0d f8be 3bf9 3c3c ef39 9fbd 1168 45be
00000330: 947d 9fbd eab9 83be 6bb2 a5bd d1b4 65be
00000340: 6a8c 85be 5cec 4fbe 1e94 07bf 06a3 12be
00000350: 76c6 08bf 2813 bbbd 77ad 7f3d 4458 99be
00000360: 1507 28bd 53a1 833d d598 4abe c7a8 3ebd
00000370: ea05 63be 90bb d4be 747e 39be b14b 09bf
00000380: a409 f9bd 431d 80bd 76de 33bd 3d2b 55bd
00000390: ca09 9ebe bbda 2bbe 5c2c b3bd b561 9abd
000003a0: b192 66be bd3b ccbd b288 353a ae2d 7dbe
000003b0: 0fc6 5bbe 9f09 bcbd 1a82 bbbe f989 983b
000003c0: 73e2 98bc 8641 c4bc b254 0cbf af2a 38bd
000003d0: 7b73 69be 8933 11be 4a08 37be 65f2 bbbc
000003e0: 47b8 a4be 597d 91be 32ca a5be 1d15 fc3d
000003f0: c771 31be 80de babe bb6d e03b 5d2b 43bd

4.weight f4 [256, 256]
-0.15299018 0.26801226 -0.27107382 0.16144666 0.46265253 -0.37071013 -0.051121756 -0.045603473
-0.25884035 -0.037129678 0.42720342 0.29187238 -0.05128622 0.20625322 -0.23659295 -0.04699023
-0.029638506 0.1334327 -0.08023231 -0.5469951 0.05971202 0.043823514 -0.044577487 -0.21718511
-0.009596609 -0.18252371 0.09955459 -0.002929223 -0.029028099 -0.27133477 0.090210155 0.31305078
0.40663671 0.008254373 -0.042020045 -0.012582777 0.31219083 0.45842898 0.5366723 -0.013032767
-0.28703254 -0.6885602 0.19434084 0.47446832 0.06508598 -0.40884182 -0.013105467 0.004171339
-0.008922185 -0.2610509 0.09346744 0.18365768 0.24521026 -0.23343031 -0.122207806 0.03025448
0.26455024 0.09095764 0.27206448 0.026304653 0.013468567 0.32973307 0.021358129 -0.13724928
-0.19969065 -0.12494979 0.032472227 -0.9671147 0.052869856 0.031476557 -0.31439433 -0.121742375
0.01579742 -0.24799363 0.12578657 -0.18216239 -0.2458742 -0.010436116 -0.26085722 -0.03201025
0.07221788 0.017732037 0.066683605 0.047177933 0.078866854 -0.4127603 -0.014433709 -0.3583221
0.093463905 -0.23504302 -0.033778537 0.14918934 0.30120748 -0.19478507 0.20146805 0.04284244
-0.047301687 0.087047674 0.40738314 0.048838522 0.0059515433 -0.043502018 0.13456176 0.30319557
-0.040752873 -0.54110634 0.1242012 -0.30754274 -0.035058353 0.03163595 -0.031728216 -0.027495388
-0.12464073 -0.003785614 0.101969674 0.08712096 -0.04714589 -0.45568424 -0.020908972 0.23598802
-0.00012476598 -0.037042715 0.0003042748 -0.104047 0.19588573 -0.11648775 0.036177434 0.058594435
0.03894283 0.9597367 -0.051368997 -0.21451537 0.009130534 -0.031995896 -0.2379578 0.048498083
-0.55337465 -0.96265244 -0.21256195 0.20375621 -0.0023912988 0.43708086 0.045217212 0.2294853
-0.063673824 0.018844994 0.136499 0.030717364 0.20169468 -0.25762916 -0.036781088 -0.3403562
0.41609275 0.39496627 -0.34713677 -0.47531888 -0.3943777 -0.44260076 -0.15783243 -0.14307006
-0.19565652 -0.5933777 -0.26997504 -0.0043646772 0.04482691 -0.07590213 -0.064599976 -0.009044413
-0.05375154 -0.10617801 -0.6722758 0.07755638 0.029308254 -0.42963022 -0.002403003 0.39043885
0.055678952 0.2551583 -0.010488395 0.3783565 0.25216958 -0.081707135 0.28026363 0.32280633
-0.048036415 0.35603425 -0.127993 0.024741668 0.23246363 -0.034729104 0.06119989 0.057990015
0.33571568 -0.09323488 0.006014291 -0.38698328 -0.09991169 0.24206461 0.69652516 -0.05473754
-0.0012789118 -0.052063793 -0.023838181 0.1428193 -0.13600025 0.26285148 -0.043055635 -0.060565453
0.45421058 -0.20486383 -0.04472934 0.049224854 0.29439247 0.03361064 -0.017778348 0.31716177
-0.4342956 -0.11765416 0.06453973 0.029488094 -0.037857518 0.33863774 -0.32881427 0.5381079
0.3359106 0.31815565 0.0016243408 -0.040868208 -0.35404432 0.10530862 0.0301942 -0.1309347
-0.30426174 0.0064151823 0.019757638 0.4263135 -0.35064474 -0.091051474 0.06904291 -0.15480171
0.017543735 0.009626393 0.6022032 -0.035277333 -0.023288613 -0.17743511 0.2839145 0.08505926
-0.3347582 -0.55913603 -0.019294554 -0.13133396 -0.559484 0.0654598 -0.023452125 -0.052938342
00000000: 75a9 1cbe e738 893e 30ca 8abe 4652 253e
00000010: cbe0 ec3e b8cd bdbe 0c65 51bd b5ca 3abd
00000020: b986 84be 4a15 18bd 68ba da3e 4c70 953e
00000030: 8011 52bd 0b34 533e 6c45 72be d478 40bd
00000040: 74cc f2bc 95a2 083e d650 a4bd df07 0cbf
00000050: 9794 743d 4980 333d e296 36bd c665 5ebe
00000060: 183b 1dbc 7fe7 3abe 47e3 cb3d 35f8 3fbb
00000070: 56cc edbc 64ec 8abe 1ac0 b83d 3148 a03e
00000080: b032 d03e 5a3d 073c 361d 2cbd fe27 4ebc
00000090: 7ad7 9f3e 34b7 ea3e 5b63 093f 6387 55bc
000000a0: eef5 92be 7b45 30bf 4901 473e 83ed f23e
000000b0: cc4b 853d b753 d1be 50b8 56bc baaf 883b
000000c0: 5b2e 12bc 77a8 85be db6b bf3d c210 3c3e
000000d0: 6618 7b3e 5b08 6fbe 1648 fabd 3ed8 f73c
000000e0: 2173 873e 0048 ba3d 094c 8b3e db7c d73c
000000f0: 44ab 5c3c c6d2 a83e 3ef7 ae3c 138b 0cbe
00000100: b57b 4cbe ade5 ffbd 9901 053d d494 77bf
00000110: 108e 583d 90ed 003d 4bf8 a0be 1154 f9bd
00000120: 9769 813c 0bf2 7dbe 32ce 003e c788 3abe
00000130: 72c6 7bbe 3efc 2abc 148f 85be 2e1d 03bd
00000140: f8e6 933d c742 913c 6a91 883d a63d 413d
00000150: f284 a13d 5155 d3be 5d7b 6cbc ff75 b7be
00000160: 016a bf3d 1eaf 70be 5d5b 0abd 17c5 183e
00000170: de37 9a3e bd75 47be a44d 4e3e 8e7b 2f3d
00000180: 6abf 41bd 0d46 b23d 8694 d03e e70a 483d
00000190: 2a05 c33b 2c2f 32bd 8fca 093e 733c 9b3e
000001a0: 7cec 26bd f285 0abf 335d fe3d 3e76 9dbe
000001b0: 5999 0fbd b394 013d 72f5 01bd 023e e1bc
000001c0: a443 ffbd 1018 78bb 7ad5 d03d 796c b23d
000001d0: 0c1c 41bd 724f e9be 4b49 abbc d8a6 713e
000001e0: 9dd3 02b9 1aba 17bd 1387 9f39 9816 d5bd
000001f0: 4596 483e 2191 eebd ca2e 143d b800 703d
00000200: 8482 1f3d 4eb1 753f 4c68 52bd eba9 5bbe
00000210: 3c98 153c 210e 03bd 36ab 73be eda5 463d
00000220: f6a9 0dbf 6470 76bf d7a9 59be 78a5 503e
00000230: 56b7 1cbb 10c9 df3e af35 393d 32fe 6a3e
00000240: 6c67 82bd d160 9a3c 65c6 0b3e fba2 fb3c
00000250: 0d89 4e3e f8e7 83be c4a7 16bd 2b43 aebe
00000260: 1c0a d53e 0539 ca3e e9bb b1be ff5c f3be
00000270: e0eb c9be 919c e2be d39e 21be f580 12be
00000280: 2f5a 48be 9ae7 17bf 2b3a 8abe 9105 8fbb
00000290: 6c9c 373d 9372 9bbd fe4c 84bd 052f 14bc
000002a0: 932a 5cbd db73 d9bd 441a 2cbf e1d5 9e3d
000002b0: dd17 f03c 7ef8 dbbe b37b 1dbb 9ae7 c73e
000002c0: 9d0f 643d 1ca4 823e 84d7 2bbc f1b7 c13e
000002d0: 5f1c 813e 1256 a7bd b77e 8f3e df46 a53e
000002e0: d5c1 44bd 1f4a b63e 9910 03be 0aaf ca3c
000002f0: f20a 6e3e 1b40 0ebd bcac 7a3d f086 6d3d
00000300: ede2 ab3e eef1 bebd 8813 c53b ac22 c6be
00000310: 809e ccbd c9df 773e 794f 323f 7934 60bd
00000320: 29a1 a7ba d840 55bd 4a48 c3bc 393f 123e
00000330: a643 0bbe 7894 863e 1b5b 30bd 7b13 78bd
00000340: 4a8e e83e d3c7 51be 1d36 37bd 00a0 493d
00000350: 9cba 963e 4fab 093d e6a3 91bc 0763 a23e
00000360: fe5b debe aaf4 f0bd 682d 843d 0491 f13c
00000370: 7c10 1bbd ed61 ad3e 585a a8be 70c1 093f
00000380: 79fc ab3e 4ce5 a23e d5e7 d43a 6c65 27bd
00000390: 4c45 b5be 0cac d73d d459 f73c bf13 06be
000003a0: 32c8 9bbe 7336 d23b c5da a13c c345 da3e
000003b0: b587 b3be 3279 babd 5f66 8d3d 5784 1ebe
000003c0: e1b7 8f3c 05b8 1d3c fd29 1a3f f77e 10bd
000003d0: c3c7 bebc 8db1 35be 3e5d 913e 8d33 ae3d
000003e0: 6d65 abbe 8a23 0fbf 9d0f 9ebc 697c 06be
000003f0: 583a 0fbf ca0f 863d ac1e c0bc e0d5 58bd

4.bias f4 [256]
-0.38339102 -0.18310446 -0.2016518 -0.32912856 -0.36774436 -0.20735906 -0.22473295 -0.33326438
-0.078017026 -0.000110131514 -0.078855686 -0.12639166 -0.053587362 -0.38085756 -0.5376158 -0.0996724
-0.14136624 -0.07466692 -0.32770023 -0.13315953 -0.20623538 -0.35771775 -0.5587709 -0.31503612
-0.23425706 -0.11397508 -0.24942698 -0.3716477 -0.11661369 -0.33031303 -0.35737973 0.06176005
-0.051664438 -0.092654556 -0.022380117 -0.45023507 -0.44350544 -0.023455825 -0.36883736 0.22132574
-0.30703795 0.09208053 -0.40072593 -0.2717687 -0.13821883 0.025618019 -0.20578842 -0.31696886
-0.09849068 0.017673485 -0.47157973 -0.3856113 -0.42736867 -0.4233759 -0.027162854 -0.241106
-0.3821349 -0.23710635 0.111857206 -0.036367662 -0.08075748 -0.78602016 -0.13823666 -0.23500814
-0.099069014 -0.369785 -0.19616508 -0.18489134 -0.2326108 -0.3938755 -0.21555035 -0.2854341
-0.32021374 -0.57453126 -0.26005954 -0.033062816 -0.4423278 -0.43820968 0.20784934 -0.030311478
-0.17742008 -0.0818936 -0.18792398 -0.13110895 -0.33091804 -0.27628124 -0.08495129 -0.09128353
0.056281894 -0.43556547 -0.21633074 -0.13825643 -0.392447 -0.25147653 -0.3010759 -0.033877138
-0.337384 -0.07870855 -0.08582946 -0.57311463 -0.4833226 -0.09274496 -0.26695576 -0.13840081
-0.091192655 -0.4092365 -0.42126527 -0.2895236 -0.3581976 -0.30976534 -0.2651676 0.1398227
-0.026102636 -0.12308112 -0.23965628 -0.35944733 0.0566516 -0.062440645 -0.3809069 -0.3598996
-0.42830688 -0.27420118 -0.35538065 -0.26024514 0.03169182 -0.049122676 -0.40446573 -0.23546262
-0.38206235 -0.7932737 -0.23736969 -0.48670354 -0.47497708 0.008505975 -0.2203869 -0.33714914
-0.3162282 -0.16924967 -0.31602448 -0.046938993 0.20492081 0.21064985 -0.48623738 -0.3893571
-0.15317732 -0.10810538 -0.7166388 -0.48284137 -0.40475708 -0.012717027 -0.44854698 -0.16634144
-0.040134083 -0.30172125 -0.017735945 -0.47743607 0.0904039 -0.56874424 -0.36592227 0.0026572181
-0.039218374 -0.070041515 -0.2595334 -0.3190941 -0.05904051 -0.13797502 -0.2528446 -0.23050755
-0.035063155 -0.281738 -0.12569971 -0.056376424 0.20406729 -0.106506154 -0.35176715 -0.06667507
-0.21586065 -0.025399486 -0.04700312 -0.1319123 -0.056531567 -0.09009951 -0.16639824 -0.07996219
0.039059974 -0.35994264 -0.11722888 0.050501682 6.810569e-05 -0.45965725 -0.10149046 -0.3249801
-0.09372337 -0.084834635 -0.29204455 -0.17345843 -0.2185187 -0.08560189 -0.32606646 -0.4191254
-0.41412258 -0.5299976 -0.08099608 -0.3297677 -0.57716656 -0.33243436 -0.21958663 -0.051434807
-0.07382069 -0.053100776 -0.10380195 -0.18024728 -0.117959656 -0.41251695 -0.383562 0.00037448035
-0.51632005 -0.08158517 -0.28774756 -0.073277 -0.22335538 -0.5027782 -0.2460024 -0.27749386
-0.09151337 -0.0015584608 -0.47520024 -0.23540197 -0.4028054 -0.099156335 -0.21942542 -0.005419326
-0.47975644 -0.45119452 -0.46607086 -0.27319604 -0.32661378 -0.44945067 -0.28966463 -0.21526022
-0.25926355 -0.10208028 -0.22150727 -0.31758288 -0.428581 0.01357216 0.046530355 -0.33678794
-0.1139384 -0.06971317 -0.43789035 -0.33038035 -0.25109527 -0.55473065 -0.33309886 -0.36176556
00000000: d44b c4be bc7f 3bbe cf7d 4ebe 8a83 a8be
00000010: fd48 bcbe ef55 54be 6520 66be a1a1 aabe
00000020: 64c7 9fbd 68f6 e6b8 177f a1bd d16c 01be
00000030: 6c7e 5bbd c3ff c2be 30a1 09bf 0b21 ccbd
00000040: 50c2 10be f8ea 98bd 53c8 a7be f95a 08be
00000050: 5e2f 53be c826 b7be 9c0b 0fbf 6a4c a1be
00000060: 15e1 6fbe c46b e9bd c969 7fbe 9b48 bebe
00000070: 29d3 eebd ca1e a9be 7afa b6be 1bf8 7c3d
00000080: 179e 53bd acc1 bdbd 8256 b7bc 3685 e6be
00000090: 2513 e3be 6e26 c0bc 40d8 bcbe 37a3 623e
000000a0: 1434 9dbe b894 bc3d f32b cdbe 4425 8bbe
000000b0: 3d89 0dbe e1dc d13c 33ba 52be be49 a2be
000000c0: 7bb5 c9bd fcc7 903c e672 f1be d86e c5be
000000d0: 11d0 dabe bac4 d8be a284 debc 7ee4 76be
000000e0: 30a7 c3be 02cc 72be 6415 e53d 42f6 14bd
000000f0: 2d64 a5bd 9e38 49bf e98d 0dbe f9a5 70be
00000100: b2e4 cabd 7654 bdbe 80df 48be 2854 3dbe
00000110: 8731 6ebe 0daa c9be 3bb9 5cbe 6b24 92be
00000120: 0ef3 a3be 7b14 13bf 8626 85be e06c 07bd
00000130: ca78 e2be 055d e0be 75d6 543e c74f f8bc
00000140: 9cad 35be d5b7 a7bd 256f 40be 6d41 06be
00000150: 176e a9be bc74 8dbe f1fa adbd dcf2 babd
00000160: d887 663d 7002 dfbe ce85 5dbe 1893 0dbe
00000170: d0ee c8be 88c1 80be 9f26 9abe c1c2 0abd
00000180: 98bd acbe f331 a1bd 5bc7 afbd a4b7 12bf
00000190: 0f76 f7be 12f1 bdbd 6dae 88be f1b8 0dbe
000001a0: 37c3 babd 7287 d1be 15b0 d7be 703c 94be
000001b0: ad65 b7be 9099 9ebe 0cc4 87be af2d 0f3e
000001c0: 32d5 d5bc f411 fcbd 7568 75be 7b09 b8be
000001d0: 820b 683d c3c1 7fbd 3b06 c3be c344 b8be
000001e0: 0a4b dbbe 1964 8cbe 74f4 b5be da3e 85be
000001f0: 48cf 013d dc34 49bd 2216 cfbe 1d1d 71be
00000200: ad9d c3be fc13 4bbf 0a11 73be 3531 f9be
00000210: 3230 f3be a55c 0b3c 1aad 61be d09e acbe
00000220: aae8 a1be c94f 2dbe f6cd a1be 1a43 40bd
00000230: c3d6 513e 98b4 573e 1bf4 f8be d059 c7be
00000240: 84da 1cbe 5a66 ddbd a475 37bf fc36 f7be
00000250: 523c cfbe 145b 50bc f3a7 e5be 6955 2abe
00000260: a363 24bd 357b 9abe f94a 91bc 8072 f4be
00000270: ae25 b93d 3999 11bf 2a5a bbbe b924 2e3b
00000280: 72a3 20bd ed71 8fbd 90e1 84be 4d60 a3be
00000290: 76d4 71bd 5349 0dbe d974 81be 2c0a 6cbe
000002a0: 629e 0fbd f73f 90be 6db7 00be f7ea 66bd
000002b0: 04f7 503e e61f dabd d31a b4be f08c 88bd
000002c0: 930a 5dbe 9512 d0bc 5886 40bd 0514 07be
000002d0: a58d 67bd 1886 b8bd 4d64 2abe 37c3 a3bd
000002e0: 5afd 1f3d 674a b8be b215 f0bd dada 4e3d
000002f0: f7d3 8e38 3258 ebbe 3bda cfbd cb63 a6be
00000300: 0af2 bfbd c8bd adbd dd86 95be 169f 31be
00000310: 5ec3 5fbe 0b50 afbd 2ff2 a6be 9b97 d6be
00000320: e007 d4be ecad 07bf 46e1 a5bd 50d7 a8be
00000330: 30c1 13bf d634 aabe 51db 60be 4ead 52bd
00000340: 4d2f 97bd 3380 59bd 1e96 d4bd be92 38be
00000350: d594 f1bd 6c35 d3be 3d62 c4be e755 c439
00000360: 8d2d 04bf 2016 a7bd a653 93be 4012 96bd
00000370: 46b7 64be 12b6 00bf 0ee8 7bbe ad13 8ebe
00000380: 5d6b bbbd 4445 ccba 724d f3be 370d 71be
00000390: 823c cebe 7a12 cbbd 0fb1 60be 9a94 b1bb
000003a0: a3a2 f5be f802 e7be d7a0 eebe 5ae0 8bbe
000003b0: ec39 a7be 661e e6be ec4e 94be 2d6d 5cbe
000003c0: 31be 84be 770f d1bd cdd2 62be 399a a2be
000003d0: f86e dbbe c45d 5e3c 9d96 3e3d 786f acbe
000003e0: 8958 e9bd c7c5 8ebd 2a33 e0be 9d27 a9be
000003f0: 8f8f 80be d402 0ebf ef8b aabe 5639 b9be

6.weight f4 [4, 256]
0.0042258925 0.017688654 -0.023279482 -0.072353736 -0.0020776924 0.0013255844 0.0047864695 0.005763428
-0.054021157 0.08562052 0.006518387 0.022169158 0.007072737 -0.0060972627 0.0077033956 0.006707964
0.004884255 -0.0041243182 -0.005425489 0.00026552955 0.042901196 0.008855304 0.004257472 0.035088614
0.015438037 0.023242068 -0.014356445 0.008093821 -0.07013661 0.019632515 -0.01374139 -0.12724169
-0.081238866 -0.015856225 0.02368684 0.030116156 -0.0082871085 -0.019185461 -0.016661895 -0.012563535
-0.011591237 -0.018958073 -1.5836172 0.01932783 -0.023674164 0.038722854 0.021630464 -0.0065279305
-0.07310715 0.0094201695 0.039823823 0.005075235 -0.035372026 -0.0076537523 0.020801194 0.043640938
-0.00078584725 -0.397897 0.004059532 -0.016832486 -0.0012000805 -0.01622265 -0.007241791 0.012708121
0.016190346 0.0183414 -0.0417951 0.035504572 0.018358845 -3.1400727e-05 0.02304638 -0.029528925
0.027356112 0.050222326 -0.01251105 0.027511515 0.016184725 0.0024208636 0.026643272 0.022533251
-0.0144424895 -0.035699993 0.015253939 0.033555597 -0.0035071112 -0.00980707 -0.031864196 0.07335675
0.021163873 0.007856022 0.0066904738 0.0016134254 0.039538506 0.14720026 0.055916067 0.0098344395
0.02630481 0.031414118 0.008582148 -0.32488474 -0.03296076 0.053048998 -0.011259929 -0.0007966605
0.018685713 -0.12703997 0.019388977 -0.044117782 0.018539619 0.0047712936 0.07686524 0.0025640186
0.02989504 0.0034131212 0.010588702 -0.12696667 -0.006895612 0.04420296 -0.09533079 0.022637794
-0.031054955 -0.028621772 -0.1571322 -0.69822377 0.0023436104 -0.01505641 -0.004939693 -0.022737002
0.035368018 -2.9690776 0.03369066 0.04808627 -0.045338195 0.019978296 -0.015084464 0.014584446
-0.0066977018 0.026025936 0.026472414 -0.054647025 -0.027892113 0.013615879 0.019266052 -0.0069742072
0.03407024 0.029890912 0.10777086 0.022494456 0.09573977 -0.079296134 0.017578805 -0.0043415627
0.010990896 -0.0006537354 0.013696387 0.034348365 -0.048029695 0.018877046 -0.03695001 0.015233097
0.13541129 0.0055584777 0.030614803 -0.010306987 -0.014402407 -0.03257272 -0.02147504 0.003227338
-0.025776975 -0.020210218 0.038643833 0.0104706 -0.018597404 -0.032442942 -0.112395436 -0.015395134
0.019192206 0.03148147 -0.004437277 -0.052884992 0.018951429 0.019150522 -0.01639081 0.033390522
0.05194341 -0.252818 -0.024513083 0.0011952742 0.009437144 -0.0009758354 0.027518773 0.00852274
-0.0066134986 0.045095447 0.048404496 -0.0075075836 0.13684982 0.032983556 -0.028256325 -0.02256521
-0.011018106 -0.005448307 -0.0012362027 0.027222265 0.026208945 0.11856475 0.006364413 0.031790752
0.0033078783 0.023316456 -0.0023121233 -0.0059320773 -0.09873979 -0.022341473 -0.0064641135 -0.02529282
0.14200293 -0.04829655 -0.05247703 0.045910943 0.04701051 -0.030618113 0.028015733 -0.067901835
0.00075196207 0.051904105 -0.018774725 -0.81063926 -0.010291279 0.057255138 -0.03380065 -0.028157365
0.02063084 0.10448849 0.028868392 0.037662473 -0.10545726 -0.04178051 0.016811164 -0.010248909
-0.030891152 -0.064978786 -0.012182387 -0.011930998 0.12643933 0.018988434 0.03827469 -0.018523933
0.0052644634 -0.004875296 0.016933598 -0.022168927 0.00040761175 -0.012497741 0.0008909625 0.030512204
00000000: 5b79 8a3b cce7 903c 9db4 bebc 322e 94bd
00000010: e529 08bb 3bbf ad3a d1d7 9c3b 23db bc3b
00000020: 4a45 5dbd d059 af3d 3198 d53b 189c b53c
00000030: 6bc2 e73b 8ccb c7bb c46c fc3b 7bce db3b
00000040: 1a0c a03b 4a25 87bb 4dc8 b1bb c636 8b39
00000050: 2ab9 2f3d d615 113c 4482 8b3b 14b9 0f3d
00000060: d2ef 7c3c 2666 be3c 4b37 6bbc f29b 043c
00000070: c8a3 8fbd 5ed4 a03c 9123 61bc a54b 02be
00000080: 9060 a6bd eae4 81bc e70a c23c 28b6 f63c
00000090: a7c6 07bc d42a 9dbc 877e 88bc 49d7 4dbc
000000a0: 2ce9 3dbc f64d 9bbc f8b3 cabf 6655 9e3c
000000b0: 52f0 c1bc db9b 1e3d 5f32 b13c 40e8 d5bb
000000c0: 34b9 95bd 0e57 1a3c 4e1e 233d 284e a63b
000000d0: 42e2 10bd 54cc fabb 4467 aa3c d7c0 323d
000000e0: 5101 4eba 28b9 cbbe d305 853b 48e4 89bc
000000f0: 054c 9dba 5de5 84bc 8c4c edbb b935 503c
00000100: 9ea1 843c b440 963c 5731 2bbd 3e6d 113d
00000110: 4a65 963c 46b4 03b8 c3cb bc3c a5e6 f1bc
00000120: ed19 e03c edb5 4d3d 26fb 4cbc d45f e13c
00000130: d495 843c 5aa7 1e3b fe42 da3c a797 b83c
00000140: 31a0 6cbc 283a 12bd a8eb 793c 9871 093d
00000150: 90d7 65bb d5ad 20bc 0884 02bd 103c 963d
00000160: dc5f ad3c 8bb6 003c c33b db3b 9379 d33a
00000170: 21f3 213d aabb 163e 3f08 653d a120 213c
00000180: 2f7d d73c 17ac 003d 239c 0c3c 4b57 a6be
00000190: dd01 07bd e849 593d 917b 38bc fbd6 50ba
000001a0: c812 993c c416 02be a2d5 9e3c d9b4 34bd
000001b0: 66e0 973c 8358 9c3b 866b 9d3d 1809 283b
000001c0: 71e6 f43c acae 5f3b 3c7c 2d3c 8d03 02be
000001d0: 96f4 e1bb 2a0e 353d ca3c c3bd e572 b93c
000001e0: f666 febc 3578 eabc 43e7 20be cbbe 32bf
000001f0: 4297 193b 29af 76bc 26dd a1bb f342 babc
00000200: 0ede 103d 5e05 3ec0 38ff 093d 1cf6 443d
00000210: 8bb4 39bd 86a9 a33c d424 77bc 9af3 6e3c
00000220: 6578 dbbb 5834 d53c addc d83c 8fd5 5fbd
00000230: 007e e4bc 2315 5f3c d7d3 9d3c e487 e4bb
00000240: 3c8d 0b3d c9dd f43c f8b6 dc3d 4b46 b83c
00000250: 3613 c43d 0366 a2bd 6d01 903c ab43 8ebb
00000260: 2913 343c 715f 2bba d066 603c dfb0 0c3d
00000270: c9ba 44bd 09a4 9a3c e558 17bd 3d94 793c
00000280: 42a9 0a3e e423 b63b e5cb fa3c a3de 28bc
00000290: 13f8 6bbc f96a 05bd 6cec afbc bf81 533b
000002a0: 3c2a d3bc e68f a5bc ff48 1e3d e18c 2b3c
000002b0: 9559 98bc e4e2 04bd 942f e6bd df3b 7cbc
000002c0: f938 9d3c b7f2 003d 9466 91bb ef9d 58bd
000002d0: 0740 9b3c 8ee1 9c3c 0546 86bc 80c4 083d
000002e0: 9dc2 543d 5c71 81be a9cf c8bc bfaa 9c3a
000002f0: 409e 1a3c 35cf 7fba 0d6f e13c f6a2 0b3c
00000300: 0cb6 d8bb 01b6 383d cb43 463d 2d02 f6bb
00000310: 5c22 0c3e c419 073d cf79 e7bc adda b8bc
00000320: 4985 34bc b687 b2bb 1408 a2ba 3a01 df3c
00000330: 24b4 d63c 13d2 f23d 918c d03b 0537 023d
00000340: fdc8 583b 2702 bf3c fe86 17bb df61 c2bb
00000350: 1638 cabd 7705 b7bc ead0 d3bb e332 cfbc
00000360: 3769 113e 9ad2 45bd 27f2 56bd 1d0d 3c3d
00000370: 188e 403d d6d2 fabc 4081 e53c 1e10 8bbd
00000380: 521f 453a 6699 543d 74cd 99bc 0e86 4fbf
00000390: c19c 28bc 5d84 6a3d 8d72 0abd 46aa e6bc
000003a0: 0202 a93c 10fe d53d 687d ec3c f743 1a3d
000003b0: faf9 d7bd 0a22 2bbd 91b7 893c 0aeb 27bc
000003c0: 710f fdbc 9913 85bd a298 47bc 3c7a 43bc
000003d0: 5079 013e a28d 9b3c ecc5 1c3d 81bf 97bc
000003e0: 8581 ac3b f2c0 9fbb 54b8 8a3c 9c9b b5bc
000003f0: b9b4 d539 53c3 4cbc 7b8f 693a bbf4 f93c

6.bias f4 [4]
-0.040873412 0.17761476 0.36497182 -0.08200936
00000000: e16a 27bd a5e0 353e 96dd ba3e 86f4 a7bd
