models/Reach/rl/4/20-57-15_Reach_Panda_JOINT_VELOCITY_TD3/models/step_0860000/obs_dec.pt (torch, 549005 bytes, 8 tensors)

0.weight f4 [256, 4]
00000000: c9c3 ca3d 2667 aa3b 7d03 d5be c8e8 e1be
00000010: bd13 0cbe 14b6 183f 59f3 c7be 9a77 14bf
00000020: 4475 66be c12a 3abc 8630 343f 36f6 53be
00000030: 10c1 ac3d d33a 06bf b868 d13c 2ce9 6abf
00000040: 12a3 d4bc e833 7ebe e8aa bf3e 582c 16bb
00000050: 03d3 f13e 202b 60be aa96 89bd 8088 84be
00000060: 0001 893f 69e3 53be 8d3b 5c3d d916 87bc
00000070: 7810 6d3e 18d1 1abe 129d 563e a6c3 39be
00000080: d439 dbbd 575a 40bf 5562 2d3f 435d 113f
00000090: 04bb 5dbd 85a0 17be 5d46 00bd 3ec2 ca38
000000a0: 0984 f3be 5370 06be a70d b43e d2be a23d
000000b0: addb 133f 740f f23d adf9 cf3c 6938 b6bc
000000c0: f825 efbe 9d8d 6f3e 5418 3a3f 33b1 c83e
000000d0: 1a68 a1be 9cb3 b93e 7ab2 683f 509d d3be
000000e0: dbac f1bc f7fe 07be 919f 173e 2da5 15bf
000000f0: dee3 60bf 8078 113f 63fa 6c3d 2e9a 6c3e
00000100: 5ee0 253f baba 803e 5cc1 813e 9c96 6f3d
00000110: 9c25 05bc 6ddd 013b 2c85 163c 67a0 703c
00000120: 73d8 3cbf 49cc afbd 62dd c93e 5216 0c3e
00000130: c28e 453e 61b8 88be c299 bb3d 1edf 90be
00000140: e5e1 a7be 7aa0 e33e 385b 0cbe b349 e2be
00000150: 1ca6 333f ce37 c0be 9a74 5bbf 0dca fd3e
00000160: 98c1 e9bc 956c b83d 8867 56bf 02c5 1f3f
00000170: 54e6 3b3f 8515 003f 1190 133f 52b3 f03e
00000180: dda4 a13e 1e11 4e3d db3b 7bbd 9d20 12be
00000190: cfb0 0bbe 7995 883e 71fe b43d 29dd 853d
000001a0: 7cb7 4ebe cd15 373e 14cd 10bf a220 d83e
000001b0: e48a a33e 9ec4 72be a96d 03bf dec9 8bbe
000001c0: 0318 623e 4078 92be 1b61 bbbe b3e4 b03d
000001d0: 3ea9 493d 5b21 d1be 1bbd 703f b1f1 febd
000001e0: e6a5 a93b 8098 203f 3660 033f ca3f d0be
000001f0: e2b3 5a3f e430 c2bd 955c 57bf 2329 1fbf
00000200: 8cf7 c63d 57cb b63e d728 5dbe 9d3e f03c
00000210: 097c 6bbe 3cf2 f3be a880 c03e 1c11 dd3e
00000220: a868 9a3e d284 d83e 8280 0cbd cb38 443e
00000230: 8e60 233b cfc6 bbba 13e1 343b 5f51 b83c
00000240: 9c4a 673f bc68 ebbd cb14 bfbe f845 b03e
00000250: a03b 073c 0c70 e3bd d038 4fbe 1842 d2bd
00000260: 5c41 cf3e 538e 4dbe 7ca9 59be 425d 513e
00000270: fa7f 253e 564c 51bf efed 723f 4b12 2e3f
00000280: 63cf 68be c180 75be 1823 07bc 8623 64bc
00000290: 188a 273f 21fa 213f 7338 38bf 7631 81bd
000002a0: ae5e 2a3e 1add 693e 7ed4 b1bd 72e9 cd3c
000002b0: 0cdd d6be c2af 8f3d 3e79 a63d ca25 9b3d
000002c0: c1bc 583e 2998 d7be fac8 593e 26ac c9ba
000002d0: a6ff c53d f30f 933d c26a 913e 5a80 72be
000002e0: 6d29 0a3f e891 74bf b045 dcbd b15b 06be
000002f0: a9d0 d03e 4b9c 15bd c54c 083e 581f 2c3f
00000300: 051d 71be 41f8 52be d5dd 65be aaf8 69bd
00000310: 39e2 a93c f4ab dcbc 4578 8fbd 0134 abbe
00000320: e848 423f be97 143f ff68 63be 5bbf 22bf
00000330: bf10 ddbe 3b0b 913f 9b21 863e 7d56 043e
00000340: 8f71 76bd b638 573c 0c45 96bc 93bb 25be
00000350: b9ae a53e ae3f 91be 6247 c53d 62ba 203f
00000360: ba20 393e f47a 9c3e 1f4b 0b3f 61f4 e53e
00000370: 0a15 6f3e 1e93 00bf c85b 26bf a963 843e
00000380: e0de 233f e184 e13e 7405 23bf 8bb4 2d3f
00000390: 20a0 ff3e 4565 f5bc fecd a23f af56 c63e
000003a0: 4fe1 d13b 97c9 163c 604b 573c c14a 913a
000003b0: fce6 893d 476d d83c d48f d1be dfc0 803e
000003c0: 28b7 55be 60d7 003f d205 5bbe 0889 e93e
000003d0: 494a 8b3e 9245 55bd 8200 553f 2303 3abe
000003e0: 1580 1fbe 9773 b9bd 6365 9d38 d65b 433f
000003f0: 29ac c63d faa1 c53e c64d 053f f32a 46be
0.09900624 0.0052002845 -0.41604224 -0.4412291 -0.13679405 0.5965283 -0.39052847 -0.57995
-0.22505671 -0.011362732 0.7038654 -0.20699391 0.08435261 -0.5243351 0.02556263 -0.9176204
-0.025956664 -0.24824488 0.3743508 -0.0022914615 0.47231302 -0.21891451 -0.0671819 -0.2588539
1.070343 -0.20692219 0.05376773 -0.016490387 0.23150814 -0.15118825 0.20958355 -0.1814104
-0.10704389 -0.7513785 0.6772817 0.5678293 -0.05413343 -0.14807327 -0.031317104 9.668291e-05
-0.47561672 -0.13128786 0.35166666 0.07946552 0.57757074 0.11819354 0.02538761 -0.022243695
-0.46708655 0.23393865 0.7269337 0.39197692 -0.31524736 0.36269844 0.90897334 -0.41330957
-0.02950137 -0.13280855 0.14806964 -0.58455163 -0.878477 0.56824493 0.057855975 0.2310569
0.6479548 0.2514246 0.25342834 0.05849324 -0.008126643 0.0019815818 0.009187024 0.01468668
-0.73767775 -0.08583886 0.39426714 0.1368039 0.19292739 -0.2670317 0.09160186 -0.28295225
-0.3278953 0.4445837 -0.13706672 -0.44196853 0.7017534 -0.37542576 -0.85724795 0.49568215
-0.028534696 0.090050854 -0.83751726 0.62409985 0.7339833 0.50032836 0.576417 0.4701181
0.31571093 0.050309293 -0.06133638 -0.14270253 -0.13641666 0.2667654 0.08837593 0.065363236
-0.20187181 0.1787941 -0.56562924 0.42212397 0.31941903 -0.23707816 -0.51339203 -0.2730245
0.22079472 -0.28607368 -0.36597523 0.08637371 0.049233668 -0.4084576 0.9403855 -0.12448443
0.0051772473 0.62732697 0.5131868 -0.40673667 0.8543073 -0.094819814 -0.84125644 -0.62172145
0.097151846 0.3570201 -0.2159761 0.029326731 -0.22996534 -0.47645748 0.37598157 0.43177116
0.3015797 0.42288834 -0.034302242 0.1916229 0.0024929377 -0.0014326217 0.0027599975 0.022499738
0.9034822 -0.11494586 -0.3732055 0.34428382 0.008253962 -0.111053556 -0.20236516 -0.10266513
0.40479553 -0.20073824 -0.2125606 0.20445731 0.161621 -0.81757104 0.9489431 0.6799666
-0.22735362 -0.23974897 -0.008248113 -0.013924485 0.6544509 0.6327229 -0.71961135 -0.06308262
0.1663768 0.2283825 -0.08683108 0.02513573 -0.4196552 0.07015945 0.08128594 0.07575567
0.21165754 -0.42108276 0.21268073 -0.0015386387 0.09667902 0.071807764 0.28401762 -0.23681775
0.5396946 -0.95535135 -0.10755479 -0.13120915 0.40784195 -0.036526006 0.13310535 0.67235327
-0.23546226 -0.20602514 -0.22447903 -0.05712191 0.020737754 -0.026937462 -0.070053615 -0.33438113
0.75892496 0.5804404 -0.22208022 -0.63573235 -0.4317684 1.1331552 0.26197514 0.12923618
-0.06016689 0.01313608 -0.018343471 -0.16184835 0.32359865 -0.28368896 0.09632756 0.627844
0.1807889 0.30562556 0.544115 0.4491301 0.2334787 -0.50224483 -0.649838 0.25857285
0.64011955 0.4404669 -0.63680196 0.6785361 0.49926853 -0.029955516 1.2719114 0.3873801
0.0064050327 0.009203336 0.013140529 0.00110849 0.0673351 0.026419295 -0.40930045 0.2514715
-0.2087065 0.50328636 -0.21388939 0.4561236 0.27205113 -0.0520683 0.832039 -0.18165259
-0.15576203 -0.0905525 7.505228e-05 0.76312006 0.09700806 0.3860014 0.520718 -0.19352321

0.bias f4 [256]
00000000: f555 babe 13e6 60bf 68aa debb f68c 41bf
00000010: 0dd6 513d df57 22be c151 f2be 1e34 c0bc
00000020: 0abc 60be 7588 e8bb 2f42 fe3d 68bd 20bc
00000030: 1e3e 3e3e 37e8 72be dff0 60be 2e01 80be
00000040: 656c 23be b545 45bd 9751 d2be 5fc0 f0bd
00000050: ea1b 71be defe 2dbf 8976 abbe 3b9a f8be
00000060: 94d6 15bd c31b ec3d 36b6 34be 4cb0 8ebe
00000070: 3588 4bbe 1b43 b3be c640 a7be b053 69bf
00000080: 6c4f 653d 440f dfbe 0e9d 34bd 9885 eabc
00000090: d2b1 12bf 340b babd 771f 1d3d 3874 3cbf
000000a0: 1349 fabe d10a 40bf e441 ce3b e51b 893d
000000b0: 9ec0 0ebd 48cb d93d e957 46bf 1b9f e83d
000000c0: d20d fbbd 2385 e0bd 3e8c 45bf 9541 08bf
000000d0: 3595 f9bb f0c3 08bf 70bf 0c3e ebee 4dbf
000000e0: cc7d 10bf bf7f 5fbf b74d 50bd 2dbb bbbd
000000f0: 9c2f 613d 0e0b 64be 336f 8bbd 3332 5c3e
00000100: 8045 f5bd e337 02bf c258 42bd bf68 61bf
00000110: 03b4 5cbe 891f 40be 268d 7cbf 6264 013e
00000120: fec3 3e3e 514e 113e f969 9abe 07a1 63be
00000130: a0f1 29bf 8ec3 babd e723 81bf 1680 84be
00000140: 5c98 46bf 61d0 1a3b 4985 0fbf e5b2 d139
00000150: 1e41 00be e69b 383e c8fe 40bf 1e12 e9be
00000160: ddb1 b2be c63e 9dbd b444 b83d 9d8c a6bd
00000170: c761 6fbd e105 2f3e 1036 043c 9925 fcbe
00000180: 8b95 8ebe d3b5 a63d 4461 0d3e a43c 0bbd
00000190: 33de a0bc ba25 65be 198e a1be 7c4e 023e
000001a0: 8b5b 02be f710 3cbd f814 b7be e9f4 72be
000001b0: 2a78 debe 905d 13bd 4628 61bf 3449 72bd
000001c0: 059d b8be 7754 51be 131e 42bf ea0c 07bf
000001d0: 485e 10be 8ca0 55bc cd70 583e d27e 333d
000001e0: fab3 49be 053d 9bbe 411c b93d fed1 61be
000001f0: 40ba 23bd 34ba c6bc 6c99 9e3d 9f3d fabe
00000200: 9070 40be 5a42 edbe a5d0 01be e411 8ebd
00000210: 933d 5e3e fe87 17bf d322 11bf 03a1 1cbe
00000220: cd94 2cbd c7f6 01bf 907b 48be e426 a33d
00000230: d8a9 0dbe 45c4 b83c 5f4c 48bd 6809 8dbd
00000240: 6102 c3be f128 84be c7c7 5fbe 9bee 17bf
00000250: 491d abbf 36ed 0b3e 0c06 8dbf 1a26 b03d
00000260: 73d7 4abf 6f7b acbd 1abc 66be 63ad 9abe
00000270: 1e09 9ebe 5e3c 843d 3732 0d3e 650e 1abf
00000280: 819b 1abf 42da a3bd c9cd e2bc b78b 06bc
00000290: a2e2 6abf 90b9 453c cdce 83be cb3a 21bf
000002a0: f4b8 a8bc f241 1abd 3e01 85be ed79 123d
000002b0: 412e 2fbf 052c 93be a4c2 39be 0a5f 78bc
000002c0: c86a d7be 95df 993d 3edb 48bd 5e7c e4bc
000002d0: b9cc 363e ce71 20bd e457 d33d 54f6 f53d
000002e0: 406b 253d 6882 d4bd 326f 553b 1397 81bc
000002f0: 57d3 b73b 0f4e c1be a46e 11bf 5f7c b3be
00000300: b658 033e 0eb6 1dbe 45a1 5dbd e8be 23be
00000310: 2352 4e3d 4efd 02be f951 2bbd 67b9 503d
00000320: e09d e4bd 134a 3cbe 8b79 0a3c 240e 8f3c
00000330: 5430 0f3e b34d 0ebe e3bb 6d3d 9d7f 2dbf
00000340: d56a 67bd 300d 6abf 2736 62be 9b38 76be
00000350: 5339 0abf 39b7 e4bd a0f8 a7bc 6e1d 41bf
00000360: e796 a9be 4f13 3abd 102f 19bf f863 d1be
00000370: 9c3c 60be 2af3 83be 529d 173e 3bb6 fdbe
00000380: 371e 8fbc 2526 09bd a946 53bd 0ef7 99bd
00000390: b7a2 19bd c12d e03d 0e8b b6be 81a6 27bf
000003a0: 7b00 24bd c217 d3be 97e7 a23d dd1f 62be
000003b0: 763e 8abe d897 9fbe b9de eabe 3238 d4be
000003c0: 5708 80be 2852 34bf ce95 f1bd 04bc cfbd
000003d0: 5767 d33c 309e ae3d ec24 86bd dc73 7dbd
000003e0: 0e90 79be da9d be3d d707 aabd 458d 65bf
000003f0: 18a5 37be f832 24bf 25a6 24bd 87ba eebe
-0.36393705 -0.87851065 -0.0067952164 -0.75605714 0.051229525 -0.15853833 -0.47327998 -0.023462351
-0.21946731 -0.007096345 0.12414967 -0.009810783 0.18578383 -0.23721395 -0.21966885 -0.250009
-0.15959318 -0.04816218 -0.41077873 -0.11755442 -0.23545805 -0.6796702 -0.33488873 -0.48555169
-0.03658159 0.11528733 -0.17647633 -0.2786888 -0.19876178 -0.35012135 -0.32666606 -0.9114332
0.055983946 -0.43566334 -0.04409509 -0.028628156 -0.5730258 -0.09084168 0.038360085 -0.73614836
-0.48883876 -0.75016505 0.006294476 0.066947736 -0.034851663 0.10634476 -0.7747789 0.11358472
-0.122584954 -0.10962894 -0.7716712 -0.5322507 -0.007616664 -0.53423977 0.13744903 -0.80442685
-0.5644195 -0.873043 -0.050855365 -0.0916656 0.054977044 -0.22269842 -0.06808319 0.21503524
-0.11976147 -0.50866526 -0.047447927 -0.88050455 -0.21553044 -0.1876203 -0.98652875 0.12635949
0.18629453 0.14190032 -0.30158976 -0.22229396 -0.66384315 -0.0911933 -1.0089082 -0.25878972
-0.7757623 0.0023622739 -0.5606275 0.00039996873 -0.1252484 0.1802822 -0.75388765 -0.45521635
-0.34901324 -0.07677989 0.08997479 -0.081322886 -0.058442857 0.17092086 0.00806953 -0.49247435
-0.27848467 0.08140149 0.13806635 -0.03399338 -0.019637203 -0.22377673 -0.31553724 0.12725252
-0.12730233 -0.045914616 -0.35758185 -0.23726238 -0.43451053 -0.0359779 -0.8795208 -0.059151843
-0.36057296 -0.20442377 -0.7582714 -0.5275408 -0.14098465 -0.013038766 0.2113678 0.043822117
-0.19697562 -0.30319992 0.09038592 -0.22052762 -0.039972544 -0.02425871 0.07744107 -0.48875138
-0.18792939 -0.46339685 -0.12677248 -0.06937006 0.21703176 -0.5919188 -0.5669376 -0.15295796
-0.042134095 -0.5076718 -0.19578385 0.07966402 -0.13834321 0.022554526 -0.04890096 -0.0688656
-0.38087752 -0.25812486 -0.21853553 -0.5934846 -1.3368312 0.13664708 -1.101747 0.08601017
-0.79235 -0.084219806 -0.22532693 -0.3021041 -0.3086633 0.064568266 0.13788687 -0.60178214
-0.6039353 -0.08000614 -0.027686017 -0.008212022 -0.91752064 0.012068167 -0.25743714 -0.62980336
-0.020596005 -0.037660547 -0.2597751 0.03576081 -0.6842995 -0.28744522 -0.18140656 -0.015159378
-0.42073655 0.07513348 -0.04903721 -0.027891334 0.17851533 -0.039171033 0.10319498 0.12009874
0.040385485 -0.103764355 0.0032567498 -0.015819108 0.0056099105 -0.37754866 -0.5680945 -0.35055825
0.1282681 -0.1540148 -0.054108877 -0.15990794 0.0503713 -0.1279194 -0.041826222 0.050958063
-0.11162925 -0.18387632 0.00845183 0.017462797 0.1398328 -0.13896827 0.05804051 -0.6777285
-0.056498367 -0.9142637 -0.2209097 -0.24045031 -0.5399372 -0.111677594 -0.020504296 -0.7543553
-0.33122942 -0.04542857 -0.59837437 -0.40896583 -0.2189812 -0.25771457 0.14806107 -0.49553093
-0.017470462 -0.033483643 -0.05158106 -0.07517825 -0.037508693 0.10946227 -0.35652965 -0.6548844
-0.04003952 -0.41229063 0.079543285 -0.22082467 -0.2700078 -0.31170535 -0.4587305 -0.41449124
-0.25006363 -0.7043786 -0.11796151 -0.10143283 0.025806112 0.085262656 -0.06550011 -0.06187807
-0.24371359 0.093074515 -0.083022766 -0.89668685 -0.17934072 -0.6414027 -0.04019751 -0.46626684

2.weight f4 [256, 256]
00000000: d8d6 323e b264 7f3e d3c5 02bc 26b4 20bf
00000010: bb31 64bc d41a e2bb 84b5 2b3e f637 5bbd
00000020: 7524 ad3e 5c38 94bc da22 2d3e 11e7 99bd
00000030: 702a 113f 4ffe ab3d 7fc9 3dbe 4766 3dbc
00000040: 1393 9cbe 32b0 8d3d e5d5 7d3d 4233 a9bd
00000050: fdac 65bd 4199 fdbd eaf0 cdbc c0cb 06c0
00000060: 023f dcbd bc3a d13d bbc5 813d 562c 71be
00000070: a34c dabe 0673 523e 9f08 a5be 1d79 b4bf
00000080: 707c 02bf e4ff d93d e686 5dbe c905 ac3d
00000090: ac30 93c0 ca04 ca3d 7041 71bd 5dfd fe3e
000000a0: 4683 3c3d 98c7 aac0 3911 2e3d f101 cfbb
000000b0: 347f 84bd 4f2a 7b3e d31a 963e 4ef0 d33e
000000c0: c09f 683e 8eb3 5fbd e3be 33bf 7035 0dbf
000000d0: 4b17 5bbc 4b09 8ebf 9ea5 00bf 582f 9c3e
000000e0: e498 29bf 57c9 e3be d48e ffbd 92f1 81be
000000f0: 701f 1b3d e683 8f3e 50c6 40be ba82 0abe
00000100: eee1 f3be 4125 04be b710 553c 909b 96bb
00000110: 483f a93e 6964 4e3d 4ccc 763e dfab 763f
00000120: 7238 81be 994e 5e3d a181 a2be 40fe c13f
00000130: ff15 2d3e 2b44 9b3e 48d9 773e 9b89 64bd
00000140: 3833 04bf 22c8 51bd b316 40be 384f a8be
00000150: 7776 9b3d f069 afbe 7ad9 343f 2204 58bf
00000160: 0696 353f 9a93 ed3d dbdc 003e 13f0 82be
00000170: 1c8c 3e3e 3856 83bf 174d 873e 7742 ca3d
00000180: 2c73 033f c844 b0be 60f2 93be 803b d53e
00000190: 7b54 8ebc 308f a2be 69e6 97bb a4b0 263f
000001a0: 2390 4f3f 03fb 7c3d fe1e 8c3e 3286 8abf
000001b0: c521 b1be 77db ab3d 6605 abbf e6f5 abbe
000001c0: 0586 753f fc9c 31bf ec1b 223f d0b7 303c
000001d0: ce69 e8bd efd1 8fbe da35 d1be bdb2 9ebd
000001e0: 5e44 e63e 7502 133e b222 06be 74bd d43d
000001f0: 88ca 1b3f 4eb8 4cbe c77b b83e 7de4 cc3e
00000200: 3e20 56be 02d3 21bf 8b55 393e cf52 223e
00000210: 895d 67bd 048c d5be 7d65 f7be b918 69be
00000220: 39a0 f03d 129a 3abe 9742 a2be 0efa d0bd
00000230: 7d2f 2fbf ded6 89be 7d48 c6be c707 dc3d
00000240: 1b1a 81bd 1f8b b2be a28c 8e3e dc69 d8be
00000250: e63d 92be df93 0ebf bdfd 473e ad4f 16be
00000260: bc89 7dbe 6504 9dbd 171a d6bd 20a3 373d
00000270: db62 e53e 1b79 32bd ee35 02bf 33b3 4a3e
00000280: d0ea bf3c 4022 00bf 6ba5 b93d 4224 e9bb
00000290: 0478 3ebd 5bd2 d63c 4a2b 80bd 37dc d73d
000002a0: 0108 053f 4ada 973a c9aa 4c3e 7805 82be
000002b0: b68e 2dbe 0235 91bb 8ca1 973e a2bb 173f
000002c0: 8ad5 85bf e430 a0be 5ea7 32bc c134 783e
000002d0: 61bd cd3d a276 aa3d 7e47 d53d e430 a5be
000002e0: dfa0 d83d cb83 85be ea10 29be 475d 4d3e
000002f0: 77b1 923e f912 a53e 5b2d a03e 6b77 5f3e
00000300: 19af dd3d 64b4 91be 6224 cfbe 853c cd3e
00000310: df02 0cbe 55d3 94bd ac52 693d de89 9d3c
00000320: 8462 663f e7e0 27bc 673e 703e 2914 90bd
00000330: 5a32 9dbe 5f45 cb3e f646 dcbe 0379 203e
00000340: df36 903d cda1 43bf 0bc7 b63c ad05 873d
00000350: 704c 3f3f c7da 40bf 4ab5 2fbd 59cb a8bf
00000360: bf98 a33e 65b9 86bc 688c 34bf 0f34 a3be
00000370: 68f4 febd 44f1 28bf daf9 493e 5673 39bd
00000380: 1f84 f7bb 5fdf 36bf d337 3c3e 8555 2e3f
00000390: 55a0 19bd ca3a 5c3d 1886 9cbe d29d 30bd
000003a0: 722d 593e c6c1 11be 90f7 58bc 4a1a 4a3e
000003b0: 6bd0 413e 6015 043e 2e07 1a3b 8059 f63b
000003c0: 87a4 363f b69b f93e 1ee7 79bd 288d 8f3e
000003d0: 8167 aa3c 7077 7ebd 82fd ab3d 2a82 0c3f
000003e0: 5ef3 49bf c1b3 033e a613 d9bc 711c e7bf
000003f0: bfdb 953d 65a6 4abf e32e 07ba 01e4 c93e
0.17464769 0.24940756 -0.007981735 -0.62774885 -0.013927872 -0.006900171 0.16768461 -0.053520165
0.33816877 -0.01809328 0.16907826 -0.075147755 0.5670538 0.08398115 -0.18533896 -0.011560029
-0.3058096 0.06918372 0.061971564 -0.0826173 -0.056073178 -0.123827465 -0.02513929 -2.106186
-0.10754205 0.10216281 0.06336542 -0.23552069 -0.42636594 0.2055169 -0.3223314 -1.4099461
-0.50971127 0.106445104 -0.21633491 0.08399541 -4.5996914 0.09864195 -0.058900297 0.49802676
0.04602363 -5.3368645 0.042496894 -0.00631737 -0.064695746 0.24527858 0.2931734 0.41394275
0.2271719 -0.054614596 -0.70213145 -0.55159664 -0.013372253 -1.1096586 -0.5025271 0.3050487
-0.6624892 -0.44489548 -0.12478414 -0.25379616 0.037871778 0.28030318 -0.1882565 -0.1352643
-0.47633308 -0.12904836 0.013004473 -0.004596181 0.33056092 0.050388727 0.2410137 0.96356004
-0.25238377 0.054274175 -0.31739524 1.5155716 0.16902922 0.30325446 0.2420398 -0.055795293
-0.51640654 -0.051216252 -0.18758659 -0.3287294 0.07590955 -0.3426051 0.7064434 -0.84381306
0.7093204 0.116004184 0.1258425 -0.25573787 0.18608135 -1.0260687 0.26426002 0.098759584
0.51347613 -0.34427476 -0.28895855 0.41646957 -0.017374268 -0.31749868 -0.0046356213 0.6511328
0.8107931 0.06176282 0.27367395 -1.0822203 -0.34596077 0.08391469 -1.3361022 -0.33586043
0.9590762 -0.69380164 0.63323855 0.010786012 -0.11348306 -0.28089854 -0.40861398 -0.07748935
0.44974035 0.14356406 -0.13099173 0.10387698 0.60855913 -0.19992182 0.36031935 0.40018073
-0.20910737 -0.632126 0.18099038 0.15851901 -0.056485686 -0.41708386 -0.48319617 -0.22763337
0.1174931 -0.18222836 -0.3169143 -0.10203944 -0.68431836 -0.26921743 -0.3872718 0.10743671
-0.06303807 -0.34871766 0.2784167 -0.42268264 -0.2856285 -0.55694383 0.19530387 -0.14678831
-0.24759573 -0.07666854 -0.10454195 0.044833302 0.44801983 -0.043572526 -0.5086354 0.19794922
0.023427397 -0.5005226 0.09064754 -0.007114918 -0.046501175 0.026223352 -0.06258257 0.105400495
0.5196534 0.0011585441 0.19987024 -0.25394797 -0.16948971 -0.004431368 0.29615438 0.5927068
-1.0455792 -0.312873 -0.010904161 0.24238874 0.10045887 0.08323409 0.10414027 -0.32263863
0.10577559 -0.26077113 -0.16510358 0.20055114 0.2865102 0.32241037 0.31284603 0.21822898
0.10824413 -0.2845794 -0.40457445 0.40085235 -0.1367297 -0.07266871 0.056963608 0.01923078
0.8999407 -0.010246492 0.23461305 -0.07035095 -0.30702478 0.39701363 -0.4302289 0.15671162
0.07041716 -0.76418763 0.022311708 0.065928794 0.7472601 -0.7533383 -0.0428975 -1.3187057
0.31952474 -0.016445825 -0.7052674 -0.31875655 -0.124489605 -0.6599314 0.19724217 -0.04527601
-0.007553592 -0.7143459 0.1838067 0.6809924 -0.03750642 0.053767003 -0.30571055 -0.04311926
0.21208742 -0.14234075 -0.013242617 0.19736591 0.18927161 0.12898779 0.0023502815 0.0075179935
0.713448 0.4875161 -0.061011426 0.2803738 0.020801308 -0.062125623 0.08397962 0.54886115
-0.78886974 0.1286154 -0.026498627 -1.8055555 0.07317304 -0.7916015 -0.0005156828 0.39431766

2.bias f4 [256]
00000000: 97bc 1f3e bce5 0fbd e0aa 21bd abc0 7abe
00000010: f8e1 d03d 1fd8 b5be 29f8 04be bc3e 8abc
00000020: c94a fd3b 96e4 30be 0a58 7abd 6dd4 e5be
00000030: 6ee8 f0be 30ec 14bc 4920 0ebc 085a 55bd
00000040: f548 053c cd17 81bd 4499 63bd 43cb b8bd
00000050: f11e 24bf a892 f5bd dcf4 8dbe f083 febd
00000060: e031 06bc 22ef 36be 940b 07be fd0b a6bb
00000070: 93cb 35bd 4602 debc a58a a3bd f216 43bd
00000080: 4622 ba3d 6a1f 80be 18c3 2dbd ecdd 323c
00000090: 5ad4 4b3c 352a 393b 56a7 51bd cd03 29be
000000a0: 7811 d53d f335 4bbe d634 03be 50d4 27bb
000000b0: b72e abba 2154 d33d dc8c b6be 86c7 abbd
000000c0: c539 4dbd 0880 78be e037 72bd 8f5f 273d
000000d0: 4307 6cbd 6d2c fdbd fe98 40bd 8961 9dbd
000000e0: 2e84 89bd 01a8 85be 719a 67bc e36d 2cbd
000000f0: 9678 60be def0 b1bd caf9 58be fe50 3fbc
00000100: 6eca 11bb aee5 86bd d668 96bd b2c0 f1bb
00000110: d5e9 1abd 419b 633d 91c1 cdbd c74e 88bd
00000120: 4af0 0bbe f14b 413c 7aa2 95bd cf1c b73d
00000130: 7b3a 9abd a856 3bbe 18d9 10be 111e 443e
00000140: 833b 1cbd 1276 213e 992b d7bc fa6a 0ebd
00000150: 6072 63bc 8994 76bd b023 5bbd 20d1 69bd
00000160: a2c3 613c cd77 033d d859 8f3d 8a98 a53d
00000170: a26e ffbc 9e70 3cbd 6363 873c 0d3d 1bbb
00000180: 2360 2cbc a46d 2cbf 5c0d 06be da60 6bbd
00000190: 839f 403d 559e 70be 9ff4 2bbd 86d8 b2be
000001a0: 1aca 2f3d cd38 3a3e 53bd 953c 3fca e63d
000001b0: 86a5 49bd 3914 82bd 43a0 6ebe 6e99 31bc
000001c0: 38a1 95be 5828 9c3d f084 ee3d 9d80 66bd
000001d0: 4850 043d 3a6e 8dbc ca1c 94be 45dc abbd
000001e0: 4854 38be c229 71bc e4fd b0bc 4277 28bd
000001f0: 8f0a fcbb 462e b9bc 8a32 97be 45b3 8d3e
00000200: 3ef7 07be af19 acbb 532f 9f3c 2e7d a43c
00000210: 1d01 863b 66d2 2cbe 2a1e c0bc 30ab adbe
00000220: fb2d 4cbd cc41 e73b 2ef6 143e b99f 303d
00000230: eaac 56be 4d77 98bd d5d7 3dbc 1fe1 763a
00000240: 77bf af3a 31ae 453d 8722 debd 6abe a8bd
00000250: e068 bc3a 5493 9dbd 6b7a 40bd e7db 5a3e
00000260: 1cf0 27bc 9d0f efbd 1795 46be e48c e73d
00000270: ddd3 d1bc 87eb 723d 1362 b4be f313 acbb
00000280: 7bc4 0cbe 1bef 683c b5cb 33bd 5750 473c
00000290: 02c0 0dbf 07e4 1e3c 7aeb 27bd 95fb c7bc
000002a0: cc28 f1be bcca 8d3b 7850 6dbe f591 883d
000002b0: 9062 2bbe 3e94 a7bc 7a58 77bc c4bd 44bd
000002c0: a8b0 0f3d e043 40be f644 80be 3f2b 7c3a
000002d0: 7d22 a4be d455 76bc ccc0 09bc 599c 8cbe
000002e0: 98c8 4abd 7dbf f5bc 3843 8b3e 4553 8fbb
000002f0: 57a9 123d c275 b83c a60d 7ebd c215 7bbc
00000300: f91f 5e3d 06f1 85bd 7ee8 c6bd 2a88 483d
00000310: 3f61 7cbd 0d39 0d3b 02f3 32be f0e7 763e
00000320: 34fe 61bd 97d1 33bd 2f33 70be 8c54 8bbc
00000330: b3de 953b da73 8f3c b64a ebbd 5a55 55bd
00000340: 02e2 6ebc a392 a33d f449 49bd a070 5ebd
00000350: 456b 57bd 4283 88bd 4eed 5ebe c6e8 50bc
00000360: 62e3 b0be 72c8 7fbd 3385 18be 4259 ba3a
00000370: bd1e d0bd b8b1 873b 85e3 7b3c 8528 33bc
00000380: abb5 b23d 7c1a 81be ec95 03bf 8263 0fbe
00000390: f35d 71be e786 0dbd 556d aa3b 8691 da3c
000003a0: 4f24 0abc 692f adbd bd67 28be af70 483b
000003b0: d18e 0ebd c6d8 44bd 72b7 2fbe be7e 083d
000003c0: 6021 90bd fec1 c1bb fa2d 9fbe f67d e13c
000003d0: 19e8 56be 88a1 503e 88f4 d63d f66b 09bd
000003e0: e3e2 1ebd 31c4 80bd fbba 06be 157e 4bbd
000003f0: b18a aa3d 3218 01be 3371 e7be 48bb 19bd
0.15599285 -0.0351312 -0.0394696 -0.2448756 0.1019935 -0.3551645 -0.1298529 -0.016875617
0.0077298624 -0.17274699 -0.061119117 -0.4488863 -0.4705233 -0.009089515 -0.00867469 -0.052087814
0.00813507 -0.06303368 -0.055566087 -0.09023144 -0.6410971 -0.11990863 -0.27725875 -0.12427509
-0.008190602 -0.1786466 -0.1318801 -0.005067347 -0.044383597 -0.027100693 -0.07985429 -0.047629304
0.090885684 -0.25023967 -0.042422384 0.010917168 0.012440765 0.0028253917 -0.051184975 -0.16505356
0.104037225 -0.19844799 -0.12813124 -0.0025608726 -0.0013060187 0.10318781 -0.35654342 -0.083876655
-0.05010392 -0.2426759 -0.059135318 0.040862616 -0.057624113 -0.12361989 -0.047020905 -0.07684619
-0.067146644 -0.2610474 -0.014135943 -0.042096984 -0.21921 -0.0868852 -0.21189037 -0.011677025
-0.0022245902 -0.06586777 -0.073442146 -0.0073777074 -0.037820656 0.055567984 -0.100466855 -0.066556506
-0.13665882 0.011797891 -0.073063806 0.08941042 -0.075306855 -0.18294775 -0.14145315 0.19152094
-0.038142692 0.15767696 -0.026265906 -0.03476999 -0.01388225 -0.060200248 -0.05350083 -0.057084203
0.013779553 0.032096673 0.06999558 0.08085735 -0.031180684 -0.046005838 0.016526883 -0.0023687512
-0.010520968 -0.673548 -0.13091034 -0.05746541 0.047027122 -0.23497899 -0.041981336 -0.3493082
0.04291735 0.1818573 0.018278753 0.11269044 -0.04923012 -0.063515134 -0.23303322 -0.010839803
-0.29224563 0.076248825 0.116464496 -0.056275 0.032303125 -0.017264474 -0.28928214 -0.083916225
-0.18000901 -0.0147194285 -0.02160544 -0.041129358 -0.0076916884 -0.022605073 -0.29530746 0.27675834
-0.13277909 -0.005252085 0.019431746 0.020079222 0.004089488 -0.16877136 -0.023451883 -0.33919668
-0.049848538 0.007057404 0.14547035 0.043121073 -0.20964399 -0.0744463 -0.011587103 0.0009417701
0.0013408501 0.048261825 -0.10846429 -0.082394436 0.0014374517 -0.07694116 -0.046991747 0.21372949
-0.010250118 -0.116729 -0.19392811 0.1130617 -0.02561372 0.059306648 -0.35231075 -0.0052514016
-0.13746826 0.014217163 -0.043895442 0.012165151 -0.55371106 0.009697921 -0.040996052 -0.024411956
-0.47101438 0.0043271463 -0.23175228 0.06668464 -0.16736817 -0.02045643 -0.015096778 -0.048032537
0.035080582 -0.18775892 -0.25052613 0.0009619481 -0.32057562 -0.015035111 -0.008407783 -0.27463034
-0.049507707 -0.029998535 0.2719972 -0.00437394 0.035806026 0.022517089 -0.062024735 -0.015325012
0.05422971 -0.06540112 -0.09712313 0.04895798 -0.06161618 0.0021548897 -0.17475513 0.24111915
-0.055174068 -0.043901052 -0.23457025 -0.017008089 0.004573667 0.017511297 -0.11488859 -0.05208335
-0.014580252 0.07986953 -0.049142793 -0.054306626 -0.052592535 -0.066656604 -0.21770212 -0.01275081
-0.3454848 -0.06244702 -0.14894561 0.0014217275 -0.10162113 0.004141059 0.015374069 -0.010934954
0.08726057 -0.25215518 -0.5140064 -0.14002803 -0.23570995 -0.03455248 0.0052010217 0.02668072
-0.008431508 -0.084563084 -0.16445823 0.0030584743 -0.03480417 -0.048058294 -0.17159823 0.033323996
-0.07037616 -0.0059130182 -0.31089765 0.027525883 -0.20986976 0.2037412 0.104958594 -0.033550225
-0.038790595 -0.062874205 -0.13157265 -0.049680788 0.083272345 -0.12606886 -0.45203552 -0.03753212

4.weight f4 [256, 256]
00000000: 1e48 a6be 2d82 a23e c110 cbbb d30f 5ebf
00000010: 073d 85bd 779a 813d d641 0c3f ac08 133d
00000020: f515 b43c b8e2 7fbd 9680 35be eae3 d7bc
00000030: 9199 7ebd 7bc5 cfbc b0ea 4f3d 03e7 db3e
00000040: 2680 bd3c f43f ba3b 72b9 7cbc 5013 13be
00000050: adba 83bf 87bf dc3c da59 28be 766e 763e
00000060: 9ea1 adbd a25c f03d a0cb 523e f2f5 193e
00000070: a015 2f3d c0bf 22bf a1be 05bd 3c2a 34bd
00000080: 654e 7cbd 4d71 7dbe b80d 533d 3e8a 8e3e
00000090: b3e8 29bd 5dff 323d 4ac8 663e c4ca ddbe
000000a0: 0d1d 193e 1c36 c4be 226d 7f3c 04e5 1e3d
000000b0: 0187 043d c705 a6be 1a3e 9dbe f6a1 90bd
000000c0: dba7 353d b9b0 ea3e ea89 05bd 4403 d2be
000000d0: 3487 ab3c a8fb ef3e acf6 6dbd 57ec 3b3e
000000e0: fe8d 7a3d aa56 363e eaed 233d acf3 16be
000000f0: 176a af3c 1b43 7f3d 2e88 d73e 5b07 01be
00000100: 922c 0ebb 2e4b 1dbd 1e90 143d ec9b d1bd
00000110: 1c98 7a3d c9ad 1dbe 8b92 b2be b950 4fbb
00000120: 89b2 b8be 5c70 12bd e4ab 033f 7a58 22be
00000130: 2f48 a73b 4238 1b3e 8014 b7bf e97e 54be
00000140: facb 583d 69f3 06bf 6854 7c3c 4904 e83c
00000150: 8fed 2dbf e485 6a3d a02b 4abd 85ae 14bf
00000160: 6c82 ce3d 5228 3fbe 5536 70be a079 5ebe
00000170: 64e1 ebbc 01cf 0e3c 2be8 a73e 5062 01bd
00000180: 7269 39bc f908 0cbd f83d cebd 6a0c 613d
00000190: 7e62 603e 4aa4 8cbc e6fc 453f 5c10 c8be
000001a0: 3fff 10bf 9025 6ebe 2ec1 cabe ffa5 db3d
000001b0: 72fc 85bd ab94 833e a29a 203d 066c 46bd
000001c0: a701 a43e 7c4a 83bf 1552 4ebe 972f 77bd
000001d0: 02c3 323c 2e86 47bd d658 25be dfd4 59bd
000001e0: 4f38 833e 14d7 223d ee01 e3bb 0016 853b
000001f0: 2a9e 293d ed54 5cbc e490 23bd febf 103e
00000200: 2d95 8b3d 780a 64be 989c 86be 5666 b73b
00000210: b0dc a93e 1f07 3b3e 53f5 44bd 29d1 a03e
00000220: 76ec 363d 64e6 4a3e dd19 57be 0a00 10bf
00000230: 263f 07bf 8228 833c aef9 743c 3139 8a3e
00000240: 2d4e 0bbd dba9 793c 9d0f 03be 9a8f 6a3d
00000250: 2abf c63c 8378 83bd 664c 10ba 1c60 17bd
00000260: 2ce1 ca3c d58d 12bd 2824 8e3d d19d e8be
00000270: 7d4e 003f 7927 833f e173 97be b2ca 6d3d
00000280: da0f 043d c8c7 c13d e8b8 aa3e 2b33 4ebd
00000290: 1fba 3abf 8ddd b1bc b941 283d 45f7 753d
000002a0: 2bb2 fe3e 9c39 d8bd 141f dabd e8bc b9be
000002b0: 86f2 0dbe aa5b 103d 9561 fc3e 2adb 1fbd
000002c0: 7294 8abc 3929 de3e 5429 16c0 72a0 133d
000002d0: e95f ffbd ceb5 5f3e 9e0a bb3c 0b00 c13c
000002e0: 8881 85bc 9f28 273d 168d 03be ebf0 5c3d
000002f0: 202f 353e 41bb 313c a02e 0a3c b001 373f
00000300: a713 1ebe 2cd0 d3be 4f42 00be 7654 a03c
00000310: ed6d 8c3d 3e59 98bb f614 2e3e 023b b43e
00000320: 5e77 44ba 1c0a d53d dbf5 da3e ab4e 723c
00000330: 2bb0 6ebd e9a7 9a3e 8a06 5f3e ab94 6fbd
00000340: 827f b2bc 1eb2 f8bc 8f16 8f3e f87d 5cbd
00000350: 96cd b4be 3faa 6b3c f232 933e fd68 e2be
00000360: 1300 a2bd 503b 71bd 3a0a 82bd dcee 14bf
00000370: 7490 753d 5a54 7d3d f2d2 463d b6ca e33d
00000380: ae69 3ebe 6a69 9d3d 8816 8fbe 6a26 16be
00000390: 6734 6cbb 5390 23bb 8377 2f3d 856e 72ba
000003a0: 0d73 86be e69b daba 2541 b4be 8b15 9b3c
000003b0: 4929 b23d d7d3 5a3e ab7f d63e 6ddf cc3a
000003c0: 0cb5 6ebe 75b2 773e 4a9d 963e fd88 6f3d
000003d0: 449c 4b3d a75d aabe dca6 d43d 56e6 bebe
000003e0: d749 6ebd b0a3 3a3d 6b4a d3be bfd0 7abd
000003f0: 0252 3fbf 8d72 cd3d 2eca 9a3d 6774 05bf
-0.32476896 0.3173994 -0.0061970656 -0.86742896 -0.06505781 0.0632829 0.5478796 0.035896942
0.021983126 -0.062472075 -0.17724833 -0.026353795 -0.06215817 -0.02536272 0.050760925 0.42949685
0.023132395 0.0056838933 -0.015425073 -0.14362836 -1.0291344 0.026946796 -0.16440526 0.24065575
-0.08478092 0.11736418 0.2058549 0.15035227 0.042745233 -0.6357384 -0.0326525 -0.04398559
-0.0615982 -0.24750252 0.051526755 0.27839845 -0.041481685 0.043700565 0.22537342 -0.4331876
0.14952488 -0.38322532 0.015589984 0.038792625 0.032355312 -0.32426283 -0.30711442 -0.070621416
0.044349533 0.45837954 -0.03260223 -0.41018116 0.020938493 0.46871686 -0.058096573 0.18351875
0.06117057 0.17806497 0.040021814 -0.14741391 0.021412892 0.062319856 0.42096084 -0.12600462
-0.0021694046 -0.038401775 0.036270253 -0.10234818 0.06118022 -0.15398325 -0.34877428 -0.0031633808
-0.36073712 -0.035751686 0.5143416 -0.15854064 0.0051050405 0.1515818 -1.4303131 -0.20751537
0.052928902 -0.52715164 0.015400983 0.028322356 -0.6794061 0.057256594 -0.04935801 -0.58078796
0.1008347 -0.18667725 -0.23458226 -0.21726084 -0.028793998 0.008716346 0.32794318 -0.0315879
-0.011316644 -0.034188244 -0.10070413 0.05494348 0.21912572 -0.017168183 0.7733902 -0.3907498
-0.56639475 -0.23256516 -0.3960051 0.107250206 -0.06542291 0.25699362 0.03920997 -0.048442863
0.3203251 -1.0257106 -0.201485 -0.06034812 0.010910751 -0.048711948 -0.1614717 -0.053181525
0.25628898 0.039755896 -0.0069277203 0.0040614605 0.041410603 -0.013447982 -0.0399331 0.14135739
0.068155624 -0.22269619 -0.26291347 0.005596916 0.33176184 0.18264435 -0.048085522 0.31409577
0.0446591 0.1981445 -0.2100596 -0.5625006 -0.5283073 0.016010527 0.014952106 0.2699676
-0.0340101 0.015238251 -0.12798925 0.057265855 0.024261076 -0.0641947 -0.00055045483 -0.03695689
0.024765573 -0.035779793 0.0694049 -0.45432904 0.50119764 1.0246421 -0.29580596 0.058054633
0.03224168 0.094619334 0.33344197 -0.050341766 -0.7294025 -0.021712089 0.041078303 0.060050268
0.49745306 -0.10557863 -0.10650459 -0.36276937 -0.13862047 0.035243668 0.492932 -0.03902737
-0.016916487 0.43390825 -2.3462725 0.036041684 -0.12469465 0.21846697 0.022832211 0.02355959
-0.016297117 0.040810224 -0.12846789 0.053940695 0.17693758 0.0108478675 0.008433968 0.7148695
-0.15437184 -0.4136976 -0.12525295 0.019571524 0.06856904 -0.0046493104 0.17000183 0.3520127
-0.0007494594 0.10402319 0.42765698 0.014789264 -0.058273476 0.3020623 0.21779838 -0.05849139
-0.021789316 -0.03035837 0.27946898 -0.05383107 -0.353131 0.014383852 0.28749806 -0.44220725
-0.079101704 -0.058894455 -0.06349607 -0.5817697 0.059952214 0.061848022 0.048541017 0.111226484
-0.18595001 0.07686122 -0.27946877 -0.14663091 -0.0036041976 -0.002495785 0.042838585 -0.0009248036
-0.26259652 -0.0016678541 -0.3520595 0.01893117 0.08699281 0.21369873 0.41894278 0.0015630551
-0.23311251 0.2418917 0.29416877 0.05848025 0.049709573 -0.33274576 0.103833884 -0.37285107
-0.058175888 0.04556626 -0.41267714 -0.061234232 -0.7473451 0.100316145 0.07558094 -0.5213074

4.bias f4 [256]
00000000: 1377 fabd 2286 29bd d003 acbe 2c16 4ebe
00000010: 97ef b4bc d3d3 b93b d735 9ebc 79e6 593a
00000020: 5fef 043c 8de4 31be 5aca 41be 77ed 2fbe
00000030: f9dd 10be 1266 713d 2aba 94be e68f 0dbd
00000040: 6a24 1dbe 03e9 3ebe 9fcd 713d 8cde 27be
00000050: 4958 2cbe 4ca1 6bbd 0848 d13b 04c0 75bd
00000060: 1cbe bf3d 736f d3bd 4b3c a7bd fdbb 0abe
00000070: 10ba d9bd 5bec 1bbd 1930 04be d127 47bd
00000080: 1ccf f9bc ddbb 56be 1f42 1abc 0c0b 9fbd
00000090: 93e3 aabd 6bb3 cdbe f95c 99bc e985 65be
000000a0: b116 74be 062e 2abe afac 9bbe 03dd d2bd
000000b0: 673b 0a3d 4fec 07be d651 343d 77d3 3fbe
000000c0: f599 d3bd ecd4 733d 9d3f d9bd ac07 ea3b
000000d0: 696f 89bd 77cf 99be d99c 5fbd 17e4 f13c
000000e0: 1f20 4bbe b4ee 0c3e 609d 4d3d 2216 da3d
000000f0: 7335 5ebe e373 10bf 1eba fbbd 671c 7abc
00000100: ce67 8abe 63f2 1ebe 2d6e af3c 5a42 6abd
00000110: aa46 923c 94f7 4dbe f572 a83d 842e 6d3d
00000120: 8dd8 0ebd 3536 88be 2ef2 0fbe fd15 c4bc
00000130: 0558 433b 37d9 01be c5ec 8abe 0fc5 14be
00000140: 5092 b3bd affc 6ebd 5d13 7cbc 995f d2bc
00000150: 37ab d7bd eb45 4f3a 6732 67be a848 edbc
00000160: d018 6bbd 4c61 86ba 222d 533d 0565 98be
00000170: 58c0 273e 759d 01bf 9991 ebbd 5167 01be
00000180: d9c4 59bc d87c 43be a802 9a3c a041 bdbd
00000190: 89d6 9a3c 404f 8f3d 5b26 6f3e 683d d43d
000001a0: 8684 6ab9 729c f8bd 80eb dabe a535 c7bd
000001b0: 5871 92be 2824 94bd ae55 c1be 727f 2f3d
000001c0: 97c2 4abe 34a2 19be 08a6 1abe 7292 36bd
000001d0: 5de1 dbbd bb6c 3dbe 8029 edbd f901 3c3c
000001e0: e2dc 25be 313c af3d de0a 6a3d 83e2 8ab9
000001f0: 1d7b 49bd 8439 23bd 85a4 fabd 8534 33bd
00000200: 4678 f5bd f7de 83bd 8866 193d 1072 b3be
00000210: ddb4 b5bd 59d0 efbc 2aa7 78be 3414 883d
00000220: 53e5 01bd 9e93 dfbd 7d1e 393d cc98 48bd
00000230: e0b9 933d 0554 d1be 41c7 3ebe cc07 f13b
00000240: 82e7 623c e0e9 163e 4413 47bd d92d 803d
00000250: 3bed 173e c820 00be 0b3c 22bd e018 bdbd
00000260: a7ae 58be acc9 10be fb75 8a3d 431b 07bd
00000270: 4b38 b9be 708e 10be 0d59 5dbc c1d3 e9bd
00000280: ddf0 7ebd 4784 7fbc 26e3 8bbe 06c5 45be
00000290: f64c 8fbe 89d7 583d 7046 acbd 04f0 b83d
000002a0: 5c0e efbd 9568 063d 0e1e 383d 7032 15be
000002b0: 13ac 04be 5fa1 e23d ce34 08bd cce1 52bd
000002c0: 9622 c1bd 4440 813d 05ae efbd f82c 72bd
000002d0: 92fd 6f3d 3367 87bc dd6c 303e b5f5 c2be
000002e0: 2b9b f8bd 6493 81bd 3a14 fdbd 91e1 ebbb
000002f0: a928 adbe cd7f c53d b4bb a0be 8c20 71bd
00000300: 0ad6 c6be 63e6 cfbd 4625 2cbe 8600 b1be
00000310: 44fc c0bd af18 823a c832 983a 2e7c 6bbe
00000320: ba3d adbc 0c87 fdbd 81be b7bd 7af5 90be
00000330: 85d7 3f3d c58b 08bd 5d96 40bd a072 89bd
00000340: a362 08be 9cb0 9cbd 86e4 87be c62d babd
00000350: 592e cbbe 4149 41be aada c23c 6a4d 37be
00000360: e0fe c53d d151 c5be 2074 9c3d d2bf 1e3d
00000370: 32b9 4d3e 85a4 62be a8f1 a0ba 131e 23bd
00000380: d7d5 28bd ea02 103d 9b2f 92be 4f33 0ebd
00000390: 46a5 0f3d 05ae 06be 04db 05be 3e98 74bd
000003a0: 6d11 32be f7a5 63bd 8575 c83d e7e8 93bc
000003b0: 62a8 d1bd 92b9 29be 8fd1 043d bb89 03be
000003c0: 7d1e ef3b fe29 a13d 2ea7 5e3e 1290 2fbe
000003d0: ec9b 423e a197 6fbe cb2b 21bd 962a 83bd
000003e0: a2d0 7d3e 3458 3fbd d27d 8ebe d672 fdbd
000003f0: 7d6c 87be 6955 8a3e 7ff0 95bd 4a37 6abe
-0.12229743 -0.041387685 -0.3359666 -0.20125645 -0.022086902 0.0056710034 -0.019312782 0.0008312236
0.008113711 -0.17372341 -0.18924847 -0.1718043 -0.14147176 0.058935232 -0.29048282 -0.03456106
-0.15345922 -0.18643574 0.059033986 -0.16393489 -0.16830553 -0.05752687 0.0063867606 -0.059997573
0.09362432 -0.103239916 -0.08165797 -0.13548274 -0.10631192 -0.038067203 -0.12908973 -0.048621956
-0.030494265 -0.20970102 -0.009415179 -0.07765779 -0.083441876 -0.40175948 -0.01872109 -0.22414364
-0.23836781 -0.16619119 -0.30405185 -0.10296061 0.033748057 -0.13273738 0.044023357 -0.18733011
-0.10332099 0.05952923 -0.106078364 0.007142028 -0.06710703 -0.30041096 -0.05459294 0.029527707
-0.19836472 0.13762933 0.050198913 0.10648753 -0.21700077 -0.5642683 -0.122913584 -0.015265561
-0.27032322 -0.1552215 0.02141484 -0.057192184 0.01785596 -0.20113975 0.08225051 0.05790569
-0.034874488 -0.26603857 -0.14057228 -0.023936266 0.0029807102 -0.12680517 -0.27133766 -0.14528297
-0.08768141 -0.058346447 -0.015385476 -0.02568035 -0.105307035 0.0007906842 -0.2257782 -0.02896531
-0.05739671 -0.0010252385 0.051556714 -0.29764572 0.16381967 -0.50630885 -0.1150238 -0.12637068
-0.013291561 -0.19090593 0.018800095 -0.092410326 0.018901126 0.069975376 0.23354475 0.10363275
-0.00022365348 -0.121392146 -0.42757797 -0.09727029 -0.286021 -0.07233459 -0.3776068 0.04284615
-0.19800793 -0.15003282 -0.15102398 -0.044573255 -0.10736344 -0.18498509 -0.11580181 0.01147508
-0.16197541 0.085564025 0.05713927 -0.00026490176 -0.049189676 -0.039849773 -0.12238411 -0.04375126
-0.11985831 -0.064390115 0.037451297 -0.3504796 -0.088723876 -0.029274153 -0.24282518 0.066444784
-0.03171284 -0.109168276 0.04519509 -0.048973843 0.07213187 -0.40884414 -0.18630697 0.007355666
0.013849141 0.14737654 -0.048602358 0.06258745 0.1483659 -0.12512505 -0.039608043 -0.0923326
-0.21160375 -0.14139432 0.06760784 -0.032984983 -0.3617576 -0.14116836 -0.013510001 -0.11417342
-0.062241424 -0.015595502 -0.27321738 -0.1931344 -0.27988404 0.052939925 -0.084118724 0.09030154
-0.11672661 0.03281458 0.044950537 -0.14570022 -0.12956266 0.11065935 -0.033253483 -0.051484868
-0.09430425 0.06311086 -0.117031135 -0.059124917 0.058591433 -0.016528701 0.17229028 -0.38078085
-0.12138971 -0.06326941 -0.123573735 -0.0071985205 -0.33820084 0.09643517 -0.31393206 -0.05886893
-0.38835174 -0.10151365 -0.16811094 -0.34570712 -0.09423116 0.0009925569 0.0011611814 -0.2299659
-0.021147598 -0.12379274 -0.089718826 -0.28312284 0.046836395 -0.03333642 -0.047018398 -0.06711316
-0.13318877 -0.07650873 -0.26541537 -0.09090762 -0.39683798 -0.188756 0.023785908 -0.17900625
0.09667754 -0.38538983 0.076393366 0.038757153 0.20090178 -0.22133072 -0.001227905 -0.039823603
-0.04121956 0.03515903 -0.28551945 -0.0347169 0.035069726 -0.1315232 -0.13071829 -0.059715502
-0.1738946 -0.0555782 0.0978804 -0.018055392 -0.102371946 -0.16574696 0.032426413 -0.12845509
0.0072973357 0.078693375 0.21743461 -0.17144802 0.19004792 -0.23397686 -0.039348405 -0.06404607
0.24786618 -0.046714976 -0.27830368 -0.12375419 -0.26449957 0.27018288 -0.073212616 -0.22872654

6.weight f4 [14, 256]
00000000: 2a24 813d a1d7 17bc 6c1e 5f3e 230f 333e
00000010: 0ae3 18bd 88f8 c1be b6cd b8bc 026f e83c
00000020: a8c1 84bc 273f 9e3e bb59 803d 77f2 663e
00000030: 1084 c7bd 318d 5fbc ed8c 4d3d 77fa 1abd
00000040: 56c2 4b3d 84c6 63bf 9771 4cbc cad7 713d
00000050: 13eb ae3d 86c2 adbb 2de4 a6bc 2257 70bc
00000060: a229 80bc c62e d6bc c181 dbbe 44fb 90bd
00000070: 8708 743c 21b6 f33c 73f0 a63c d899 52bd
00000080: cee5 01bd 65f4 5d3e ba02 5dbd 3f43 313c
00000090: 9c0a 57bd 03c6 4bbf a24f 1f3b 59e2 c6be
000000a0: 6821 0fbd 0f17 b33d 55f8 9b3d cf48 dd3d
000000b0: dcb6 36bf 6b43 f4bc 52c2 20be b272 623e
000000c0: 3ad1 b53d e55a 6bbb 8562 363c 4140 2ebd
000000d0: c738 14bf 33d5 c6be a023 f13c dd4e 353c
000000e0: e313 81bd d11a 2d3d 177c 023c 9bad 6f3d
000000f0: 3ebc d3bd dc79 243d 2e42 afbd 0d48 033d
00000100: 723c 8f3e 83db 81bd 2f46 fcbd 1892 d3bc
00000110: 81d4 97bc 89fe 9c3e 896a 993d dce1 a8bd
00000120: d495 60bd 083a 2ebd 8697 b4bc 4ca4 0e3e
00000130: a8cf 7fbd 4080 e6bc 71a2 8abc ac2b f63d
00000140: b092 9bbb c9f8 3e3c 50e4 0b3e acff d5be
00000150: 0c9d a0be 6350 703e 49e4 16be b6ff 0f3d
00000160: 2237 f23d 3327 abbd 31e5 0e3d 9fee 123e
00000170: 3185 6f3d b495 bcbd 7756 ee3a c9a8 243d
00000180: d856 173d 289d c73d d13e 9bbd 2e79 bebd
00000190: e07b 13bd 1182 c5bc 0eab 193d 0734 00bd
000001a0: 8445 8a3c e1e4 edbd 4aa2 083e 62af 6e3d
000001b0: 6570 21be cd9a 533e 4105 2cbf 57bb b0bc
000001c0: a50b 723d 0212 abbe fb0a 873d f2d1 19be
000001d0: 7b48 3d3e 7cfd 0ebe 4849 73bd 90fc 9dbe
000001e0: 7c31 05be bfe6 393d 3fdd c7bc e7c9 e0bd
000001f0: 5a58 cf3c a005 3d3e 3761 f5bd 4dd4 debd
00000200: 97a1 883d c779 a6bc e51b d13d 9b06 973e
00000210: b54a 4d3d b4f8 ba3d d8fe b03d 3a15 a93d
00000220: 7416 eebc 005d c93d 5e48 863c b2ed 09be
00000230: ad34 6c3b c58d 6d3d 24ab 04bf 5cc9 c03d
00000240: 7217 93be fa02 573e 5b99 c63c 0b20 48bf
00000250: cdf2 4a3d 687b 313e 87a2 8a3e e345 0a3d
00000260: ca49 d93d 679c 4a3a f476 883c 5f13 4fbf
00000270: 4051 203d 5c04 9a3d b1c8 cdbd 6d22 c63c
00000280: 8f2f 5ebd bb00 adbd 12e4 773d d3f7 123f
00000290: 8e25 2a3e e483 07be 4f88 29bc 8c00 943c
000002a0: 0470 ddbd 9034 0a3d e1c6 65bd 2464 67be
000002b0: e062 45bc d4f8 353d f6ba d73e 6cbe 61bd
000002c0: bf11 9f3d 4ab4 c83c 171f 8f3d 9f8f 9dbd
000002d0: 35d6 82b9 be0f bc3d 0785 fd3d 8a8e fabd
000002e0: ee3d b73d cb45 66be 5a5d 143e 8e4d 86bd
000002f0: 6239 4dbf 673a 2d3e 2125 52be 37f4 f6bd
00000300: cd7e 25bd c4ac c43e ab63 d73d dfcc 50be
00000310: bb62 3b3e 9db8 993d 2bcb 0abd e44c f7be
00000320: f384 69bd 0be9 87be cf42 03bd 1350 823d
00000330: ad2f a2bd 0fd0 6cbd 502a 69be 3079 333c
00000340: ab3e 9bbc 12a7 4c3d cddf 76be 8858 833d
00000350: 285b 12be 051f 02be fad6 92bc 09a1 c5be
00000360: 9e96 84bb 9b6e f3bd 6dd3 02be 2640 aa3d
00000370: b5e2 f13a 9bfe a13d bc17 2d3d 3216 bb3e
00000380: 10a3 873d b725 e43d 03da 813d 40c5 a13d
00000390: 79a8 2abe 7a42 0e3e 7688 f8bd 7238 f73c
000003a0: 6dbf a639 7a45 e43e 03d7 353b 8fe5 12be
000003b0: 6554 f53d 2173 b0be e164 e83c 1263 683e
000003c0: 48dd b53b fcb5 13be af83 4b3e 549c ffbc
000003d0: 3cdb 403d 17c1 71bd 2318 903e b5c2 ec3d
000003e0: 68ff 4ebd 6379 dfbd c338 d33d a46d 8f3c
000003f0: aa30 373c a20b 2f3c fcce 58be 7f8c dabd
0.06305726 -0.0092677185 0.21788949 0.17486243 -0.037325896 -0.37884927 -0.022559028 0.028373245
-0.016205624 0.30907556 0.06267115 0.2255343 -0.09741986 -0.0136445025 0.050183225 -0.03783652
0.04974588 -0.88974786 -0.012478254 0.059043683 0.085409306 -0.00530273 -0.020372475 -0.014669212
-0.015644852 -0.02614535 -0.42872432 -0.07079175 0.014894611 0.029749932 0.020378327 -0.051416248
-0.0317133 0.2167526 -0.05395768 0.010819255 -0.052500352 -0.79599017 0.002430894 -0.38844565
-0.034943968 0.087446325 0.07615725 0.10804903 -0.7137277 -0.029817304 -0.15699127 0.22114065
0.088777974 -0.0035912332 0.011131887 -0.042541746 -0.57899135 -0.38834533 0.029435933 0.011066166
-0.06302621 0.042261902 0.007964156 0.058515172 -0.10338639 0.040155277 -0.08557545 0.032051135
0.27975804 -0.06340697 -0.12318074 -0.025826499 -0.018533947 0.30662945 0.07491023 -0.08246204
-0.054830387 -0.04253581 -0.022044908 0.13929862 -0.062453896 -0.028137326 -0.016923161 0.120200485
-0.004747711 0.011655995 0.13661313 -0.41796625 -0.31369817 0.23468165 -0.14735521 0.035155974
0.11826922 -0.08357086 0.034886543 0.14348839 0.05847663 -0.09208241 0.0018183728 0.04020003
0.036948055 0.09746772 -0.07580341 -0.09300457 -0.03600681 -0.024109872 0.037516646 -0.031299617
0.01687885 -0.11615921 0.13343158 0.058272727 -0.15765531 0.2066452 -0.67195517 -0.021573706
0.059093136 -0.33412176 0.06593891 -0.15021494 0.1848468 -0.13963884 -0.05939606 -0.30856752
-0.13007158 0.045386072 -0.02439749 -0.1097601 0.025310684 0.18459177 -0.11981433 -0.10880337
0.06671446 -0.02032174 0.102103986 0.29497227 0.050120074 0.091294676 0.086423576 0.08256002
-0.02906344 0.098321915 0.01639193 -0.1346958 0.003604214 0.05799653 -0.5182364 0.09413406
-0.28728825 0.20997229 0.024243047 -0.78173894 0.04954796 0.17332232 0.27077124 0.033758055
0.10609777 0.0007728994 0.016658284 -0.8088893 0.039139986 0.07520363 -0.100480445 0.024186337
-0.054244574 -0.08447405 0.06052024 0.574094 0.16615888 -0.13233906 -0.01034744 0.018066667
-0.10812381 0.033741534 -0.05609787 -0.22596794 -0.012047499 0.044426754 0.42134827 -0.05511324
0.07767057 0.024500031 0.06988352 -0.07693409 -0.0002495513 0.0918269 0.123788886 -0.122342184
0.08947359 -0.22487561 0.14488736 -0.06557761 -0.80165684 0.1691681 -0.20521976 -0.12058299
-0.04040413 0.3841306 0.10517057 -0.20390652 0.18299381 0.07505915 -0.033885162 -0.4830085
-0.057011556 -0.26544985 -0.032046136 0.06362929 -0.0791925 -0.057815608 -0.22770047 0.010954186
-0.01895078 0.04996402 -0.2410881 0.0641337 -0.14292586 -0.12707146 -0.017924774 -0.38599423
-0.0040462753 -0.11886331 -0.12775965 0.083130166 0.0018454405 0.0790989 0.042258963 0.3654037
0.066228986 0.11140006 0.063404106 0.078989506 -0.1666583 0.13892546 -0.12135403 0.030178282
0.0003180461 0.44584256 0.0027746565 -0.14345382 0.119789876 -0.34462836 0.028368415 0.22694042
0.0055500604 -0.1442489 0.19874452 -0.031202473 0.04708408 -0.059022035 0.28143415 0.11560575
-0.050536543 -0.109118246 0.10313561 0.017508335 0.011181036 0.010683926 -0.21172708 -0.10671329

6.bias f4 [14]
00000000: a35c 703f af8d 2a3f 8456 623f ff7f 2abe
00000010: a783 593f ad9a 3abf 02a6 043f bfa5 2fbd
00000020: 158e 053f 8077 083d 2035 71bf eeba 9fbc
00000030: e4bb b13e 2d4a e13e
0.9389135 0.6662244 0.8841326 -0.16650389 0.8496651 -0.72892267 0.5181581 -0.042882677
0.52169925 0.03331709 -0.9422169 -0.019498315 0.34713662 0.44001904
